COIL/vae/c1_v6_vae.pt (torch, 4487 bytes, 10 tensors)

fc1.weight f4 [12, 6]
000000 ef 0d c4 3e 20 b9 6a 3e 4e 7c 00 3f 7c ea 3d 3f
       0.3829188 0.22922182 0.50189674 0.7418592
000010 89 d8 59 bf 74 67 c5 be 6b b3 61 3f 1d 0a df 3e
       -0.8509603 -0.3855549 0.88164395 0.43562403
000020 3d c9 13 3f 19 bb 9f be 2d e0 a6 39 de be 1c 3f
       0.5772894 -0.31197432 0.0003182901 0.6122874
000030 37 fc d4 be 27 64 48 3f b4 a1 19 3f 48 33 9a be
       -0.41598675 0.7827782 0.60012364 -0.3011725
000040 12 f1 d1 3e 35 f6 2c be 8b 35 1f bf 8e 6c 95 3e
       0.41004235 -0.16890796 -0.62191075 0.29184383
000050 e6 57 f5 3e 28 9f 52 3f 1b 4f b2 3e e7 61 9c 3e
       0.47918624 0.82274103 0.34825978 0.30543444
000060 ad 9e 66 3e 31 90 60 bf 58 d2 c1 3e 0c 45 91 be
       0.22521468 -0.8772002 0.37855792 -0.2837299
000070 cc 89 c6 3e c4 3c d8 be 70 eb 08 3e f0 da 35 3e
       0.38777006 -0.4223386 0.13371062 0.177593
000080 54 1d 2f 3f 58 54 e4 3e 77 9c 8f 3e 76 cb 8c 3f
       0.68404126 0.445956 0.2804906 1.0999591
000090 2a 4e 41 3f d2 0d 19 3f 69 aa 7f bf 18 36 3d 3f
       0.75509894 0.59786713 -0.998694 0.73910666
0000a0 0b b3 24 3f 6d 49 bd 3c 4e 61 e4 be 62 44 13 be
       0.643357 0.023106301 -0.44605488 -0.14381555
0000b0 1b 59 21 bd da 69 4e 3e b2 26 5b be dd 8b 89 3f
       -0.03939162 0.20157567 -0.2140148 1.0745808
0000c0 f1 d1 c5 3e 33 f6 ae be 4d 87 33 3f 68 52 97 3e
       0.38636735 -0.3417221 0.7012833 0.29555058
0000d0 c3 bb 9b 3e 1c e8 6f 3e 44 32 da 3e 19 e9 eb 3e
       0.30416688 0.23428386 0.42616475 0.46076277
0000e0 8e 55 30 3e 5e 5c e9 be ef e2 2a bf 95 6c ce 3e
       0.17220137 -0.45578283 -0.66752523 0.40317217
0000f0 ff dc 2a 3f a1 45 d9 3e 95 2c 72 3f 34 90 e2 3e
       0.66743463 0.42435935 0.94599277 0.44250643
000100 79 80 5d 3e 86 4e 30 be 73 3f 90 be b4 12 f8 bc
       0.2163104 -0.17217454 -0.28173408 -0.030282356
000110 bc 23 bf bd 0e 19 5c be 99 bf 32 be 9a 6c 43 3e
       -0.09332988 -0.21493933 -0.17455901 0.19084397

fc1.bias f4 [12]
000000 31 95 42 3f 6c cc ec bd d2 a2 11 3f 01 c2 43 bd
       0.760089 -0.11562428 0.5688907 -0.04779244
000010 bc 65 b1 3f 62 09 63 bf 23 16 b0 bb 52 a4 9c 3f
       1.3859172 -0.8868619 -0.0053737327 1.2237647
000020 0e 0b 0f bf 34 da 11 3f 77 fc e7 be 9e 94 0f 3d
       -0.55876243 0.56973577 -0.45309803 0.03505384

fc21.weight f4 [6, 12]
000000 bb 59 8b bf 28 ac 03 3f 0b bb aa be 43 ca 19 bf
       -1.0886759 0.51434565 -0.33345827 -0.6007425
000010 4b 7d 08 3f 6a 40 1a bd 1e 96 1b 3f 8c 92 ef bd
       0.5331618 -0.037659086 0.60775936 -0.116978735
000020 d6 a3 e5 3e 8b 6e 29 3e 42 58 95 3e bf b3 63 be
       0.4485156 0.16546075 0.29168898 -0.22236536
000030 c7 44 b4 be 63 9a 81 3e 6a ba 9c 3f 22 49 cc be
       -0.35208723 0.253131 1.2244389 -0.39899546
000040 a4 07 fa be ec 8c f4 3c b2 92 1f be 4e eb e7 be
       -0.48833954 0.029852353 -0.15583304 -0.4529671
000050 1c dc b0 be 1b 84 3b 3f 34 7d 8a 3e 20 0e 2b be
       -0.3454293 0.7324845 0.27048647 -0.16704607
000060 b8 31 51 bf 3d 5a 87 3e b6 87 8e be 1f 22 d1 3c
       -0.8171649 0.26436034 -0.27837914 0.025528966
000070 a1 a7 5f bf dd d0 4f 3f 1a 99 42 be 28 49 23 3f
       -0.87365156 0.81178075 -0.19003716 0.637835
000080 59 56 d7 3e 0e 18 44 3e 6a 10 cb bd e0 67 51 be
       0.42058066 0.19149801 -0.0991524 -0.20449781
000090 bd db 5a 3f 1f 5e 85 3e c2 3b 4c bf fc a0 1a bf
       0.85491544 0.2604837 -0.79778683 -0.6040189
0000a0 97 a6 87 be 1f b8 7a bd 57 db 42 be 51 fd 0c 3e
       -0.26494285 -0.061210748 -0.19028984 0.13768508
0000b0 dd 65 66 3e 93 7e 16 3f 6b 33 b0 3d 3d da 3c 3e
       0.22499795 0.58786887 0.08603557 0.18442626
0000c0 5a 95 be bd dc fd a6 3e 6c ee 68 be a7 8b fb 3e
       -0.0930583 0.32615554 -0.227472 0.49129984
0000d0 7f 0c a3 bf b3 89 6e 3f 15 72 08 3f ec 52 8e bf
       -1.2738189 0.9317886 0.53299075 -1.1119056
0000e0 af 8f 82 3f c5 ac 15 bf 5c cc 6f 3f 91 4e 28 be
       1.0200099 -0.5846675 0.936712 -0.1643622
0000f0 73 6d 07 3e 9a 59 49 be b2 f7 24 bd c4 79 8f bd
       0.13225345 -0.19663087 -0.040275283 -0.07005647
000100 92 b6 1c bf 2e 24 ef be 07 be 6f 3f 6c 28 8e 3e
       -0.6121608 -0.4670729 0.93649334 0.27765214
000110 31 b6 ed be 7b e0 52 3e 2a e2 9b be e6 d4 de bd
       -0.46428064 0.20593445 -0.30445987 -0.10880451

fc21.bias f4 [6]
000000 56 48 83 be 2b 48 ec be 84 e9 a0 be 9d 0d 20 be
       -0.25641125 -0.4614881 -0.31428158 -0.15630193
000010 3d 81 88 bf ed 18 af 3e
       -1.066444 0.34198704

fc22.weight f4 [6, 12]
000000 df 73 8c bc a1 54 c3 bb 7d de 8b be f5 4a cf be
       -0.017145095 -0.0059610163 -0.27318183 -0.40486875
000010 c9 c1 9b be 26 ba 5b 3e 89 6d 03 be e1 f4 f9 be
       -0.30421284 0.21457729 -0.12834753 -0.4881964
000020 ca f5 ae 3d 79 d2 93 be 88 80 31 be 7f d5 7f be
       0.08542974 -0.28871515 -0.17334187 -0.24983786
000030 82 c4 0f 3e b2 f6 72 3c 33 64 05 bd 39 53 4b 3c
       0.14039806 0.014829325 -0.03256626 0.012409979
000040 e5 32 4d bf e4 a1 2e 3d ef 7e 89 be a7 66 b1 be
       -0.80155784 0.04263486 -0.26854655 -0.3464863
000050 94 0a a4 be 5d 1c db be 16 65 9d bd 08 18 38 3e
       -0.3203932 -0.42795077 -0.07685296 0.17977917
000060 a0 f8 ea be 31 5e 4b 3e 82 be 1c bf 3c fb 0e be
       -0.4589281 0.1986015 -0.6122819 -0.13963026
000070 08 b8 21 bf 32 c7 9e 3e 08 4b b0 be 2b 56 d5 3d
       -0.63171434 0.3101135 -0.34432244 0.10416826
000080 15 03 49 3d 4d f5 af bd af 8f d4 bd 4f d6 0a bb
       0.049075205 -0.08591709 -0.10378968 -0.0021184867
000090 78 f3 0a bf b0 bb 2b 3d 16 ea 6b be 01 a2 52 be
       -0.54277754 0.04192704 -0.23038515 -0.20569612
0000a0 6a 6e 1c be 5e 30 f9 3c 9b 8f 80 bc 51 e4 ef be
       -0.15276495 0.030418571 -0.015693476 -0.4685388
0000b0 49 07 44 3e 0f 15 9b be 49 a1 83 3d 68 ed 92 3e
       0.19143404 -0.30289504 0.06427247 0.28696752
0000c0 97 40 91 3e d4 e3 30 be ee 83 5a be 2a 84 33 3e
       0.2836959 -0.1727441 -0.2133939 0.17530885
0000d0 78 fc 75 be 23 d8 93 bc e0 8b 80 bc 65 e1 f6 bd
       -0.2402209 -0.018047398 -0.015691698 -0.12054709
0000e0 0a 65 2b 3e 40 86 3f be 4b 92 82 be e4 d3 0f 39
       0.16737762 -0.18703556 -0.25502238 0.00013716478
0000f0 8b 98 93 3d c0 4c 26 3e c3 59 cf 3b 00 ac b5 3d
       0.0720683 0.16240215 0.006327839 0.08870697
000100 4f 7d 27 bf b5 db 46 bd 00 48 41 bf 75 93 14 bf
       -0.6542558 -0.048549373 -0.7550049 -0.580375
000110 82 0f da 3e 0f 92 83 be 00 78 2c be ae 3e db 3c
       0.42589957 -0.2569737 -0.16842651 0.026763286

fc22.bias f4 [6]
000000 3c cc d9 be cf 77 f1 be a9 76 d2 be 5a 04 0e bf
       -0.4253863 -0.4716172 -0.41106156 -0.5547539
000010 1c 5d ea be 2e a8 4a be
       -0.45774162 -0.19790718

fc3.weight f4 [12, 6]
000000 0c cc b1 bd 07 9b 79 3e cf 42 27 3e e1 da cb 3e
       -0.08681497 0.24375544 0.16334079 0.3981543
000010 f8 66 84 3d b8 37 90 bd 0c 22 bc be 8a 3d 82 3e
       0.06464952 -0.070418775 -0.36744726 0.25437576
000020 f2 8a 73 bd 89 d9 b7 3d 6d f5 1f 3e 49 c1 6d bf
       -0.05945868 0.089770384 0.15620966 -0.92873055
000030 c1 40 21 3e 41 7c 6d 3d a0 11 d6 be 5f 74 4f bc
       0.15747358 0.057979826 -0.41810322 -0.012662022
000040 57 a0 3f 3e 3b 98 3a be 22 ac 1a bf fe bf 46 bf
       0.18713509 -0.18222134 -0.60418904 -0.77636707
000050 54 7f 0a be 52 01 b5 3d 85 27 d0 3e 94 59 9a 3e
       -0.13525134 0.088381425 0.4065515 0.30146468
000060 c0 c7 c4 3e 5f 57 af 3b 8e 7f 72 3e 0e ff 7f 3d
       0.38433647 0.0053509916 0.23681471 0.0624991
000070 6e d5 f9 3d 44 e8 ca 3e 50 31 f7 3e 39 da 94 bd
       0.121989116 0.3963033 0.4827981 -0.07268185
000080 b8 5a 58 bd 07 50 35 bf 4b b0 06 3e 69 14 99 bd
       -0.05282089 -0.7082524 0.13153188 -0.07474596
000090 23 6f 9c be 76 d2 51 3e 29 5e f7 bc d6 22 f2 be
       -0.3055354 0.2049044 -0.030196266 -0.47292203
0000a0 20 0f 76 3e 67 74 10 be a5 a2 38 3d 27 91 af bd
       0.24029207 -0.14106904 0.045076985 -0.085726075
0000b0 1e c6 5a 3f 5f 54 d5 3d ad 7b 83 bd 26 60 bf 3c
       0.8545855 0.10416483 -0.06420074 0.023361277
0000c0 91 68 f1 3e 9e fd 08 3f 13 34 77 3e 76 8b ad be
       0.4715009 0.5351199 0.24140958 -0.33895463
0000d0 e0 fd f4 bd ee 5f 88 be e5 02 a6 3e ca 50 4d bf
       -0.11962485 -0.2663569 0.32424083 -0.802014
0000e0 75 ca ff bc f4 9a b2 3d d5 fe 6e be b7 94 03 bf
       -0.031224469 0.08720961 -0.23339398 -0.51398796
0000f0 31 4b 50 3f 31 76 4b 3c f6 7a 90 be bf 3d 3a 3f
       0.81364733 0.012418316 -0.28218812 0.7275047
000100 54 df 73 3e 5f c5 9e 3d ea 8f c1 3e 15 53 47 bf
       0.23815662 0.07752489 0.3780511 -0.7786115
000110 e9 86 6a 3e 23 e6 f9 3d aa c3 48 bd 85 98 24 bf
       0.22903027 0.12202098 -0.049014725 -0.64295226

fc3.bias f4 [12]
000000 b1 18 6b 3f bb 7c aa 3e 11 b4 5e 3f c3 9f c4 3e
       0.9183455 0.33298287 0.8699351 0.3840314
000010 c1 52 7a 3f 0d 7d 48 3e 98 9d a4 3f 59 f1 cc 3e
       0.9778252 0.19578953 1.2860594 0.40027884
000020 dd 03 d4 3e bb 9c dc be d0 fb bd 3e 9c 2e 97 3f
       0.41409197 -0.43088326 0.3710618 1.1811099

fc4.weight f4 [6, 12]
000000 21 ab af 3e 9a 78 78 bc 67 c4 0c 3f ec d5 fc bc
       0.34310248 -0.015165472 0.54987186 -0.030863725
000010 01 d3 8e 3e d2 cb a8 3d da 92 bb be 23 e4 6e bb
       0.27895358 0.08242001 -0.36635476 -0.0036451898
000020 6d 8d b4 bc be 7a c6 3a f4 89 6c 3f 5a 1d 42 3d
       -0.022040093 0.0015142781 0.92398 0.047391273
000030 9a d0 22 3f 43 b5 93 3d cf 52 da bd 55 9d 2b bd
       0.6359955 0.07212307 -0.10660326 -0.04189809
000040 de 70 01 3f 30 05 b7 39 4b 6c 25 3f 61 82 9c 3c
       0.50562847 0.00034908345 0.64618367 0.019105138
000050 e2 c1 7a 3c d8 b5 62 3f 40 d3 5e 3d c9 65 79 bf
       0.015305014 0.8855872 0.054400682 -0.97420937
000060 69 6b f2 3e 79 96 8b 3f 58 2f 56 3e ac b9 3f bd
       0.47347572 1.0905296 0.20916498 -0.04680793
000070 86 ae d7 be 09 7c 12 3d 16 3c 80 3e 7f ec 81 3d
       -0.42125338 0.03576282 0.25045842 0.06343936
000080 91 b5 9d 3d 5e c8 de bc fe 51 4b 3c 96 ff 2d 3e
       0.07700647 -0.027195152 0.012409685 0.1699203
000090 3f ab 93 bd 22 aa 3c 3d 79 ca ed bc 13 37 83 3f
       -0.07210397 0.04606069 -0.02902721 1.0251182
0000a0 7d 53 80 3e c0 47 20 3d bc db c5 3e 59 c9 52 3d
       0.25063697 0.039130926 0.38644207 0.05146155
0000b0 e3 ec 06 bf bf 4e 80 3b 8d f5 05 3d d0 91 e0 3d
       -0.5270521 0.0039156373 0.03270488 0.109653115
0000c0 7e fa 11 bf 72 59 8f bb c9 8e 45 3e 85 11 07 be
       -0.57022846 -0.0043746764 0.1929275 -0.13190277
0000d0 a8 b9 a2 3e 28 9a bc 3f 3e 25 ac 3e b0 5e 83 3d
       0.3178227 1.4734545 0.33622164 0.064145446
0000e0 fa b3 37 3e 7a 3b 10 3d 70 bd 88 3b 30 83 d9 3d
       0.1793975 0.03521297 0.0041729733 0.10620725
0000f0 72 12 b7 3e 03 b6 8f 3d 3b d3 fd be 44 cc 96 3c
       0.3575626 0.07017138 -0.4957522 0.018407948
000100 06 e1 be 3e 27 ca a1 3d 4a d4 f5 3d d5 05 8c 3f
       0.37281054 0.078998856 0.120033816 1.093928
000110 53 c0 88 3d d3 b5 ff 3c 04 08 b0 bd 27 b0 5b 3e
       0.06677308 0.03121463 -0.08595279 0.21453916

fc4.bias f4 [6]
000000 d6 b5 42 3e 46 ea 01 3f cb 90 89 3d 3a 3c 52 3e
       0.19014677 0.507481 0.0671707 0.20530787
000010 82 fd 9e 3e d3 46 17 3e
       0.31052786 0.14773111
