COIL/vae/c1_v7_vae.pt (torch, 5127 bytes, 10 tensors)

fc1.weight f4 [14, 7]
0.012063604 0.99105704 -0.05323032 0.6734338 0.34211424 -0.41409677 0.2599906 -0.2244939
-0.32087255 -0.06919703 -0.29727986 -0.24425805 0.30555275 -0.30610347 -0.55949116 0.48211434
0.64004046 -0.16271268 0.17986204 1.0801263 -0.14578871 0.71304405 -0.27365547 0.52888817
0.15690354 -0.50867546 0.74801177 0.46412703 0.0022710003 -0.2840373 0.76288885 -0.52067715
1.1236625 -0.014008373 0.54234385 -0.08699298 -0.3689189 -0.1654853 0.0035850406 0.24278173
0.052230507 -0.35825482 -0.4802176 -0.23411244 -0.012464444 0.7577463 -0.1438502 0.78791636
0.57933044 -0.29627538 -0.2808679 -0.3589343 -0.2698407 -0.30355728 -0.24262406 1.3100488
-0.17612931 0.21035656 -0.32250252 -0.20801859 -0.23755373 -0.10480288 -0.2733844 0.14431909
-0.07374582 0.6495285 0.12343968 0.0058926586 -0.27890918 -0.6070709 -0.055394858 -0.19620954
-0.1430983 -0.25746778 0.008026123 -0.18224159 -0.13122855 0.53828084 0.65823734 0.316633
-0.74552196 -0.39375392 0.28988054 0.26856226 0.4642298 -0.33587953 0.60273165 0.49375913
-0.17662142 0.05917183 -0.18189359 0.6581606 -0.011991175 -0.6465695 0.11789291 0.5754257
0.638394 -0.19299309
00000000: 6ca6 453c eab5 7d3f 0908 5abd 2866 2c3f
00000010: 9929 af3e 7e04 d4be 7d1d 853e bbe1 65be
00000020: 6849 a4be 2cb7 8dbd 1135 98be c81e 7abe
00000030: 6971 9c3e 98b9 9cbe d03a 0fbf b1d7 f63e
00000040: b1d9 233f 279e 26be c12d 383e 9441 8a3f
00000050: a349 15be 0e8a 363f 921c 8cbe 3765 073f
00000060: 52ab 203e 8e38 02bf b37d 3f3f 0fa2 ed3e
00000070: 10d5 143b 566d 91be af4c 433f 194b 05bf
00000080: 2cd4 8f3f 6083 65bc 0cd7 0a3f 6029 b2bd
00000090: f0e2 bcbe fa74 29be 00f3 6a3b c69b 783e
000000a0: a8ef 553d 2d6d b7be 15df f5be 2cbb 6fbe
000000b0: ab37 4cbc a9fb 413f 784d 13be e3b4 493f
000000c0: 004f 143f 68b1 97be ebcd 8fbe 3dc6 b7be
000000d0: 8f28 8abe dc6b 9bbe 7172 78be aeaf a73f
000000e0: 3e5b 34be b667 573e 0d1f a5be d302 55be
000000f0: 4941 73be e4a2 d6bd 0af9 8bbe 62c8 133e
00000100: 0c08 97bd 8047 263f f1cd fc3d 3417 c13b
00000110: 2fcd 8ebe 0069 1bbf b8e5 62bd 27eb 48be
00000120: 5c88 12be d1d2 83be 0080 033c 8a9d 3abe
00000130: c760 06be c6cc 093f 3e82 283f b81d a23e
00000140: 87da 3ebf 1d9a c9be 396b 943e fe80 893e
00000150: 87af ed3e 67f8 abbe 9f4c 1a3f ffcd fc3e
00000160: 3fdc 34be 295e 723d 5042 3abe 377d 283f
00000170: a276 44bc 9485 25bf d771 f13d 194f 133f
00000180: ca6d 233f fb9f 45be

fc1.bias f4 [14]
0.23453228 -0.11145076 0.40545505 -0.4329375 0.48036832 -0.2704987 0.24910747 0.5538164
-0.0087658465 0.4437781 0.191932 0.35021758 0.31795636 0.40342152
00000000: 3b29 703e 4c40 e4bd ce97 cf3e fca9 ddbe
00000010: d6f2 f53e ce7e 8abe 0716 7f3e e9c6 0d3f
00000020: a09e 0fbc e236 e33e d289 443e b84f b33e
00000030: 2dcb a23e 448d ce3e

fc21.weight f4 [7, 14]
-0.009602354 -0.0808174 0.6983682 -0.25675264 -0.42883226 -0.17539634 -0.4396089 -1.8115178
-0.13694268 0.7129483 -0.1921233 -0.13573286 0.08440412 0.49918836 -0.5961366 0.020182848
0.8015715 0.036111005 -0.09796711 0.1962784 0.5726533 0.14962818 -0.22217236 -0.514407
-0.08664945 -1.017666 -0.3218312 0.6906603 -0.34076652 -0.20696467 0.27553087 0.7538341
-0.94995713 0.18019503 0.25272006 0.10289013 0.24797532 0.0057108235 -0.13865826 0.8186787
0.32817405 -0.3275137 -0.8702524 0.1903975 -0.71439373 0.512784 0.40566063 -0.23628986
-0.43226412 -0.088293396 0.06767318 -0.01670971 -0.20422438 0.054099195 0.16982496 1.0943476
0.24934751 -0.14189982 0.1747566 0.44615832 0.025352027 0.19647405 -0.30628026 0.09506888
-0.15965888 -0.07716145 0.17980236 -0.33027214 -0.16454376 0.017728366 0.5819763 0.255442
-0.854338 0.4867668 -0.41939214 -0.17041518 0.4431922 -0.14355242 0.24510208 0.46727374
0.04432136 -0.8801526 0.5479779 0.015359125 -0.5183829 0.22451076 0.29035595 0.34175205
0.7368587 -0.0710924 0.054225843 -0.1959046 0.25803742 0.6248648 0.22715795 -0.62862396
0.42796993 -0.9418355
00000000: 3153 1dbc 9883 a5bd 42c8 323f 1575 83be
00000010: e78f dbbe 199b 33be 6b14 e1be d1df e7bf
00000020: b43a 0cbe c883 363f f8bb 44be 8efd 0abe
00000030: 11dc ac3d 9e95 ff3e 699c 18bf 8056 a53c
00000040: ca33 4d3f 22e9 133d fba2 c8bd 34fd 483e
00000050: 6899 123f 2138 193e 2781 63be 2db0 03bf
00000060: 4475 b1bd e142 82bf 0fc7 a4be 1dcf 303f
00000070: f378 aebe 8cee 53be 6212 8d3e 46fb 403f
00000080: 6430 73bf 0c85 383e 8664 813e 0fb8 d23d
00000090: 3eed 7d3e dc21 bb3b 6efc 0dbe ed94 513f
000000a0: 6e06 a83e e0af a7be dcc8 5ebf 90f7 423e
000000b0: 82e2 36bf d045 033f c0b2 cf3e f8f5 71be
000000c0: b951 ddbe 2bd3 b4bd 3c98 8a3d cde2 88bc
000000d0: 3220 51be 1e97 5d3d 98e6 2d3e 9513 8c3f
000000e0: f454 7f3e 304e 11be 65f3 323e dd6e e43e
000000f0: 0eaf cf3c 7e30 493e c4d0 9cbe 79b3 c23d
00000100: 9e7d 23be d306 9ebd 1c1e 383e 6e19 a9be
00000110: 297e 28be 143b 913c 66fc 143f 4bc9 823e
00000120: e5b5 5abf 7f39 f93e 91ba d6be 5181 2ebe
00000130: 17ea e23e 68ff 12be 0afc 7a3e 813e ef3e
00000140: 508a 353d ae51 61bf 4848 0c3f d7a4 7b3c
00000150: beb4 04bf 26e6 653e 89a9 943e 20fa ae3e
00000160: c6a2 3c3f e498 91bd eb1b 5e3d 379b 48be
00000170: 7b1d 843e 24f7 1f3f 189c 683e 80ed 20bf
00000180: e01e db3e 221c 71bf

fc21.bias f4 [7]
0.24513455 -0.19349788 -0.02829139 0.21801803 -0.29656872 0.29525763 -0.0048876223
00000000: 8d04 7b3e 4f24 46be 58c3 e7bc 1e40 5f3e
00000010: dbd7 97be 022c 973e 5928 a0bb

fc22.weight f4 [7, 14]
-0.25697342 -0.18269342 -0.62811184 0.27074316 0.19222954 -0.21750194 0.21908131 1.706427
-0.18450072 -1.1192443 0.23833314 0.062428918 -0.5770829 -0.9079128 -0.5721257 0.07454032
0.2675793 0.22285591 -0.39306667 0.14493859 -0.26632324 -0.22832906 -0.24157955 -0.21238577
0.21384665 -0.24121241 -0.37144285 -0.13043457 -0.7167337 0.061792552 0.052646507 -0.78599095
0.19511029 -0.08448516 -0.2665331 -0.12677029 -0.23971185 -0.2501496 -0.10285789 -0.41398844
-0.07808979 0.19238539 -0.35473442 -0.041227534 -0.4197288 -0.23378748 -0.3394985 0.12183383
-0.35641712 -0.09977184 0.17599729 -0.07695235 -0.007227987 0.25730315 0.07593921 0.0039872252
-0.038034964 0.014508188 -0.0071843807 -0.17088607 -0.0012224253 0.085380375 0.046972327 0.022444883
-0.25699645 -0.10438429 -0.07107927 0.09459158 0.19694446 0.016553631 -0.17666468 -0.01904586
-0.18280214 -0.12248602 -0.5073481 0.25695047 0.28592184 -0.1910493 -0.046550646 0.1887584
0.11621991 -0.47971857 -0.0802848 -0.27232954 -0.35701355 0.18945989 0.036436453 -0.02139026
-0.09358967 0.18474814 -0.23179932 -0.3815866 -0.00010994077 0.26620644 0.07630259 0.025405768
-0.1189653 -0.8680701
00000000: 0592 83be fc13 3bbe f0cb 20bf d99e 8a3e
00000010: d2d7 443e d4b8 5ebe da56 603e 336c da3f
00000020: c2ed 3cbe 6643 8fbf 9a0d 743e 77b5 7f3d
00000030: b4bb 13bf f96c 68bf d476 12bf 98a8 983d
00000040: 2700 893e 5734 643e 0940 c9be c86a 143e
00000050: 855b 88be 18cf 69be a160 77be a87b 59be
00000060: 9efa 5a3e 6300 77be c22d bebe a490 05be
00000070: dc7b 37bf 301a 7d3d dda3 573d b436 49bf
00000080: feca 473e 8e06 adbd 0777 88be 12d0 01be
00000090: 0677 75be 9c13 80be 28a7 d2bd 4bf6 d3be
000000a0: 8aed 9fbd ad00 453e c09f b5be 34de 28bd
000000b0: b1e6 d6be fc65 6fbe bfd2 adbe 0484 f93d
000000c0: 4e7c b6be 2e55 ccbd a238 343e 3299 9dbd
000000d0: c0d8 ecbb 3dbd 833e 0486 9b3d 45a7 823b
000000e0: 8dca 1bbd c0b3 6d3c f46a ebbb c2fc 2ebe
000000f0: c939 a0ba e8db ae3d 0e66 403d 55de b73c
00000100: 0a95 83be 6ec7 d5bd 0292 91bd 3bb9 c13d
00000110: cfab 493e 7b9b 873c 96e7 34be 1006 9cbc
00000120: 7c30 3bbe f3d9 fabd 91e1 01bf 038f 833e
00000130: 5964 923e 6da2 43be e4ab 3ebd e249 413e
00000140: b404 ee3d ac9d f5be 5b6c a4bd c76e 8bbe
00000150: 7bca b6be c601 423e 643e 153d a03a afbc
00000160: f1ab bfbd 9e2e 3d3e cd5c 6dbe 525f c3be
00000170: 0090 e6b8 364c 883e 8844 9c3d c21f d03c
00000180: 14a4 f3bd d839 5ebf

fc22.bias f4 [7]
-0.21538953 -0.20082264 -0.15738355 -0.2702799 -0.10902385 -0.2875757 -0.29055795
00000000: 138f 5cbe 73a4 4dbe 2729 21be 2162 8abe
00000010: e547 dfbd 1f3d 93be 03c4 94be

fc3.weight f4 [14, 7]
-0.17037803 0.28312483 -0.031673025 0.32879058 0.009704022 0.24549802 -0.31688616 0.13024601
-0.5340192 0.2519544 0.8645341 -0.006219628 0.20234042 -0.30047226 -0.18908729 -0.1772243
-0.19432786 0.2284842 0.0024096041 0.1740851 0.25818384 0.67896444 0.046340697 0.1335707
0.25577763 0.002688047 0.2610417 0.23141326 0.07640835 0.1885641 -0.019291896 -0.25833577
0.004254974 0.73634475 0.012955304 0.10447733 0.46920106 0.33204764 0.15652515 0.0039256876
-0.32315013 -0.08650163 0.17841443 -0.42009005 0.21667583 -0.21499094 0.00022868045 -0.1683731
1.0391539 0.2315232 -0.14487351 -0.23516367 0.04924931 0.0026218374 0.15712593 -0.28890577
-0.12148079 -0.41531393 0.5003987 -0.055993658 -0.0027936846 0.36434993 -0.041680694 0.21997651
-0.29063556 0.049958482 -0.45424452 0.006706113 -0.25560987 -0.42654464 -0.019758224 -0.015287624
0.16983053 0.19317438 -0.00073639385 -0.40703842 -0.040330894 0.043730605 0.22151846 0.056681443
-0.55458987 0.0066156834 -0.010005973 -0.039448205 0.24859488 0.8503373 0.5059003 0.1434831
-0.00032375325 -0.31404188 -0.037883446 0.18901156 0.25776199 -0.92928076 0.1850291 0.010810462
-0.19495289 0.0740572
00000000: 9477 2ebe bdf5 903e 93bb 01bd 3d57 a83e
00000010: 9efd 1e3c d563 7b3e e73e a2be 365f 053e
00000020: 7bb5 08bf 2b00 813e 1b52 5d3f 05ce cbbb
00000030: 5432 4f3e 80d7 99be 19a0 41be 497a 35be
00000040: e2fd 46be c3f7 693e 73ea 1d3b 5d43 323e
00000050: ac30 843e 9dd0 2d3f becf 3d3d c2c6 083e
00000060: 49f5 823e f229 303b 42a7 853e 99f7 6c3e
00000070: fb7b 9c3d f316 413e 0a0a 9ebc 9644 84be
00000080: 4f6d 8b3b 1781 3c3f 7c42 543c 36f8 d53d
00000090: 1f3b f03e 2602 aa3e 2148 203e 0ea3 803b
000000a0: ef73 a5be c427 b1bd 46b2 363e 0b16 d7be
000000b0: 45e0 5d3e 9626 5cbe f1c9 6f39 ff69 2cbe
000000c0: ff02 853f 6b14 6d3e b959 14be bfce 70be
000000d0: a5b9 493d 22d3 2b3b 9fe5 203e 75eb 93be
000000e0: ecca f8bd 07a4 d4be 211a 003f 9b59 65bd
000000f0: 4016 37bb 138c ba3e 60b9 2abd 8641 613e
00000100: 2fce 94be 44a1 4c3d bd92 e8be f4be db3b
00000110: 4cdf 82be 0f64 dabe 00dc a1bc f178 7abc
00000120: 0ee8 2d3e 81cf 453e 8e0a 41ba 5767 d0be
00000130: 0232 25bd dd1e 333d bcd5 623e cd2a 683d
00000140: 9af9 0dbf 60c8 d83b 18f0 23bc 7194 21bd
00000150: a88f 7e3e b5af 593f af82 013f 3ced 123e
00000160: 6dbd a9b9 19ca a0be ac2b 1bbd 3f8c 413e
00000170: 61f9 833e 58e5 6dbf 4578 3d3e 5d1e 313c
00000180: bba1 47be 4dab 973d

fc3.bias f4 [14]
0.92235565 0.46275344 0.9107502 1.3154818 0.36570075 0.035294976 0.37047866 1.0076257
1.0412703 0.30313706 0.964851 0.9401767 0.49194175 0.54030424
00000000: 801f 6c3f 05ee ec3e ed26 693f b561 a83f
00000010: 213d bb3e 7791 103d 61af bd3e e1f9 803f
00000020: 5848 853f c834 9b3e 7a00 773f 6caf 703f
00000030: cadf fb3e 6151 0a3f

fc4.weight f4 [7, 14]
0.13562833 0.9765996 0.20323788 0.14141777 -0.08245397 0.05467665 -0.04894688 0.3641499
0.21007219 -0.05153359 0.3262939 -0.23470539 -0.031358223 -0.08122073 -0.26943636 -0.036113854
-0.26084346 -0.20725386 0.030315243 -0.09266335 0.022495942 0.7070617 0.14408591 1.4655157
0.36245373 0.2157214 0.02443305 -0.032709762 -0.45934516 -0.06501843 0.6016037 0.24274398
0.018294217 -0.07596133 1.0085065 -0.21719956 0.13235652 -0.089790896 0.32471216 0.24906492
0.03117497 0.013712503 0.2159092 -0.0045514214 0.054601643 0.14325084 1.2564477 -0.4248251
-0.03614689 0.06721116 0.15242845 -0.11733384 -0.36990505 0.3163571 0.20943065 -0.029291943
-0.07132328 -0.1072301 0.36572292 -0.037222378 0.05744099 -0.21088162 -0.027814517 0.44387245
-0.41149142 -0.050562337 0.19467929 -0.04168778 0.093534835 0.943196 0.36444426 -0.08293264
-0.28476003 0.26986086 0.048083507 0.31100607 -0.018396243 -0.3656933 0.012789262 -0.090065464
0.4795857 0.23333246 0.91269433 0.075221606 0.38824233 -0.04138122 0.74224526 -0.77786905
0.039104193 -0.19533662 -0.025548324 -0.20629632 0.2411057 -0.15954871 0.481838 0.3975786
0.05769586 -0.043902528
00000000: 27e2 0a3e 6e02 7a3f 971d 503e d2cf 103e
00000010: a1dd a8bd 9ff4 5f3d 867c 48bd db71 ba3e
00000020: 2a1d 573e e314 53bd fe0f a73e 9c56 70be
00000030: 7b71 00bd 0e57 a6bd 90f3 89be 1fec 13bd
00000040: 468d 85be 5b3a 54be ac57 f83c 48c6 bdbd
00000050: 6949 b83c ff01 353f 428b 133e 0596 bb3f
00000060: 8993 b93e 12e6 5c3e d227 c83c acfa 05bd
00000070: 4a2f ebbe 6228 85bd b302 1a3f e191 783e
00000080: c1dd 953c 9d91 9bbd be16 813f 9069 5ebe
00000090: 7888 073e 4ae4 b7bd ac40 a63e e00a 7f3e
000000a0: a762 ff3c 68aa 603c 4d17 5d3e 1724 95bb
000000b0: f9a5 5f3d 59b0 123e 47d3 a03f ad82 d9be
000000c0: c30e 14bd 01a6 893d 3416 1c3e b94c f0bd
000000d0: 3264 bdbe 8ff9 a13e fd74 563e a8f5 efbc
000000e0: f111 92bd 749b dbbd 0940 bb3e 7e76 18bd
000000f0: 3e47 6b3d 5af1 57be 45db e3bc 4043 e33e
00000100: 01af d2be 741a 4fbd 025a 473e cec0 2abd
00000110: 318f bf3d 4b75 713f 7098 ba3e 97d8 a9bd
00000120: 11cc 91be 342b 8a3e 36f3 443d 303c 9f3e
00000130: b8b3 96bc 273c bbbe 0e8a 513c 3e74 b8bd
00000140: 428c f53e b4ee 6e3e 56a6 693f c90d 9a3d
00000150: b3c7 c63e 5b7f 29bd c903 3e3f 6d22 47bf
00000160: b82b 203d 5306 48be b84a d1bc 583f 53be
00000170: 6ae4 763e bd60 23be 78b3 f63e 6c8f cb3e
00000180: 7e52 6c3d 23d3 33bd

fc4.bias f4 [7]
-0.13002977 0.24632174 0.08251447 0.33113474 0.59721506 0.1603316 0.7126441
00000000: 8626 05be c43b 7c3e 59fd a83d 7e8a a93e
00000010: 16e3 183f f82d 243e d86f 363f
