COIL/vae/c1_v5_vae.pt (torch, 4167 bytes, 10 tensors)

fc1.weight f4 [10, 5]
000000 f7 b7 2f 3d a6 cf 02 bf 3f 81 66 3f a0 1a 21 3f
       0.042900052 -0.51098096 0.90040964 0.6293125
000010 e4 46 6b 3f 37 3d cc be 91 23 29 3e 57 8d 40 be
       0.91905046 -0.39890453 0.16517474 -0.18803917
000020 90 4b c0 be d9 83 c2 3e 11 49 bf be 4b 0c 88 be
       -0.3755765 0.37991217 -0.37360433 -0.2657188
000030 7e 10 4f 3e 86 6e c0 bc 25 23 e0 3d 68 25 40 bd
       0.20221135 -0.023490202 0.10944203 -0.046910673
000040 b4 29 46 be e2 7e 8c be 90 13 9f be 90 62 9e bd
       -0.19351846 -0.27440554 -0.31069613 -0.07733643
000050 a1 69 f8 3d 69 d2 8c 3f 8b e6 2b 3f e6 2f 88 3f
       0.12129522 1.1001712 0.67148656 1.0639617
000060 66 9d 97 3e 42 a0 54 3f 2d cc 13 be 84 20 57 bf
       0.29612273 0.83057034 -0.14433356 -0.8403399
000070 a2 87 20 3f 62 98 01 3f ea cf 15 be 60 36 83 3d
       0.6270696 0.5062314 -0.14630094 0.064068556
000080 3d b3 b1 3e d8 4c 24 bf 39 27 55 3f eb 77 3c 3f
       0.3470706 -0.64179754 0.83262974 0.7362048
000090 d7 1f 71 3f 6c a2 b4 3e 03 51 20 3e 43 17 83 3f
       0.9418921 0.35280168 0.15655904 1.0241474
0000a0 6b 4d 25 bd 4f f4 87 3c 25 22 17 3f 72 38 65 3f
       -0.040357035 0.016595988 0.59036475 0.89539254
0000b0 c6 30 03 bc d9 84 a9 3f 6e 43 e4 bd dc 5e 97 3f
       -0.008007234 1.3243667 -0.11145674 1.1825824
0000c0 03 1c 40 be cd d5 1f bd
       -0.18760686 -0.039022256

fc1.bias f4 [10]
000000 5d a2 3e be ab cc c3 be b9 8b d5 be 64 bd 00 be
       -0.18616624 -0.38242087 -0.41708162 -0.12572247
000010 68 b4 a5 3e 22 a5 4b 3f 57 df 94 3f f4 c4 a6 bf
       0.32364202 0.7954885 1.1630658 -1.3028855
000020 91 cf 7c 3e a5 b9 c1 3e
       0.24688555 0.37836948

fc21.weight f4 [5, 10]
000000 08 d6 17 3f ce 62 13 be 1c 6e 68 3e 0b 70 90 3e
       0.5931096 -0.1439316 0.22698253 0.28210482
000010 44 e7 37 bf 89 a2 4d 3d 59 4a 96 3f 94 11 8b bf
       -0.7183726 0.050203834 1.1741439 -1.086474
000020 07 dc 5f be c7 55 00 3e aa 3e 3b 3e 4d 61 23 3e
       -0.21861278 0.12532721 0.18285623 0.15955086
000030 c4 63 94 3e da 40 1b 3e 7d 9e f6 be e8 95 34 3f
       0.28982365 0.15161458 -0.48167792 0.7054124
000040 1e f3 09 bf 69 0b 20 3f 25 ce 03 bf 7b 39 6e 3f
       -0.5388659 0.6251741 -0.51486427 0.9305646
000050 45 e1 88 3f 0f 9c e1 bc 14 66 64 3e 30 7d 3c bd
       1.0693747 -0.027540235 0.22304565 -0.046017826
000060 b1 e4 a1 3c 1d cb 0d bf 20 59 6d bf 7b 31 d3 3d
       0.019762369 -0.5538805 -0.9271412 0.10312172
000070 26 97 20 3f b3 80 d0 3e 81 96 c1 3d aa d4 55 3e
       0.62730634 0.4072319 0.094525345 0.20881906
000080 e3 c7 b4 bd a2 c8 3c be f5 42 8d be a0 2b 7b 3f
       -0.08827188 -0.1843591 -0.27590147 0.9811344
000090 91 d6 19 bf ac e5 7b bf 66 6f b0 3e 2a 11 59 be
       -0.6009303 -0.98397326 0.3445999 -0.21197954
0000a0 31 48 93 3f fd d9 17 3e 51 6a 8f be a8 02 5c bd
       1.1506406 0.1482925 -0.280108 -0.05371347
0000b0 b0 bc 38 be ea a9 ea 3e 81 0a 42 3d 1f 1e 64 3f
       -0.18040729 0.4583276 0.0473733 0.8910846
0000c0 51 67 97 bd 9f 2d 61 bf
       -0.07392753 -0.8796024

fc21.bias f4 [5]
000000 c6 76 f3 3e b7 38 7b bf cd 64 49 bf 11 e0 76 3f
       0.47551554 -0.98133415 -0.78669435 0.9643565
000010 e7 e8 48 bf
       -0.7848038

fc22.weight f4 [5, 10]
000000 a6 14 12 3c 04 85 29 3e a2 2a 8b bb 36 94 8c be
       0.008916056 0.16554648 -0.0042470256 -0.27456826
000010 a4 52 18 be 36 ff e2 be c7 55 12 bf bf f3 24 3f
       -0.14875275 -0.44335335 -0.57162136 0.6443443
000020 27 04 af bd 19 29 ac be c8 cd 62 3c 35 52 4a 3e
       -0.08545714 -0.33625105 0.013843007 0.19757922
000030 eb 15 99 be e0 04 cf bc bc 0b f5 be 61 85 43 3d
       -0.29899535 -0.02527088 -0.47860515 0.047734622
000040 2f bf 3e bf 8b 0b 05 3f 3a b0 6d be 8f 26 a5 3e
       -0.74510473 0.5197074 -0.23211756 0.3225598
000050 2a 7e 85 3e 64 1c 2b be 7b 3f 40 bd ce fe 47 3e
       0.26072818 -0.16710049 -0.04693554 0.19530794
000060 ac a2 ce be 60 0f 17 bf 16 5f 1a bf 36 1e 11 3f
       -0.40358484 -0.59007835 -0.6030134 0.56686723
000070 b1 91 aa 3e aa b7 d0 bd b5 8b 58 3e fa b3 a4 3e
       0.3331428 -0.10191281 0.21147044 0.3216856
000080 ca 77 d9 3c 9a a2 01 3e 78 52 9b be ca b2 b4 be
       0.026546378 0.12659684 -0.30336356 -0.35292655
000090 15 da 1b bf e7 b0 e0 3e b1 91 97 3e ee cc 80 be
       -0.6087964 0.43884966 0.2960334 -0.2515635
0000a0 4f e5 1a 3f 63 a0 ea 3d dd 09 86 3d 1e cc 4a 3e
       0.6050615 0.114563726 0.0654485 0.19804427
0000b0 07 b9 0a bf b8 29 4d be 1e 8c a5 be 4d 94 3e 3f
       -0.5418858 -0.20035446 -0.32333463 0.7444504
0000c0 b0 fd 4e be 50 35 ce be
       -0.20213962 -0.4027505

fc22.bias f4 [5]
000000 98 46 c6 be 7c f3 8a bf bd 32 4e bf 4c ac 62 bf
       -0.38725734 -1.0855556 -0.8054617 -0.88544154
000010 1c 6a 3f bf
       -0.74771285

fc3.weight f4 [10, 5]
000000 42 14 0f be b5 0f b6 be c0 9e 71 3e f6 f8 1e be
       -0.13972571 -0.3555886 0.23595715 -0.15524659
000010 51 29 8c 3e df 9b ce be 56 a7 b4 3d e8 4b 97 3e
       0.27375272 -0.40353295 0.08820979 0.295501
000020 4a 36 dc bc b2 98 a4 be 81 de 48 bf 9b b9 8f be
       -0.026881356 -0.32147747 -0.78464514 -0.28071293
000030 b4 f3 d9 be 28 0f 0b bf ed 71 02 be eb 7f 82 3e
       -0.42568743 -0.5432 -0.12738772 0.2548822
000040 fe 0a a0 bd 50 47 6c 3f c9 e3 2d bf 53 bd 96 be
       -0.078145966 0.92296314 -0.679257 -0.29441318
000050 3c 4f b1 be 21 b5 5a 3e c4 07 64 be 55 9e 04 3e
       -0.34630764 0.21358158 -0.22268587 0.12951024
000060 0e 3d a8 3e 06 59 32 3e 56 af a4 3e 0e c9 e1 3e
       0.3285908 0.17416772 0.3216502 0.44098705
000070 28 20 c8 3d c9 ec 80 3e e3 cb 9c 3e 62 34 09 3e
       0.09771758 0.25180653 0.30624303 0.13398889
000080 b7 6d 2a be 4e b2 a9 be 98 35 7d 3f 43 d9 a3 3e
       -0.16643415 -0.33143848 0.989099 0.32001695
000090 19 bf c2 3e 6f ef d2 be 81 2b 5e bf 3a e3 5e be
       0.3803642 -0.41198298 -0.8678513 -0.21766368
0000a0 a1 ca 10 3f 1f 90 5a 3e f3 98 1a bf d6 e8 27 bf
       0.5655919 0.2134404 -0.6038963 -0.65589654
0000b0 20 cc d8 be 54 75 3a be d5 65 89 3f 88 7d bc bc
       -0.42343235 -0.1820882 1.0734202 -0.023009077
0000c0 49 35 ba 3d 44 5d 59 be
       0.090921946 -0.21226984

fc3.bias f4 [10]
000000 8a 6a 7a 3f 48 16 52 3f e3 87 5f 3e a0 7b 26 3e
       0.97818816 0.8206525 0.2182918 0.16258097
000010 0c 93 61 3f a3 60 5b 3f 3e 3d 6e 3e b0 e7 8c 3f
       0.88115 0.8569433 0.2326555 1.1008205
000020 b6 f6 a7 be 77 a5 6d 3e
       -0.32805413 0.23207651

fc4.weight f4 [5, 10]
000000 b2 13 15 bf 64 5f bf 3e 43 06 58 3b b2 60 d4 3c
       -0.5823318 0.37377465 0.0032962717 0.025925014
000010 23 d9 ab 3e 78 14 a7 3e b6 63 5e 3d 82 76 fa 3d
       0.335641 0.32632804 0.05429431 0.12229635
000020 60 26 c3 3b 40 df 8f 3f 7b 02 c7 3e 2c c8 9d 3e
       0.0059555024 1.1240005 0.3886908 0.30816782
000030 27 9e 92 3f f0 0f 3e 3d dd 63 a8 3e a8 ff 09 bf
       1.1454514 0.046401918 0.3288869 -0.53905725
000040 22 6c 30 3d d8 24 09 3e 7a 2b f1 3c 93 f7 a1 3d
       0.043071873 0.13392961 0.029439677 0.07908549
000050 0e 36 bb 3e 1e 6f 95 3e 70 c6 3b 3d 33 9c 87 3f
       0.36564678 0.29186338 0.04584354 1.0594543
000060 62 36 09 bf 07 18 a3 3e d6 a4 31 3d 90 15 0c 3e
       -0.53598607 0.3185427 0.04337009 0.136801
000070 86 c6 fb 3c 41 26 73 3d 94 c3 19 3f bc 9b d1 3e
       0.030734312 0.059362654 0.60064054 0.40939128
000080 dc 97 ac bb 08 de 9f 3c 1b fa 03 3f fe 3a c3 3e
       -0.0052671265 0.019515052 0.51553506 0.38130945
000090 74 03 49 bc 56 66 6e bf 50 51 50 3f 6c 12 95 3d
       -0.01226889 -0.931249 0.81374073 0.07278904
0000a0 3b 60 c3 3e 52 7e 00 bf 5a a8 26 3d a3 40 f8 3c
       0.38159356 -0.5019275 0.040687896 0.030304259
0000b0 36 c7 b9 3e 9a be a1 3e 18 56 8c 3f 07 0e 27 3e
       0.36284798 0.3159073 1.0963774 0.16313945
0000c0 d2 d1 38 3d 60 d0 a3 3c
       0.045121975 0.019996822

fc4.bias f4 [5]
000000 be 09 ad 3e dd 39 d5 3d 96 58 16 3e 3d 2a b7 3e
       0.33796495 0.10411427 0.1468223 0.35774413
000010 1c d1 d2 3c
       0.025734477
