COIL/vae/c1_v2_vae.pt (torch, 3207 bytes, 10 tensors)

fc1.weight f4 [4, 2]
00000000: 5a95 71be 7229 f4be f1fa 043f 62af ab3f
00000010: 33b5 ff3e ef05 c6be 053d 943f bd9e 7b3f
-0.2359213 -0.4768787 0.51945406 1.3412898 0.49942932 -0.38676402 1.1581122 0.9828909

fc1.bias f4 [4]
00000000: 9154 21bf fdf8 543f 8996 823f 8410 f73d
-0.63019663 0.83192426 1.020219 0.12063697

fc21.weight f4 [2, 4]
00000000: dea7 d63e 90d1 f03e 151c 2fbf 1957 863f
00000010: 5ab4 f53e d9a5 72bf 3ca4 983f 494b 923f
0.41924948 0.47034883 -0.68402225 1.049533 0.4798916 -0.94784313 1.192512 1.1429225

fc21.bias f4 [2]
00000000: ba72 8dbf 12cf 68bf
-1.1050637 -0.90940964

fc22.weight f4 [2, 4]
00000000: 862c b43e ebf1 aabe f0be 64bf 8919 ee3e
00000010: 2048 61be c9a7 96bf 3554 84bf 619e a13f
0.3519022 -0.33387694 -0.8935385 0.46503857 -0.2200017 -1.1769954 -1.0338198 1.2626458

fc22.bias f4 [2]
00000000: 2e79 fbbf 54e3 00c0
-1.9646356 -2.013875

fc3.weight f4 [4, 2]
00000000: 4139 35bf 1efb 0f3f 03ed 8f3f 74c7 61bf
00000010: a030 df3e 40e4 a73f 462a bc3e 97be be3e
-0.7079049 0.5624255 1.1244205 -0.88194966 0.43591785 1.3116531 0.36751002 0.37254784

fc3.bias f4 [4]
00000000: 4bde 943e d274 04bf 18ad 1bbf e9e3 8c3f
0.29075846 -0.51740754 -0.60810995 1.1007053

fc4.weight f4 [2, 4]
00000000: 709c b63e f1fb 6bbe 6edc a33f 017d 963f
00000010: 791d 29bf 22f5 a23f 06e2 503d f7d2 15bd
0.35666227 -0.23045327 1.2801645 1.1756898 -0.66060597 1.2731059 0.050996803 -0.036578145

fc4.bias f4 [2]
00000000: d2d8 6dbf 7f1b 353f
-0.92908967 0.7074508
