COIL/vae/c1_v10_vae.pt (torch, 7175 bytes, 10 tensors)

fc1.weight f4 [20, 10]
0	0xbe9f1f86	-0.31078738
1	0x3e378a28	0.17923796
2	0xbe7ff809	-0.24996962
3	0x3e7c7e3a	0.24657527
4	0x3c4825a0	0.012216002
5	0xbdddeb12	-0.10835852
6	0xbe6cb75c	-0.23116821
7	0xbd218af8	-0.03943917
8	0xbe389c4f	-0.18028377
9	0x3dbbcd28	0.0916999
10	0xbf36858f	-0.71297544
11	0xbc8ee8df	-0.017445026
12	0x3ec6b4f4	0.3880993
13	0x3f09362f	0.535983
14	0xbd9ea8cd	-0.0774704
15	0x3e9abca8	0.30222058
16	0x3d0dfe1d	0.03466617
17	0x3dc046a5	0.093884744
18	0xbead7e74	-0.3388554
19	0x3f1f584d	0.6224411
20	0x3ee11b50	0.4396615
21	0xbeb1ce88	-0.34727883
22	0x3f643daa	0.8915659
23	0x3e63a284	0.22229964
24	0x3dc1239e	0.094306216
25	0xbe21f674	-0.1581667
26	0xbc1a0898	-0.009401463
27	0xbe29c507	-0.16579066
28	0x3f289883	0.65857714
29	0xbf17af6f	-0.59252065
30	0x3f0d5b3b	0.5521733
31	0x3ea809be	0.32819933
32	0x3e644363	0.22291331
33	0x3e45696f	0.19278501
34	0xbd91a8da	-0.07112284
35	0xbe230f2e	-0.1592376
36	0x3d5f18ac	0.05446689
37	0x3e3e0640	0.18557072
38	0xbf07f896	-0.5311369
39	0x3ec77ded	0.3896326
40	0xbce62f60	-0.028098762
41	0xbe0c2d5b	-0.13689177
42	0x3e265c6c	0.16246194
43	0x3e62a8db	0.22134726
44	0xbee17835	-0.44037023
45	0x3eaba074	0.33520854
46	0xbf480edf	-0.7814769
47	0x3f8fe234	1.1240907
48	0x3f396a92	0.7242824
49	0x3eb47ff8	0.35253882
50	0x3d9912d0	0.07474291
51	0x3c85060b	0.016238233
52	0xbdfed56e	-0.12443052
53	0xbdc55ea2	-0.096371904
54	0x3e65bf09	0.22436155
55	0x3c8b200d	0.016983056
56	0x3d076962	0.033059485
57	0xbde45650	-0.11149275
58	0xbe08e4db	-0.13368551
59	0x3dc029e5	0.09382991
60	0xbdd7e13a	-0.105410054
61	0xbedf447d	-0.4360694
62	0x3ec23986	0.37934512
63	0xbf189786	-0.59606206
64	0x3d9130bd	0.07089374
65	0x3f630855	0.8868459
66	0x3f0d378b	0.55162877
67	0xbdddc28b	-0.10828122
68	0x3e20fe50	0.15722013
69	0x3e679de0	0.22618818
70	0x3e849849	0.25897434
71	0xbe1634f3	-0.14668636
72	0x3f190550	0.5977373
73	0x3ecc594a	0.39911872
74	0x3ea12f4b	0.31481394
75	0x3e10ebf1	0.14152505
76	0xbe22875b	-0.15871947
77	0xbf2faaff	-0.68620294
78	0x3e3dccda	0.18535176
79	0x3d8945cf	0.06702768
80	0xbe938a0d	-0.28816262
81	0x3a01743e	0.0004938281
82	0x3f302f6c	0.6882236
83	0x3f124eab	0.5715129
84	0xbd9ab6b7	-0.07554381
85	0x3ea9cc09	0.3316348
86	0x3e2776ee	0.16353962
87	0x3eb4c947	0.35309812
88	0xbe65f566	-0.22456893
89	0xbeafd52a	-0.3434232
90	0xbe1e1d9d	-0.15440984
91	0x3eabc50f	0.3354878
92	0xbe4ba9a3	-0.1988893
93	0xbe6541c1	-0.22388364
94	0x3f0f49dd	0.5597208
95	0x3f2f1ba1	0.68401533
96	0xbe876703	-0.2644578
97	0xbe77ae96	-0.24187693
98	0x3eb3a8bc	0.35089672
99	0x3ef84038	0.48486495
100	0xbe74177a	-0.2383708
101	0xbe8f09f2	-0.27937275
102	0xbdf98b72	-0.121848
103	0xbe85088b	-0.2598308
104	0xbdd4e09a	-0.10394402
105	0xbd1b7c78	-0.0379605
106	0x3c9a7670	0.018855304
107	0x3de8ca64	0.11366728
108	0x3e8a5e87	0.27025244
109	0xbe908508	-0.28226495
110	0xbdd99c27	-0.10625487
111	0xbeb1c6af	-0.34721896
112	0xbd41dd14	-0.047329977
113	0x3f01421d	0.50491506
114	0x3f6704cb	0.9024169
115	0xbf0cb479	-0.5496288
116	0xbe168a18	-0.14701116
117	0x3dafa98a	0.08577259
118	0x3ed77397	0.42080376
119	0x3f44609a	0.767099
120	0x3f537d4a	0.8261305
121	0x3e660308	0.22462094
122	0x3f2962fd	0.6616667
123	0xbe54c800	-0.20779419
124	0x3e5a96bb	0.21346562
125	0xbf2b739e	-0.6697329
126	0x3c13bed8	0.009017669
127	0x3ea88237	0.32911846
128	0xbf087db8	-0.5331683
129	0x3eb7310b	0.35779604
130	0x3dd36c11	0.103233464
131	0xbe31a50f	-0.17348121
132	0xbe350d97	-0.17680965
133	0xbd3c0055	-0.045898754
134	0x3e40aa12	0.18814877
135	0x3e47c16a	0.19507375
136	0x3f5e62cb	0.86869496
137	0x3f01f285	0.5076068
138	0xbe935693	-0.28776988
139	0xbe1cffee	-0.15332004
140	0x3f2091a0	0.62722206
141	0x3df4af10	0.11947453
142	0x3eda9162	0.42689043
143	0xbe3888e6	-0.18020973
144	0xbf200bc3	-0.62517947
145	0x3df519ea	0.11967833
146	0xbe508c42	-0.20366004
147	0xbe20b7eb	-0.15695159
148	0x3e60ebef	0.21965002
149	0x3e47cecf	0.19512485
150	0xbdd33c63	-0.10314252
151	0x3eda55e2	0.42643648
152	0xbe9c2d5e	-0.30503362
153	0x3f3bcd24	0.73359895
154	0x3df158c0	0.11784506
155	0xbd82ca8f	-0.06386291
156	0x3f0bb72a	0.5457636
157	0x3e6151c1	0.22003843
158	0x3eae3112	0.34021813
159	0xbf2163d8	-0.63042974
160	0xbc8c4de0	-0.017126977
161	0xbe910ff2	-0.28332478
162	0xbd97a142	-0.07403804
163	0xbe60ddf4	-0.21959668
164	0xbe85dcba	-0.26144964
165	0xbe513fb6	-0.2043446
166	0x3e209bb8	0.15684402
167	0x3c2f10e0	0.010685176
168	0xbd9c97c8	-0.076461375
169	0xbdcb0d6c	-0.099146694
170	0x3e20975a	0.15682736
171	0x3f39f313	0.72636527
172	0xbe36430a	-0.17799011
173	0xbed70011	-0.41992238
174	0x3efdb26c	0.49550188
175	0x3ebcf4ae	0.36905426
176	0xbece838c	-0.40334737
177	0x3f0cbaff	0.54972833
178	0xbd58904c	-0.052871987
179	0x3e59ac24	0.21257073
180	0x3bb54c45	0.0055327737
181	0x3f11ac63	0.56903666
182	0xbe8bbf94	-0.272946
183	0x3eb02822	0.3440562
184	0xbf418912	-0.7559978
185	0x3e41599f	0.18881844
186	0x3ec8357b	0.39103302
187	0xbf0c621f	-0.5483722
188	0x3ec1b3ba	0.37832433
189	0x3f311830	0.6917753
190	0x3e6cab30	0.23112178
191	0xbece4687	-0.40288183
192	0xbe0eb932	-0.13937834
193	0x3d9d0766	0.07667427
194	0xbe8ec60e	-0.2788548
195	0xbe87f2ea	-0.26552516
196	0x3f0e20ad	0.5551861
197	0x3ef3d8f5	0.47626463
198	0x3e0a03e8	0.13478053
199	0x3efd709f	0.49499986

fc1.bias f4 [20]
0	0xbdb44a54	-0.088032395
1	0x3e8531db	0.260146
2	0x3ee277e5	0.44232097
3	0xbe865a4a	-0.2624076
4	0x3ead9c3e	0.33908266
5	0xbe96904a	-0.2940696
6	0x3e817d44	0.25290883
7	0x3e5587f7	0.20852648
8	0x3c8a305e	0.016868766
9	0xbc2d303d	-0.010570583
10	0x3e8111ef	0.25208995
11	0xbe107929	-0.14108719
12	0x3ecb1dac	0.39671075
13	0xbe7722b7	-0.24134336
14	0x3e373212	0.17890194
15	0x3e0bebe3	0.13664202
16	0xbd8222f8	-0.06354326
17	0xbd860e6b	-0.06545719
18	0x3e382cd6	0.17985854
19	0x3e59a4cd	0.21254273

fc21.weight f4 [10, 20]
0	0xbca50bf8	-0.020147309
1	0xbe106f2a	-0.14104906
2	0x3d3151f5	0.04329105
3	0xbf0f415f	-0.55959123
4	0x3f27c6f1	0.65537935
5	0xbd13171e	-0.03591072
6	0x3f8ec52f	1.1153926
7	0xbdce2f21	-0.10067583
8	0xbc5322fa	-0.012886757
9	0xbe193dd7	-0.14964996
10	0xbca34ea8	-0.019934967
11	0x3dfb7b74	0.12279406
12	0xbe0b7d3e	-0.13621995
13	0x3e6b54ba	0.2298154
14	0x3d4b1db7	0.049588885
15	0xbefe0eb8	-0.49620605
16	0xbd820c0c	-0.06349954
17	0xbf1536bb	-0.5828664
18	0xbf3ca9e5	-0.7369674
19	0x3f3434a5	0.7039283
20	0xbdc0d7c4	-0.09416154
21	0xbd9ac58a	-0.07557209
22	0x3caa8bab	0.020818552
23	0x3d5a2b4c	0.053263947
24	0xbf46f050	-0.7771044
25	0x3e4e70b5	0.20160182
26	0x3ecd63c0	0.40115166
27	0x3ea11974	0.31464732
28	0xbe2afff0	-0.16699195
29	0x3f039044	0.51392007
30	0xbe2a2577	-0.16615854
31	0x3f4b6e50	0.794652
32	0x3e4e327e	0.20136449
33	0x3e111cc8	0.14171135
34	0xbee23dc3	-0.44187745
35	0xbe6deb0d	-0.23234196
36	0x3d8bcce8	0.06826192
37	0x3ee3b7a5	0.44476047
38	0xbf4853eb	-0.7825305
39	0xbeb1fbd2	-0.34762436
40	0xbd3cf6c4	-0.04613377
41	0xbd93352e	-0.071878776
42	0xbddee118	-0.10882777
43	0x3e1fbc15	0.15599091
44	0x3dc5f9c3	0.09666779
45	0xbd1bad7c	-0.038007244
46	0x3e23bea3	0.15990691
47	0x3b8e4fd1	0.004343011
48	0xbda094dc	-0.07840893
49	0xbdc07ab6	-0.09398405
50	0xbc88c668	-0.01669617
51	0x3cec334d	0.028833056
52	0x3c9b22ad	0.018937433
53	0xbdd202bf	-0.1025443
54	0xbdc64833	-0.0968174
55	0x3db0595a	0.086107925
56	0xbdfc6947	-0.123247676
57	0xbdcfe1a3	-0.10150459
58	0xbbbfc840	-0.005852729
59	0xbe1f1ccb	-0.15538327
60	0x3cb41b80	0.02198577
61	0x3fb711b1	1.4302274
62	0xbe1d6e55	-0.1537412
63	0xbe8e0bf8	-0.27743506
64	0x3e6682f5	0.22510894
65	0xbe53fc6b	-0.20701759
66	0xbe489c3d	-0.1959085
67	0xbc388d2b	-0.011264126
68	0x3f356a1f	0.7086505
69	0xbd7dd32d	-0.06196897
70	0xbe1c0dfa	-0.15239707
71	0x3e4e3f01	0.20141222
72	0xbed07b89	-0.4071925
73	0xbe555611	-0.20833613
74	0xbf262ec1	-0.6491509
75	0x3e7670fe	0.2406654
76	0xbdfb8b11	-0.12282384
77	0xbead7379	-0.3387716
78	0xbe3e141d	-0.1856236
79	0xbf0e8a22	-0.55679524
80	0x3ddc8a10	0.10768521
81	0x3df1e9e2	0.11812188
82	0x3e7e061c	0.24807018
83	0x3f1026f4	0.5630944
84	0xbc4991fa	-0.01230287
85	0xbe33e714	-0.17568618
86	0xbf4bdb80	-0.79631805
87	0x3e5bdf35	0.21471865
88	0x3d399d14	0.045315817
89	0xbf0d3e9a	-0.5517365
90	0xbe2b89b4	-0.16751748
91	0x3f1b4a87	0.60660595
92	0x3ef33c03	0.47506723
93	0xbd8d0612	-0.068859234
94	0xbd753873	-0.059868287
95	0xbe2383b9	-0.15968217
96	0xbe2a8aab	-0.1665446
97	0xbf485761	-0.7825833
98	0xbeab5a1c	-0.33467185
99	0x3f11d316	0.56962717
100	0xbd9297aa	-0.07157834
101	0x3f54b6cb	0.8309142
102	0xbee8825d	-0.4541196
103	0x3a0e7d2e	0.00054355233
104	0x3dee9c41	0.11650897
105	0x3b5cb0cf	0.0033674722
106	0x3d76f37b	0.060290795
107	0xbc75b8aa	-0.014997641
108	0xbf64c5cc	-0.89364314
109	0x3dbe2021	0.09283472
110	0xbdb6759e	-0.089091524
111	0x3ef51016	0.47863835
112	0x3c60a42c	0.013711017
113	0xbed65210	-0.41859484
114	0x3d82f644	0.06394628
115	0xbf318aa6	-0.69352186
116	0xbc42cab0	-0.011889145
117	0xbddab658	-0.106793106
118	0x3f2631b9	0.6491962
119	0x3e9d546b	0.30728468
120	0xbe0ee646	-0.1395503
121	0xbe230ae4	-0.15922123
122	0x3cf6f3c0	0.030145526
123	0x3e074587	0.13210116
124	0xbc860f57	-0.016364736
125	0xbd642017	-0.055694666
126	0x3c510c15	0.012759228
127	0xbd69e9c7	-0.057107713
128	0x3e56387a	0.20919982
129	0x3da88af7	0.082296304
130	0x3e17a08a	0.14807335
131	0x3de7e19a	0.11322327
132	0xbd9ad575	-0.07560245
133	0x3d4ea1eb	0.050447386
134	0x3d44a943	0.048012983
135	0xbd4ca158	-0.049958557
136	0xbdb6d698	-0.08927649
137	0x3c9db1ee	0.019249883
138	0x3d4bf048	0.049789697
139	0xbc34a43b	-0.011025484
140	0x3d0e1998	0.034692377
141	0x3ec25f14	0.37963164
142	0x3dae6437	0.08515208
143	0x3ddba84a	0.10725458
144	0xbf8b2074	-1.0869279
145	0xbe24d35e	-0.16096255
146	0x3f3746a6	0.71592176
147	0x3e4a9839	0.19784631
148	0x3dc75a5c	0.097340316
149	0xbd97bf32	-0.074095145
150	0xbd0b4c98	-0.034008592
151	0xbe4d02cb	-0.20020597
152	0xbd2b8e3a	-0.041883685
153	0x3eb7ff9f	0.3593721
154	0x3d2c4818	0.04206094
155	0x3d8123c0	0.06305647
156	0xbdeefae4	-0.11668947
157	0xbf25ef09	-0.64817864
158	0x3ef510fb	0.47864518
159	0x3eafedd2	0.3436113
160	0xbdf1de78	-0.11810011
161	0xbbbfd498	-0.0058542006
162	0x3f470d2b	0.7775447
163	0xbe1c5231	-0.15265729
164	0xbd7db022	-0.06193555
165	0x3e321bde	0.17393443
166	0x3d621049	0.055191312
167	0x3f0fbf9c	0.5615175
168	0x3e3fa964	0.18716961
169	0x3e1e07de	0.15432689
170	0x3e5a254c	0.2130329
171	0x3dbe7c6b	0.093010746
172	0xbe5dbf9e	-0.21655127
173	0xbf473854	-0.77820325
174	0x3f3e6cc6	0.74384725
175	0xbeefb65e	-0.46818823
176	0xbd11be1c	-0.035581693
177	0xbe6586a8	-0.22414649
178	0x3dab016d	0.08349881
179	0xbf40c034	-0.7529328
180	0x3e55082a	0.20803896
181	0x3f3f4013	0.74707144
182	0xbe95cf3e	-0.29259676
183	0x3f275199	0.65358883
184	0xba5a782c	-0.0008333947
185	0xbda516c8	-0.08060986
186	0x3eaee7f4	0.3416134
187	0xbd971441	-0.0737691
188	0x3f165d80	0.5873642
189	0xbe173c81	-0.14769174
190	0xbe323d78	-0.17406261
191	0xbf42a036	-0.7602571
192	0x3f08e232	0.53470147
193	0x3d8b82d6	0.06812064
194	0x3e98015b	0.29688534
195	0xbf407f2e	-0.7519406
196	0xbe09f220	-0.1347127
197	0x3e89d7ec	0.26922548
198	0xbecc2265	-0.3986999
199	0xbef7cf80	-0.48400497

fc21.bias f4 [10]
0	0xbe91773d	-0.28411284
1	0x3c56d2b9	0.013111764
2	0x3e277d68	0.16356432
3	0xbd1e548f	-0.03865486
4	0x3cee73a7	0.029107882
5	0x3d4e5e74	0.050383046
6	0xbe85a2e5	-0.2610084
7	0x3ddb4294	0.10706058
8	0xbdc13ed0	-0.09435809
9	0xbe44c358	-0.19215143

fc22.weight f4 [10, 20]
0	0x3b7bcc00	0.0038421154
1	0xbe2d8974	-0.16946965
2	0xbebbe3e8	-0.36697316
3	0x3d4d9963	0.05019511
4	0xbc5da6fc	-0.013528582
5	0x3e04c510	0.12965798
6	0xbee0d654	-0.4391352
7	0x3d63d309	0.05562118
8	0xbe10ea32	-0.14151838
9	0xbdb4c80c	-0.088272184
10	0xbda34d80	-0.07973766
11	0xbed7df59	-0.42162588
12	0xbe222a5c	-0.15836471
13	0xbe877a39	-0.26460436
14	0xbd5f8c4d	-0.05457716
15	0x3e1ef329	0.15522446
16	0xbd92e6d6	-0.07172935
17	0x3d50ca84	0.050974384
18	0x3d854975	0.065081514
19	0xbebd37a8	-0.36956525
20	0x3d6378d8	0.055535167
21	0xbd80e024	-0.062927514
22	0xbd5c6e6b	-0.05381624
23	0xbe315d66	-0.17320785
24	0xbe9068f3	-0.2820507
25	0xbe0a6809	-0.13516249
26	0xbd870b1d	-0.065939166
27	0xbdc8b48b	-0.09800061
28	0xbe40b299	-0.1881813
29	0x3e8e98bc	0.27850902
30	0x3d23d148	0.039994508
31	0x3ea17fe7	0.31542894
32	0x3cf87d04	0.03033305
33	0xbe58682c	-0.21133488
34	0xbef504b7	-0.4785516
35	0x3d02ff59	0.0319818
36	0x3d1bc9f8	0.03803441
37	0xbe116c29	-0.14201416
38	0xbf15d907	-0.5853428
39	0xbeaa8b5b	-0.33309445
40	0x3d876ea4	0.066129
41	0x3b3d5781	0.0028891268
42	0xbdc4abc3	-0.096030734
43	0x3d8ed7df	0.06974768
44	0x3d5f0239	0.05444548
45	0x3e172a77	0.14762293
46	0x3e3f3e67	0.18676148
47	0x3c0b35f0	0.008496746
48	0xbdeb0f99	-0.114775844
49	0xbe6046d9	-0.21902026
50	0xbe2d3e89	-0.16918387
51	0x3de9e1a2	0.11419989
52	0xbc0cb63e	-0.008588372
53	0xbcc3714b	-0.023857733
54	0x3d8f962a	0.070110634
55	0x3dfd4902	0.12367441
56	0x3dcbe23c	0.0995526
57	0x3bc9f99e	0.00616379
58	0xbbf94c57	-0.0076079774
59	0xbe52c3e0	-0.20582533
60	0xbcd2b678	-0.025721774
61	0xbdf873d0	-0.121314645
62	0x3e13bb52	0.14426926
63	0xbce831bb	-0.028344026
64	0xbe5815c5	-0.21102054
65	0x3dc974a1	0.09836698
66	0xbed5f022	-0.4178477
67	0xbe51461b	-0.204369
68	0xbe9fdc48	-0.3122275
69	0xbeb5218e	-0.35377163
70	0xbda5a3a6	-0.08087854
71	0xbdd6e5be	-0.104930386
72	0x3d3b52a9	0.045733128
73	0xbe073d3f	-0.13206957
74	0x3e8c9c8e	0.27463192
75	0xbe425b3c	-0.18980116
76	0x3dfc182c	0.12309298
77	0xbe86f1f2	-0.26356465
78	0xbd224d6a	-0.03962461
79	0xbe0fffd2	-0.14062431
80	0x3cf2fc40	0.029661298
81	0x3dccccff	0.100000374
82	0xbdce4fd7	-0.10073822
83	0xbe64d400	-0.22346497
84	0xbcf84e7d	-0.030310864
85	0x3d9f1251	0.077671655
86	0x3d7914ca	0.06081084
87	0xbc81b0b8	-0.015831336
88	0x3e75bcbf	0.23997782
89	0xbd4e24be	-0.05032801
90	0xbdb6cb66	-0.08925514
91	0xbee3ca5d	-0.44490328
92	0xbe89cb33	-0.2691284
93	0xbec1e38b	-0.37868914
94	0xbe117936	-0.14206395
95	0xbeb6bf15	-0.3569266
96	0xbdea6384	-0.11444762
97	0xbe163334	-0.1466797
98	0xbd6d1dc6	-0.057889722
99	0xbe99e649	-0.30058506
100	0x3c6e5890	0.014547482
101	0x3ef156e3	0.47136602
102	0xbe91f775	-0.28509107
103	0x3caa94a3	0.020822829
104	0xbe22c078	-0.15893734
105	0x3da4df85	0.080504455
106	0xbd996604	-0.07490161
107	0xbeb54f41	-0.35412028
108	0xbecd3e21	-0.40086463
109	0xbde6df58	-0.11273068
110	0xbd7c2304	-0.06155683
111	0x3e8b3782	0.27190787
112	0xbd864a9a	-0.06557198
113	0xbe75ce8e	-0.24004576
114	0x3dd1ccae	0.10244118
115	0xbf395fb7	-0.72411674
116	0xbe0d6e78	-0.13811672
117	0xbe66187e	-0.2247028
118	0x3dc8f606	0.0981255
119	0x3e223fe3	0.15844683
120	0x3dd1fac0	0.10252905
121	0x3e75fd50	0.24022412
122	0x3e52bd1f	0.20579956
123	0xbd9f7664	-0.07786253
124	0xbd304c58	-0.043041557
125	0xbb809cc4	-0.003924938
126	0xbe363a4a	-0.17795673
127	0x3dcda57b	0.100413285
128	0xbe52693d	-0.20547958
129	0xbb0d3a48	-0.002154963
130	0xbe23f6c6	-0.16012105
131	0xbe19c9b4	-0.1501835
132	0xbd821a98	-0.063527286
133	0x3e202de1	0.15642501
134	0xbd1449ec	-0.03620331
135	0xbd9a6157	-0.07538097
136	0xbe132dc6	-0.1437293
137	0x3e2ee8d6	0.17081007
138	0xbb8994ef	-0.0041986625
139	0x3e153dbe	0.14574334
140	0x3dd1ec24	0.102501184
141	0x3d775bd6	0.060390316
142	0xbdcced46	-0.10006194
143	0xbde161e8	-0.11005002
144	0xbe8cc5a0	-0.27494526
145	0x3e3903af	0.18067811
146	0xbdca4acb	-0.09877547
147	0xbe903137	-0.28162548
148	0xbe66f78a	-0.22555366
149	0xbd90074d	-0.070326425
150	0x3dbce524	0.092233926
151	0xbebb0794	-0.3652922
152	0xbe9d4922	-0.30719858
153	0x3e8f3881	0.27972797
154	0xbdbabb9d	-0.09117816
155	0xbd44dcfb	-0.048062306
156	0xbddf493c	-0.1090264
157	0xbea8206b	-0.32837233
158	0xbe8d079e	-0.27544874
159	0x3f17f3d5	0.59356433
160	0x3e0dca82	0.13846782
161	0x3e817bea	0.2528985
162	0x3d8b0bb7	0.06789344
163	0xbcbd74db	-0.02312701
164	0x3ca2a935	0.019856075
165	0xbda9367d	-0.08262346
166	0xbd93bbb9	-0.0721354
167	0xbe59b177	-0.21259104
168	0xbe4e3f93	-0.20141439
169	0xbea46675	-0.3210942
170	0xbd731cac	-0.059353516
171	0xbe958994	-0.29206526
172	0xbe3ce422	-0.18446401
173	0xbd924f3a	-0.071440175
174	0xbd2df7e6	-0.042472742
175	0xbe4cfc57	-0.20018135
176	0x3e143ffe	0.14477536
177	0xbe8421c9	-0.25807026
178	0xbedd3a92	-0.43208748
179	0x3e129f11	0.14318492
180	0x3e0a07ee	0.13479587
181	0xbe199dd5	-0.15001614
182	0x3d8dd6f6	0.06925766
183	0xbe8162ca	-0.25270683
184	0x3d558921	0.05213273
185	0xbdb224b0	-0.08698404
186	0xbe06439f	-0.13111733
187	0x3c311b93	0.010809797
188	0xbe48b041	-0.19598486
189	0xbe8bca2e	-0.27302688
190	0xbc031a80	-0.008001924
191	0xbdb24568	-0.087046444
192	0xbeb17244	-0.3465749
193	0xbeeff6b5	-0.4686791
194	0xbcd80ba6	-0.026372742
195	0xbe263e99	-0.16234817
196	0xbdb15ef0	-0.08660686
197	0xbe8fb620	-0.28068638
198	0xbe182e1d	-0.14861341
199	0xbcaefad3	-0.021359837

fc22.bias f4 [10]
0	0xbe31820d	-0.17334767
1	0xbe2462ad	-0.16053267
2	0x3ce626dc	0.028094701
3	0xbdbca099	-0.09210319
4	0xbe5d598e	-0.21616194
5	0xbe11ff35	-0.1425751
6	0xbe11a179	-0.14221753
7	0x3d31375e	0.043265693
8	0xbe81df20	-0.25365543
9	0xbc6d47c6	-0.014482444

fc3.weight f4 [20, 10]
0	0x3e34dafb	0.1766166
1	0x3d06277c	0.0327525
2	0x3bbb1f7b	0.00571054
3	0xbee8144f	-0.45327994
4	0x3f137f8f	0.57616514
5	0xbe6bbc46	-0.2302104
6	0x3b24dd09	0.0025156161
7	0x3d8e91c5	0.06961397
8	0x3ede22a7	0.43385813
9	0x3ebd48c0	0.36969566
10	0xbf7af25d	-0.98026067
11	0xbe04b824	-0.12960869
12	0x3b95fa4a	0.004576956
13	0xbb5aaafa	-0.003336607
14	0xbebf8e63	-0.3741332
15	0x3b78aad4	0.0037943618
16	0x3bd8da05	0.006617787
17	0xbe6175e7	-0.22017632
18	0xbe1dcd12	-0.1541026
19	0x3de58e8d	0.1120883
20	0x3e2225a9	0.15834679
21	0xbd1a6e27	-0.037702706
22	0xbbd147e4	-0.006386744
23	0xbd55a52f	-0.052159484
24	0x3d8af031	0.06784094
25	0xbe2923cc	-0.16517562
26	0x3b033b0d	0.002002421
27	0x3f40f295	0.7537015
28	0xbee112d5	-0.4395968
29	0xbe5627a5	-0.2091356
30	0x3d70572f	0.058676895
31	0x3d43af4d	0.0477746
32	0x3c04c66b	0.008103947
33	0xbcf6f7b8	-0.030147418
34	0x3dfcab18	0.12337321
35	0x3f5686be	0.8379935
36	0xbc7c2a0a	-0.015390882
37	0x3d0e4e4e	0.034742646
38	0xbdcc82e0	-0.099859
39	0x3e2cbfb1	0.1687
40	0xbe236974	-0.15958196
41	0xbeba3f10	-0.36376238
42	0xba8aad40	-0.0010580197
43	0xbd1032ca	-0.035204686
44	0x3cca9fed	0.024734462
45	0x3d9f7a3e	0.07786988
46	0x3bf4d28c	0.007471388
47	0x3e6a7053	0.22894411
48	0xbcd1a68f	-0.025592117
49	0x3ee98898	0.45612025
50	0x3e2b5cbe	0.16734597
51	0x3d91349e	0.07090114
52	0xbbdeaab4	-0.0067952517
53	0x3e183c81	0.1486683
54	0x3ec50c8a	0.3848613
55	0xbe167cef	-0.14696096
56	0x3ab36a0b	0.001368822
57	0x3deabc25	0.11461667
58	0x3eb91c62	0.36154467
59	0x3ed6ddcb	0.4196609
60	0xbdc89acb	-0.097951494
61	0x3cb08575	0.021548012
62	0x3a06b8ae	0.0005139214
63	0xbd930c3b	-0.07180067
64	0xbd3e167e	-0.04640817
65	0x3e31b20d	0.17353077
66	0x3a1714b0	0.00057632755
67	0x3e90ae73	0.28258094
68	0x3e854507	0.26029226
69	0xbe451715	-0.19247086
70	0xbeb72747	-0.35772154
71	0xbe6b6263	-0.2298675
72	0xbb9921a3	-0.0046731993
73	0x3f370f6f	0.71507925
74	0x3f0d3168	0.5515351
75	0xbd38694c	-0.045022294
76	0x3b298968	0.0025869254
77	0x3c903b2c	0.01760634
78	0x3de1015b	0.10986587
79	0xbeb1b05e	-0.3470487
80	0x3e98c855	0.2984034
81	0xbc9a282b	-0.018817982
82	0x3c0d93f7	0.008641235
83	0x3e9afc9e	0.30270857
84	0xbe923075	-0.28552595
85	0xbe1b21b3	-0.15149574
86	0x3b813012	0.003942498
87	0x3e0d8b07	0.13822566
88	0x3f06c05a	0.52637255
89	0x3f1211bc	0.5705831
90	0x3b88881d	0.0041666166
91	0xbe0107db	-0.12600653
92	0x3c0eb6d0	0.008710578
93	0xbdcd0829	-0.10011322
94	0x3d81538a	0.06314762
95	0x3e22a86f	0.15884565
96	0xbc39779e	-0.011320023
97	0x3c4e5c59	0.01259526
98	0xbe9e8bfc	-0.30966175
99	0xbe8c49f5	-0.27400175
100	0xbd6ebda8	-0.05828634
101	0xbc1ffdf8	-0.009765141
102	0xbbfb71de	-0.007673486
103	0xbf69005d	-0.9101618
104	0x3e4b242b	0.19838016
105	0xbdf1e33a	-0.11810918
106	0x3c6b4e11	0.014361874
107	0x3d0bde77	0.034147706
108	0xbd6f6ae5	-0.058451552
109	0x3ddbb097	0.10727041
110	0x3d0ed281	0.03486872
111	0xbeda3309	-0.42617062
112	0xbc0a738e	-0.008450402
113	0xbd9d85bd	-0.07691524
114	0xbd41e316	-0.047335707
115	0xbea01157	-0.3126323
116	0xba93084d	-0.0011217684
117	0x3d6a196f	0.05715316
118	0x3e05f6c9	0.13082422
119	0xbd6f30e0	-0.05839622
120	0xbcd76e23	-0.026297634
121	0x3f5f51ab	0.8723399
122	0x3a1517f2	0.0005687467
123	0x3e1a7d15	0.15086778
124	0x3b68a9aa	0.0035501518
125	0xbe381846	-0.1797801
126	0x3bd308be	0.006440251
127	0xbe13d8e2	-0.14438203
128	0xbd431f6b	-0.047637384
129	0xbe440202	-0.19141391
130	0x3e8564df	0.2605352
131	0xbe20dcf8	-0.15709293
132	0x3b9fe4a3	0.0048795505
133	0xbdc9bc0e	-0.09850322
134	0xbe2e671f	-0.17031525
135	0x3d073a64	0.03301467
136	0x3c43a6a7	0.0119415885
137	0xbe34761d	-0.17623182
138	0x3e87ae2f	0.2650008
139	0xbf1dcb2f	-0.6163816
140	0xbedb2314	-0.428002
141	0xbd29b282	-0.041430004
142	0x3bbe2892	0.005803176
143	0xbef8cd76	-0.48594254
144	0x3e0143d7	0.12623535
145	0xbd9de44c	-0.0770956
146	0x3be422e7	0.0069621685
147	0xbe89fca6	-0.26950568
148	0x3e775342	0.24152854
149	0x3cd92b68	0.026509956
150	0x3e8fd465	0.28091732
151	0xbe2a43e4	-0.1662746
152	0x3bb84402	0.0056233415
153	0x3d99959e	0.0749924
154	0x3da57c75	0.08080379
155	0xbe1a6f08	-0.15081418
156	0x3bee6d82	0.007276238
157	0xbec6d0a6	-0.3883106
158	0xbed66a48	-0.4187796
159	0x3e1ea119	0.15491141
160	0xbc5cd087	-0.013477451
161	0xbd8ee15f	-0.0697658
162	0xb990b150	-0.00027597928
163	0x3e3d6cc6	0.18498525
164	0xbf79e5b0	-0.976161
165	0x3d600b6a	0.054698385
166	0x3b9c5136	0.0047704233
167	0x3c02edcc	0.0079912655
168	0xbcff3098	-0.031151101
169	0x3e4f8682	0.20266154
170	0x3e6aa5a6	0.22914752
171	0x3b5e2bba	0.0033900575
172	0x3b57872d	0.0032886968
173	0x3dc4fc92	0.096184865
174	0x3e1b80eb	0.15185897
175	0x3e249843	0.16073708
176	0x3b9f1f8a	0.0048560547
177	0xbea3b2ec	-0.31972444
178	0x3d563b7d	0.052302826
179	0x3dfbe516	0.12299554
180	0xbe8bc266	-0.27296752
181	0x3deca9ea	0.11555846
182	0x391eabae	0.0001513201
183	0xbd121ff1	-0.035674993
184	0xbe06fb83	-0.13181882
185	0xbe83c7f8	-0.25738502
186	0x3b1357fd	0.0022482865
187	0x3e28e4eb	0.16493575
188	0xbe586cb0	-0.21135211
189	0xbd3a4e65	-0.04548492
190	0x3f0099be	0.5023459
191	0x3b780b38	0.0037848484
192	0x3bb63b48	0.005561266
193	0x3e4026e6	0.18764839
194	0xbefc4802	-0.49273688
195	0x3c9427a3	0.018085307
196	0x3c58dd5b	0.013236369
197	0x3e9b5744	0.30340016
198	0xbe5a2aac	-0.2130534
199	0x3e0e5a70	0.13901687

fc3.bias f4 [20]
0	0x3d91a5ac	0.071116775
1	0x3f24912d	0.6428402
2	0x3f141572	0.5784522
3	0x3f206cbb	0.6266591
4	0x3f70c386	0.94048345
5	0x3f23fe95	0.64060336
6	0x3f4832cb	0.78202504
7	0x3f2b6b2e	0.6696042
8	0x3df2e704	0.11860469
9	0x3f42cfdb	0.7609841
10	0x3f0e405d	0.5556696
11	0x3f731d2b	0.9496638
12	0x3f2fc2c2	0.6865655
13	0x3ee69117	0.4503257
14	0x3e948e14	0.29014647
15	0x3ec7aa6b	0.38997206
16	0x3ef6133b	0.48061547
17	0x3f9843a6	1.1895645
18	0x3f8ca960	1.0989189
19	0xbc77f553	-0.015134173

fc4.weight f4 [10, 20]
0	0x3f1e3b2f	0.61809057
1	0x3dc0a6b5	0.09406797
2	0x3df7a132	0.120912924
3	0x3b5f0e9e	0.0034035812
4	0x3e0e1780	0.13876152
5	0x3bba6e20	0.0056893975
6	0x3e103dde	0.140861
7	0xbec17096	-0.3778121
8	0x3d93b2ba	0.07211824
9	0x3d197031	0.03746051
10	0x3f0bbba1	0.54583174
11	0x3ded4ad3	0.11586537
12	0x3cdc53ac	0.026895367
13	0x3e5432d3	0.20722513
14	0x3ef04e57	0.4693477
15	0x3d61dc7a	0.055141903
16	0xbe928956	-0.28620404
17	0x3e15e49b	0.14637987
18	0x3e2eb584	0.1706143
19	0xbe9304e8	-0.2871468
20	0xbe50c7da	-0.20388737
21	0x3f48b530	0.7840147
22	0xbe7464d9	-0.23866595
23	0x3d8686fe	0.065687165
24	0x3e0cb1ac	0.13739651
25	0xbdb43ac5	-0.08800272
26	0x3d727f89	0.05920366
27	0x3dd3b729	0.103376694
28	0xbcf2f36d	-0.02965709
29	0x3b63e153	0.0034771755
30	0x3e2eafb4	0.17059213
31	0x3e6cf585	0.23140533
32	0x3d780866	0.060554884
33	0xbe511579	-0.20418347
34	0x3eb0419f	0.34425065
35	0xbdfda945	-0.12385801
36	0x3e82b852	0.2553125
37	0x3d66500a	0.056228675
38	0x3eb77fa9	0.35839584
39	0xbde8f99c	-0.11375734
40	0x3eb7c9c0	0.3589611
41	0xbe96c635	-0.29448095
42	0xbe13008d	-0.14355679
43	0x3d4c4edc	0.049879894
44	0x3d91c530	0.07117689
45	0x3f10ff60	0.5663967
46	0x3e6ac039	0.2292489
47	0x3e2cf7cb	0.168914
48	0x3f262d4e	0.6491288
49	0xbe97db6b	-0.2965959
50	0x3cf293ea	0.029611547
51	0x3e8e663e	0.2781238
52	0x3cd6012f	0.026123611
53	0xbe912981	-0.28351977
54	0x3e0334a2	0.12813047
55	0xbd211004	-0.039321914
56	0x3da0c84a	0.07850702
57	0x3e8abf99	0.27099302
58	0x3e44a2cd	0.19202729
59	0x3bd3af1e	0.0064600846
60	0xbd355bf3	-0.044277143
61	0x3e2a40f5	0.16626342
62	0x3e001415	0.1250766
63	0xbbd10960	-0.0063792914
64	0x3e4aa8f2	0.1979101
65	0x3e246199	0.16052856
66	0x3dad62dd	0.08466122
67	0x3f6565f5	0.896087
68	0x3ceca816	0.028888743
69	0x3e463ac2	0.19358352
70	0xbebe0ecf	-0.37120673
71	0x3de6345a	0.11240454
72	0x3db1ef9f	0.08688282
73	0x3e2ac16f	0.16675352
74	0xbc0ec3ac	-0.008713644
75	0x3db6acff	0.08919715
76	0xbe71d4eb	-0.23616378
77	0x3d02d5bb	0.03194211
78	0x3df64d47	0.12026458
79	0xbe5e35ee	-0.2170026
80	0xbd80cb86	-0.06288819
81	0x3a5eb798	0.00084959855
82	0x3d2d2b2e	0.042277507
83	0xbc59f4b8	-0.013302974
84	0xbeb3e3d9	-0.3513477
85	0x3e2bd24b	0.16779439
86	0x3e45396a	0.19260183
87	0xbc6fdb7b	-0.014639731
88	0xbccacc1f	-0.024755536
89	0xbe2222a1	-0.15833522
90	0x3d9def2b	0.07711633
91	0xbe9c8e6b	-0.30577406
92	0x3f699547	0.91243404
93	0xbc867dbf	-0.016417382
94	0x3c1ac446	0.009446209
95	0xbb147485	-0.002265246
96	0x3c3ec534	0.011643697
97	0x3ec7ddf4	0.39036524
98	0x3f0e9264	0.55692124
99	0x3c3b1f30	0.01142101
100	0xbe07d113	-0.13263349
101	0x3e1cdf12	0.1531947
102	0x3d67c6e9	0.05658618
103	0x3ca26d08	0.01982738
104	0x3d8c0a84	0.06837943
105	0x3dde563b	0.10856291
106	0x3e83c8e5	0.25739208
107	0xbebfdf71	-0.3747516
108	0x3f09d730	0.53843975
109	0xbe6490bd	-0.22320838
110	0xbe82d3f7	-0.2555234
111	0x3e7edd93	0.24889211
112	0xbb0e6886	-0.0021729781
113	0x3e28f522	0.16499761
114	0xbde31739	-0.11088414
115	0x3d324305	0.043520946
116	0x3f23ba9c	0.6395662
117	0x3e9c1aeb	0.30489287
118	0x3e7a7f1a	0.24462548
119	0x3ee40ca6	0.445409
120	0xbc851a35	-0.016247848
121	0xbe2cac0a	-0.16862503
122	0x3f77f42f	0.9685697
123	0x3cd7b8d4	0.02633325
124	0x3da61776	0.081099436
125	0x3d1e5173	0.038651895
126	0x3e7459fc	0.23862451
127	0x3bc69e0d	0.0060613216
128	0xbd94cc1b	-0.072654925
129	0x3e9ae580	0.3025322
130	0x3e4cc90a	0.19998565
131	0x3e744e49	0.23857988
132	0x3cf82339	0.030290233
133	0xbe450563	-0.19240336
134	0xbe8ced01	-0.2752457
135	0xbdaade22	-0.0834315
136	0x3d03559e	0.032064073
137	0x3b39fd04	0.0028379569
138	0x3ee39cd2	0.44455582
139	0x3e987ea6	0.29784125
140	0xbd0223db	-0.031772476
141	0xbc89c062	-0.016815368
142	0x3bbe685c	0.0058107805
143	0x3d362427	0.04446807
144	0xbc22ef55	-0.0099447565
145	0x3cbb976c	0.022899352
146	0xbeef5ac8	-0.46748948
147	0x3c502d3c	0.012706097
148	0xbd54ca36	-0.051950656
149	0x3e55e62a	0.20888582
150	0x3dd8ca95	0.105855145
151	0x3e79a65f	0.24379872
152	0x3d8dd0f0	0.06924617
153	0xbd7c99a6	-0.061669968
154	0xbdad4c18	-0.08461779
155	0x3fba3442	1.4547198
156	0x3d1ce2d0	0.038302243
157	0x3ee11c9e	0.43967146
158	0x3e309839	0.17245568
159	0x3dec1105	0.11526684
160	0xbd052662	-0.032507308
161	0xbe5d62b0	-0.21619678
162	0xbd7a9fb0	-0.061187446
163	0xbcd0127f	-0.025399445
164	0xbe52e33f	-0.205945
165	0xbea79835	-0.32733312
166	0x3ea2a32c	0.31765115
167	0x3df07dcf	0.11742746
168	0xbcb0bd44	-0.021574624
169	0xbbe9333d	-0.007116704
170	0x3d431602	0.04762841
171	0x3ed27bc7	0.4111006
172	0x3d5bfa9e	0.053705804
173	0x3f9c58a4	1.2214551
174	0x3e1a6969	0.15079273
175	0xbd995398	-0.07486647
176	0x3de24f61	0.110502966
177	0x3e9a6d23	0.3016139
178	0xbd8322a2	-0.0640309
179	0x3cd83cd3	0.02639619
180	0xbd6c3205	-0.05766489
181	0x3cd7c8d1	0.026340874
182	0xbd0712b6	-0.03297683
183	0x3f81bd71	1.0135938
184	0x3e4287e9	0.18997158
185	0x3ccc4054	0.024933018
186	0x3ecceeff	0.4002609
187	0xbcc1cdfe	-0.023657795
188	0xbd3d2ced	-0.046185423
189	0x3e908fb4	0.28234637
190	0x3d9d2af1	0.07674206
191	0xbecf93f5	-0.4054257
192	0xbdcf35e7	-0.10117703
193	0xbca1f237	-0.019768817
194	0xbdc217ad	-0.09477172
195	0xbd30d625	-0.043172974
196	0x3ce33d73	0.027739262
197	0x3ee6d318	0.45082927
198	0xbd0a0247	-0.033693578
199	0x3d2b1aaf	0.041773494

fc4.bias f4 [10]
0	0x3ec84e30	0.39122152
1	0x3dbc1897	0.09184378
2	0x3e8c2b7b	0.27376923
3	0x3e29cbda	0.1658167
4	0x3eaab0d9	0.3333805
5	0x3e55c1e9	0.20874752
6	0xbd444ad6	-0.04792293
7	0x3e04e36a	0.12977377
8	0x3ed93c97	0.4242904
9	0x3e8572d8	0.2606418
