COIL/vae/c1_v8_vae.pt (torch, 5447 bytes, 10 tensors)

fc1.weight f4 [16, 8]
000000 1f 34 70 be b1 91 c5 be 0c 97 2d 3f 72 e8 81 bd
       -0.23457383 -0.38587716 0.67808604 -0.063431635
000010 ea fe f6 3e 17 bb 32 3f 43 b3 39 3e 08 6e 11 3f
       0.4824136 0.69816726 0.18134789 0.5680852
000020 da 41 1a bf f7 ec 28 3e b6 16 28 be 56 49 26 3f
       -0.6025673 0.16496645 -0.16414914 0.6495565
000030 95 c4 d6 3e 58 62 ca be 3f fc 30 3f 69 b1 ce 3e
       0.41946855 -0.39528155 0.69134897 0.40369728
000040 40 af db bd 9d 8d e6 bd 06 4a dc 3e 30 34 04 3f
       -0.10726786 -0.11257479 0.43025225 0.5164213
000050 1f 6c f3 3c 94 8d 1c 3a 9b f6 44 be 8c 16 ad 3e
       0.029714642 0.00059720245 -0.19234698 0.33806264
000060 34 21 de be a2 61 4f 3e 56 61 31 be d8 9a 04 3e
       -0.43384707 0.20252088 -0.17322287 0.12949693
000070 44 cb e6 be e8 c5 4c 3f 84 0a 2c 3f e0 54 e8 3e
       -0.45076954 0.7998948 0.67203546 0.45377254
000080 aa 5f 5a be c4 62 b1 3e 6f 43 e8 3e e6 c2 22 3f
       -0.21325555 0.34645665 0.45363948 0.6357864
000090 31 d6 12 3e 8e 4d d7 3e ea 6f e2 be 61 20 31 bf
       0.1433952 0.42051357 -0.4422601 -0.6919003
0000a0 2a 06 a8 be 59 7a 2e 3f ee 1d 26 3f 2a 80 a6 be
       -0.32817203 0.6815544 0.6488942 -0.32519656
0000b0 ac b1 21 be 98 3a c9 3e 73 fb 22 3f bc c4 32 be
       -0.15790433 0.39302516 0.6366493 -0.1745786
0000c0 48 b6 88 bc e5 b5 26 3f bb c5 39 3e ee 9a 66 3d
       -0.016688481 0.651213 0.18141834 0.056300096
0000d0 20 80 e5 be 94 29 19 bf c5 c9 8b 3e 10 45 50 3e
       -0.44824314 -0.5982907 0.27302375 0.20338845
0000e0 e2 e6 a6 3e be 11 ab bc 05 5e 07 bf 5e 5e 2a 3f
       0.32598025 -0.020882484 -0.5287784 0.6655024
0000f0 c3 4b 22 3e 48 cd 16 be e7 b0 02 3f f7 f6 a5 bd
       0.15849213 -0.14726746 0.5105118 -0.081037454
000100 ab bc 33 be 41 58 07 be 51 4b 80 3f 43 cf e5 bd
       -0.1755244 -0.1321726 1.0022985 -0.11221173
000110 1b ee 3b be 39 2e 11 be a7 89 36 be cb 08 09 be
       -0.18352549 -0.14177789 -0.17825948 -0.1338226
000120 8f 08 70 3f 18 c1 ff be 35 a7 b4 3e e5 d0 d3 bd
       0.9376306 -0.49952006 0.3528382 -0.10342578
000130 60 9f 1b be ab fa 95 bd 57 41 0a 3f dd 88 85 3b
       -0.15197515 -0.07323202 0.5400595 0.0040751533
000140 f0 47 1c 3f 51 79 30 3b b8 26 72 3d 79 d2 1a 3f
       0.6104727 0.002692778 0.059118956 0.60477406
000150 60 67 09 3e b5 a1 2e be 1d 2d bd be 48 b6 f8 3e
       0.1341834 -0.17053874 -0.3694848 0.4857657
000160 30 50 04 3f ca 74 1c 3f 59 1b f9 3e 43 09 b5 3e
       0.51684856 0.61115706 0.48653677 0.3535863
000170 68 5f 46 bf c4 40 98 3d 93 4d b4 be 53 62 26 3f
       -0.7748933 0.07434228 -0.35215434 0.6499378
000180 04 94 fd 3e 9d 05 a7 3e 5c ba eb be 86 f9 94 3e
       0.4952699 0.3262147 -0.46040618 0.2909662
000190 d1 66 d2 be dd 6b 0e 3f 19 e2 cf 3e 30 65 78 be
       -0.41094068 0.55633336 0.40602186 -0.2425735
0001a0 b9 51 9b be 55 b6 83 be 40 1d 19 bc 3e 2e b2 be
       -0.30335787 -0.25725046 -0.009345353 -0.34800905
0001b0 36 bb 84 be 80 25 ff bb 78 ee a8 3d 10 0b 14 bd
       -0.2592408 -0.007786453 0.08248609 -0.036143363
0001c0 7b d7 cc 3e 2f 1e 3e 3f 5a 2b 12 bf ee 03 34 bf
       0.4000815 0.74264807 -0.570974 -0.70318496
0001d0 71 cb 0e 3f dd b5 1f 3f 18 68 3c be 32 a1 00 3f
       0.55779177 0.62386876 -0.18399084 0.50245965
0001e0 ae 57 5f 3e 16 0d 34 3f cc f9 35 3e cc b4 30 be
       0.21810791 0.7033247 0.17771071 -0.17256469
0001f0 cd d2 30 3f aa 16 09 bf e0 6f e3 3e a9 06 06 bf
       0.69071656 -0.5355021 0.4442129 -0.5235391

fc1.bias f4 [16]
000000 08 5d 50 3c 92 0e b7 3e fb 86 01 3e 7c 1f 04 3e
       0.012717493 0.35753304 0.12649147 0.12902635
000010 22 89 0a 3f 73 5c 2e bd 4f 84 03 3f f4 14 89 3e
       0.541155 -0.042568635 0.5137376 0.26773798
000020 1e ab 37 3e 3b 13 1a 3f 94 7f df bb d0 d4 95 be
       0.1793637 0.60185593 -0.0068206284 -0.29263926
000030 27 5f c4 3c 42 d3 82 be 38 83 a3 3e 62 a6 b3 3e
       0.023971153 -0.25551802 0.3193605 0.35087878

fc21.weight f4 [8, 16]
000000 a3 ca cc be 88 1f 0f bf af ad 8c bd dc 05 bb be
       -0.3999835 -0.5590749 -0.06869065 -0.36527908
000010 91 b8 25 3f 31 1c f0 3d de 5a ec 3e ff 98 9f be
       0.6473475 0.11724127 0.46163076 -0.31171414
000020 34 a9 1f bd 29 35 45 bf 33 c2 63 3e cc 67 08 3f
       -0.038979724 -0.7703424 0.2224205 0.5328338
000030 30 90 6c 3e 50 5d f5 bd 2e 57 49 3f 4e f4 06 3e
       0.23101878 -0.119806886 0.7864865 0.13179132
000040 24 ef 7f be 9a 34 9f bd 76 99 20 be d2 1a b7 3e
       -0.24993569 -0.07773705 -0.1568354 0.3576265
000050 32 20 28 bf 31 a2 1c 3f ae cb 61 3f 74 d4 3b be
       -0.65674126 0.61184984 0.88201416 -0.18342763
000060 bf f7 f0 3c 66 86 82 3e 1a f5 89 be 35 d8 15 3f
       0.02941501 0.25493163 -0.2694481 0.5853303
000070 ec d6 e9 3e a0 4e b5 bc 77 31 ff be 64 b2 b7 be
       0.45671785 -0.022132218 -0.49842426 -0.3587829
000080 b2 f6 c2 3e 42 91 df be 2b 1a 1b 3e 7f ba 30 be
       0.3807884 -0.4366551 0.15146701 -0.17258643
000090 2d 3d 59 3f 0b 2a 1a 3e ed 07 8f be 05 49 78 be
       0.8485897 0.150551 -0.27935734 -0.24246605
0000a0 06 1f 92 3f ef 20 31 3e 8f e6 42 3d 82 43 79 3e
       1.1415718 0.1729772 0.04758316 0.24342158
0000b0 fd 01 9b bd a6 b4 47 3e dc 64 38 bf b6 76 9f be
       -0.075687386 0.19502506 -0.720289 -0.31145257
0000c0 b2 58 69 bd 81 c8 01 bf 0c f1 b4 be 81 75 0a 3e
       -0.056969352 -0.5069657 -0.35340154 0.13521387
0000d0 52 e8 e8 3e fc b6 08 3d c6 ec 42 bf 32 f6 94 bd
       0.45489746 0.033377632 -0.7614254 -0.072735205
0000e0 ae ec c2 be 2d 01 21 3f 0d df 96 be 55 d1 9d be
       -0.38071197 0.6289242 -0.2946705 -0.3082377
0000f0 ba ae b1 3f 7e d1 59 be 2d 96 8f bd 00 7e 05 3d
       1.3881447 -0.21271321 -0.07011066 0.032590866
000100 77 a4 95 be cc f5 fe 3e 9a d7 28 3e 69 c8 83 3e
       -0.2922704 0.49796903 0.16488495 0.25738838
000110 24 43 20 3f fd 68 ec be bf 10 bc 3d f0 71 1b 3f
       0.6260245 -0.4617385 0.091828816 0.6072073
000120 92 ac d7 be 2f 37 3f bf 13 54 88 3e 10 53 95 3d
       -0.42123848 -0.7469358 0.26626644 0.072912335
000130 e7 6a 21 3f 70 68 e7 bc 4d a2 ba be 76 30 0f bf
       0.63053745 -0.028248042 -0.3645195 -0.5593332
000140 1c 0d b7 3e 61 1d ff 3d 31 37 1e 3e a6 e4 14 3f
       0.3575219 0.124567755 0.15450741 0.5816139
000150 10 8f a8 bd 65 30 4f 3f a3 bf cf be b2 25 5a be
       -0.08230412 0.8093322 -0.40575895 -0.21303442
000160 6d 51 8b 3d 17 8a 60 bf 78 03 96 be 1f 67 93 be
       0.0680264 -0.8771071 -0.2929952 -0.28789613
000170 ab 01 9e bd 00 04 65 3a f5 db a2 3e 59 58 03 bf
       -0.07715162 0.0008736253 0.3180844 -0.5130668
000180 b9 d8 9d be 66 c1 46 3e d3 28 35 3e 80 aa 8d 3c
       -0.3082941 0.19409713 0.17691354 0.017293215
000190 bc 82 3e 3e f5 6b 94 3c 8e 35 f6 3d 3a 59 8f be
       0.18604559 0.018117884 0.120219335 -0.27997762
0001a0 e1 46 f2 bd 5e a3 9d 3e 80 2d 82 bc 22 94 65 be
       -0.11829925 0.30788702 -0.015890837 -0.2241979
0001b0 be 55 3e bd 98 0c 7a bd 44 ef 3c 3e 19 2b 6d be
       -0.04646849 -0.061047167 0.18450648 -0.23160972
0001c0 b2 d6 89 be c6 e3 a2 3e 90 49 b5 be 67 43 3d be
       -0.26921612 0.31814402 -0.35407686 -0.18482743
0001d0 d1 3b 0d 3f 14 2b 0d 3f b0 cc f9 3e 04 37 d3 3d
       0.551694 0.55143857 0.48788977 0.10313228
0001e0 83 2a 42 3e 8a 8a 6b be 92 a0 c7 be 28 42 f9 be
       0.1896153 -0.23002067 -0.38989693 -0.48683286
0001f0 3e 43 a5 3d fc b0 46 3e 60 92 f1 be a8 ca 32 3f
       0.08069466 0.19403452 -0.47181988 0.6984048

fc21.bias f4 [8]
000000 97 d0 28 be ee 44 d1 bd 0c 13 a6 3d 5f 12 62 be
       -0.1648582 -0.102182254 0.08109102 -0.2207732
000010 f0 e4 8c bd 2f dc 84 3e ff aa f1 bd 07 cd 39 be
       -0.06879604 0.25949237 -0.11800193 -0.18144618

fc22.weight f4 [8, 16]
000000 e5 03 94 be 00 3c 99 be 06 d6 02 be 44 0b 1e 3e
       -0.2890922 -0.2992859 -0.12776956 0.15433985
000010 e9 2e cc be 7e f6 2b 3d e0 b9 cc 3e a6 a1 cb bd
       -0.3987954 0.04198312 0.3998556 -0.09942941
000020 c0 23 22 be 10 e0 2c bf f1 c6 8a be d0 13 b1 bd
       -0.1583395 -0.6752939 -0.27104905 -0.08646357
000030 d7 d3 9f 3e 40 7a 80 3c c9 1f a7 be 23 ee a0 3e
       0.31216308 0.015683293 -0.32641438 0.31431684
000040 99 75 39 be 03 fd 0b 3d 81 91 82 bd 42 2c 29 be
       -0.18111266 0.034176838 -0.06375409 -0.1652079
000050 30 79 4c be f5 2d b2 bd 90 1f 91 be 7b 9d fb bd
       -0.19968104 -0.08700172 -0.28344393 -0.122858964
000060 56 7a 1e bd 12 49 aa be d4 34 03 3d b9 f2 09 bf
       -0.038690887 -0.33258873 0.032032803 -0.5388599
000070 89 c2 b1 be 30 7d a3 bd 5f e3 1e bb 03 52 2c 3e
       -0.3471873 -0.07982862 -0.002424441 0.1682816
000080 2c e2 5f bd c8 84 4d bc 51 85 a1 bd 74 32 b4 be
       -0.054659054 -0.012543865 -0.07886756 -0.35194743
000090 78 aa 04 be 6d 0f 55 3b b9 c1 46 3e 8d e9 03 bf
       -0.12955654 0.0032510415 0.19409837 -0.51528245
0000a0 7e 5e a0 3f 21 56 3b bd b0 dc c6 be 03 6c 30 bb
       1.2528837 -0.045736436 -0.38840246 -0.0026919849
0000b0 19 a7 03 be 90 39 0a 3d d1 ff f6 be ef 5b 57 be
       -0.12856711 0.033746302 -0.48242047 -0.21031164
0000c0 7d 9f 8b 3d 60 4d f7 be 91 8f ed 3c 4b 25 18 bd
       0.06817529 -0.4830122 0.028999122 -0.03714494
0000d0 b6 58 a7 be 71 3d 0d be 6f 76 90 3d 8f 74 a8 bd
       -0.3268487 -0.1379297 0.070538394 -0.08225357
0000e0 df 9b 4e bd 02 20 a3 be 11 e9 60 be bb e9 08 bd
       -0.05044162 -0.31860358 -0.21963908 -0.033426028
0000f0 63 88 af 3d 8c 9d f4 bd d4 ea 3e be e7 a3 ad be
       0.085709356 -0.11944112 -0.18644267 -0.3391411
000100 ac f4 c4 be 21 a0 9b bd 3b b9 7c bd 19 7d ca 3d
       -0.3846792 -0.075989015 -0.061700087 0.09887142
000110 e9 e4 5f 3e 30 be c8 be 50 a8 94 3d 88 b3 4f 3c
       0.21864666 -0.39207602 0.072586656 0.012677081
000120 83 26 32 3e e1 70 83 be ce dc 38 3d bc 80 d6 bd
       0.17397504 -0.25672057 0.04513245 -0.10473773
000130 34 1f b7 bd 9e 2b 58 be cf a0 03 bf bf 7a 35 be
       -0.089414984 -0.21110389 -0.5141725 -0.17722605
000140 6f c0 15 be 5b 52 04 bf a4 8f 79 be 81 b4 80 bd
       -0.14624189 -0.51688164 -0.24371201 -0.062844284
000150 bd 18 e0 bd 50 1c ad be e5 09 6f be 64 8a b0 bd
       -0.109422185 -0.33810663 -0.23343618 -0.08620146
000160 49 f0 94 3c 5b ed 0b bc a2 30 2a be f8 f0 9e 3d
       0.018180983 -0.008540477 -0.16620114 0.07760805
000170 9a 69 78 3e 50 19 9f 3c 93 a6 f6 bd 9b ae 33 be
       0.24259034 0.01942125 -0.1204349 -0.17547075
000180 05 59 17 3e fb b0 00 bb d7 60 9b bd 1b 68 50 3d
       0.14780052 -0.0019636739 -0.0758683 0.050880533
000190 87 cf 96 3d b2 3d 89 be fe 83 a7 3d 02 9d a0 3b
       0.073638014 -0.26804882 0.081794724 0.0049015293
0001a0 e3 e7 7b 3c 2a c3 9d 3c c3 c7 4f be 85 e1 ef 3d
       0.01537511 0.0192581 -0.20291047 0.11712936
0001b0 ce 78 a5 3c 7a db 17 3e 40 79 b4 bb d1 ba f2 3d
       0.020199206 0.14829817 -0.005507618 0.11852039
0001c0 16 26 45 be b2 63 e6 bd 7e 48 1d be f0 dd e9 3b
       -0.1925281 -0.11249484 -0.15359685 0.0071370527
0001d0 5a 4a df be d4 85 2f be a2 ad e2 3d 81 ef 18 bd
       -0.43611413 -0.17140895 0.11068274 -0.037337784
0001e0 7a 8c 14 bc 24 dc 7a be 42 d7 95 be 45 a6 62 3d
       -0.009066695 -0.2449804 -0.2926579 0.05533435
0001f0 24 1d 80 be a0 04 6b 3e d7 c2 ac bd 1c 33 75 be
       -0.25022233 0.22950983 -0.084356 -0.23945278

fc22.bias f4 [8]
000000 56 5b 26 bd 29 6f 11 be 09 1b 82 3b bd 56 25 3d
       -0.04061445 -0.1420256 0.003970508 0.040365923
000010 65 21 8a be 4e 2c 01 bd 1f 6d 2c be a6 19 01 3d
       -0.26978603 -0.031536393 -0.16838501 0.0315186

fc3.weight f4 [16, 8]
000000 aa 08 fc bd c5 c1 5c 3e d7 29 91 be f5 3f 20 bf
       -0.1230634 0.21558292 -0.28352234 -0.6259759
000010 fe 4c af 3a 4f 30 33 3e 95 9b a4 3b 1b 3f 33 bf
       0.0013374386 0.17498897 0.0050234296 -0.70018166
000020 e1 52 cc 3c 17 6c 0e 3f 49 8b 9a 3c 67 be d3 3d
       0.024941863 0.5563368 0.018865244 0.10339051
000030 8c 33 a5 3d 83 e2 e4 bd 27 a1 13 3b 27 34 9d be
       0.080664724 -0.11176016 0.0022526474 -0.30703852
000040 a7 b6 2a 3f c2 18 78 3e 34 d6 87 be 31 87 fd bd
       0.66684955 0.24228194 -0.26530612 -0.12379301
000050 62 6c 96 3d 7f ee da 3d 77 90 8a 3c e4 a2 c0 3e
       0.07344891 0.10690021 0.01691459 0.37624276
000060 35 d5 2d 3e 67 20 46 be a7 97 64 3e ef 9d 1f be
       0.16975863 -0.19348298 0.22323476 -0.1558759
000070 a6 20 e5 3d 9c cd 3d 3b 28 61 1d bc db 17 96 be
       0.11187868 0.0028961664 -0.009605683 -0.29315075
000080 35 8a db 3d 18 f6 86 bd 7a b5 49 3e c9 28 24 3f
       0.1071972 -0.065899074 0.19698134 0.64124733
000090 86 e3 62 3d 23 c0 23 3f fa ed 25 bc 1e a2 ac be
       0.055392765 0.6396505 -0.010127539 -0.33717436
0000a0 35 e0 82 bd 81 2c 49 3d 68 fe bc be a6 1e 90 3d
       -0.0639042 0.049114708 -0.36912847 0.07037096
0000b0 07 c0 65 bd f9 dd cc 3e 33 b6 03 bb fd 2b f1 bd
       -0.056091335 0.40013102 -0.0020097613 -0.11775968
0000c0 af 10 b4 bd f4 34 09 bf 20 c9 58 be 59 b6 82 3d
       -0.08792245 -0.53596425 -0.21170473 0.06382436
0000d0 b2 6b bc bd 76 1c 66 bd 23 f7 e0 3b e6 43 37 3e
       -0.09200229 -0.056179486 0.0068653985 0.17896995
0000e0 12 54 ef bd e3 81 ef bd e3 84 1d 3e 2f 51 2c bd
       -0.11685957 -0.11694696 0.15382724 -0.04206961
0000f0 4b a1 71 3f a0 91 8a be 7b be eb 3a f8 3d 45 3d
       0.9438674 -0.27064228 0.0017985845 0.0481548
000100 07 ca a9 bb 05 73 32 3e 09 b0 08 3f da c4 60 be
       -0.0051815542 0.17426689 0.5339361 -0.21950093
000110 94 80 15 bf d6 d6 63 3d 9b a3 d8 bb 41 a8 f3 3d
       -0.5839932 0.055624805 -0.0066113 0.11897326
000120 32 d2 14 3e 58 78 9e 3d 1e 8a c7 bd 48 a3 d0 3e
       0.14533308 0.077377975 -0.09743141 0.40749574
000130 bd cf 6f be 9a 84 30 bf 9a 01 82 3a 8a da ac be
       -0.2341909 -0.68952334 0.000991869 -0.33760482
000140 a6 16 25 bf c7 25 5d be e2 21 96 3e ea 96 fe 3b
       -0.64487684 -0.21596442 0.29322726 0.007769455
000150 ad 4e 11 be 5d e9 e9 bc d0 fe 27 bb 3e 33 cd be
       -0.14190169 -0.02855366 -0.0025634058 -0.40078157
000160 24 91 27 be 94 86 36 3e 96 95 92 bc e5 72 06 bf
       -0.1636396 0.17824775 -0.017893594 -0.52519065
000170 7d 9f bf 3d 2e e7 0f bd a8 d1 95 ba bc 71 5b 3e
       0.09356592 -0.03513258 -0.001143028 0.21430105
000180 09 31 74 bc 91 4c 09 be 43 10 12 be 51 9e 21 be
       -0.014904269 -0.13408114 -0.14264016 -0.15783049
000190 d9 11 7d be f0 60 8d be 70 5f dd 39 25 53 fc bd
       -0.2471384 -0.2761302 0.0004222351 -0.12320546
0001a0 78 e6 db bd 14 3b 84 bf e3 bc 52 be 22 ed 6d be
       -0.10737318 -1.0330529 -0.20579867 -0.2323499
0001b0 bf c6 7f be 8a 05 0c 3e 9b 7b cf 39 41 f3 96 3e
       -0.2497816 0.13673988 0.0003957421 0.29482463
0001c0 e0 57 17 bf 49 a6 e3 3e 29 03 ba be ec aa 6b 3e
       -0.5911846 0.44462803 -0.36330536 0.2301442
0001d0 fc d6 92 bd b4 d7 b9 3d 9f 78 82 3b b3 cc d3 3e
       -0.07169911 0.09074345 0.0039816643 0.4136711
0001e0 98 ef 93 3b 18 df e5 3c dd b4 03 3f cc 29 de 3d
       0.004514646 0.028060481 0.5144785 0.10847816
0001f0 7e e4 f6 3d c2 16 80 bd 9f 28 ca 3a 22 d3 4b 3e
       0.120553 -0.06254341 0.0015423483 0.1990476

fc3.bias f4 [16]
000000 53 9f e2 3e 8a 8f 13 be 59 d7 e4 3e 38 3b 4e 3f
       0.4426218 -0.14410225 0.44695547 0.8055911
000010 48 7c f3 3e 4d d0 9d 3f 95 d6 0b 3f df 41 1b 3f
       0.47555757 1.2329193 0.546243 0.60647386
000020 5c 89 1b 3f f1 51 03 3f 5e 8a 42 3f 59 85 89 3f
       0.6075647 0.5129691 0.7599238 1.074382
000030 a8 24 9c 3f fd 44 08 3f ea 21 f2 3e de db a1 3f
       1.2198687 0.5323027 0.472915 1.2645223

fc4.weight f4 [8, 16]
000000 96 e6 42 bd 5e e6 97 3e 13 9f 0c bd 48 5c a4 3d
       -0.047583185 0.29667944 -0.034331392 0.08025414
000010 ab 62 23 bc c4 31 a9 bd 15 a1 c7 3e ee cf 17 3d
       -0.009972255 -0.08261445 0.38990083 0.03706353
000020 6c 31 80 bb 02 d0 86 3f b3 b4 46 bd 6a 17 94 be
       -0.0039121415 1.0532229 -0.048512172 -0.28924114
000030 ae 27 2c 3f 45 4e ba be d2 5c 11 3d 5b bc 5b 3d
       0.67248046 -0.3638784 0.03548891 0.053646427
000040 7a 36 c4 bc 1b d0 b1 3c 5f 68 9c 3f dc d9 08 3e
       -0.023951758 0.021705678 1.2219352 0.13364357
000050 71 84 e3 3b 62 16 7a 3e 3f dd eb 3c e5 87 b8 bc
       0.0069432785 0.24422601 0.028792022 -0.022525737
000060 68 62 2c 3d 0f e1 b7 3c 83 21 fd be b9 5b e9 3d
       0.042086035 0.022446183 -0.4943963 0.11394448
000070 e7 36 44 3e e6 65 a9 bc 7e f9 d9 bc cf c0 51 3e
       0.19161569 -0.020678472 -0.026608225 0.20483707
000080 33 26 6f ba 35 9f be bc 4e 25 62 bd b3 d9 9d 3d
       -0.00091228186 -0.023269275 -0.055211358 0.077075385
000090 06 6f 84 3d 8b ed c8 bd 1f f0 47 be e2 7b 96 be
       0.064664885 -0.09810933 -0.19525193 -0.2939139
0000a0 b7 dd 53 3f 7f 77 cb bc b0 f6 44 3d 48 7e b2 3e
       0.82760185 -0.024837254 0.048086822 0.3486197
0000b0 2d 7b 2d 3e 81 c9 47 3d 48 73 8e bd 2d 98 33 3f
       0.16941519 0.048776153 -0.06955582 0.70154077
0000c0 bb b9 25 3c de 11 c8 3c 42 b6 43 bb d3 9d 63 3e
       0.010115082 0.024422582 -0.0029863273 0.22228174
0000d0 01 42 3e 3d 1e 0a a1 bd 42 0c 09 3e 6a 57 74 3f
       0.046449665 -0.07863258 0.13383582 0.95445883
0000e0 e7 e6 dd be 80 71 ef 3a 07 14 6d 3d fb fb c2 3e
       -0.43340227 0.0018268079 0.057880428 0.3808287
0000f0 16 e0 07 bd 89 db cd bd f6 d4 08 bb 14 47 ed 3e
       -0.03317269 -0.10051639 -0.0020878888 0.4634329
000100 c8 1b de bc 22 93 f3 be d1 97 4e bd d1 3c 41 bd
       -0.027112857 -0.4757319 -0.050437752 -0.04717714
000110 f9 29 f0 3c 30 45 21 3e 13 6c a0 3e 3d 7d c3 3c
       0.02931689 0.15749049 0.31332454 0.02386343
000120 a2 73 7e bd f6 dc fc bc a4 67 13 3d c2 f5 18 3b
       -0.062121995 -0.030867081 0.03598751 0.0023339842
000130 31 e6 b3 3e a6 b4 62 3f 1e 34 c8 bd e6 6e d4 3c
       0.3513656 0.885569 -0.097755656 0.025931787
000140 c8 f0 db 3b 7b fc 49 3c 8b d9 1c 3c f5 34 59 3e
       0.006712053 0.012328262 0.009573351 0.21211608
000150 22 1a 8d 3f 35 ec 09 3f 17 9b 77 bd 2c ae ea bc
       1.10236 0.5387605 -0.06045064 -0.028647505
000160 b1 27 86 bc 0b 66 d6 3c f5 7f 14 3d be 13 b1 be
       -0.016376348 0.026171705 0.03625484 -0.34585375
000170 18 af 24 be 69 cf a8 3c 8c 46 e4 3c 0d e4 b0 3e
       -0.16082418 0.020606713 0.02786567 0.3454899
000180 6b 0f f0 bc 6f bc d3 3d 78 b9 88 3b d2 64 03 bf
       -0.029304227 0.10338675 0.0041725 -0.51325715
000190 b8 d0 de bc 5f f6 ae 3e b0 5e d9 3e cd 84 ca 3b
       -0.027199134 0.3417234 0.42455053 0.006180382
0001a0 48 45 e9 3c ca 43 3e 3c c7 34 2d 3e e4 42 85 3e
       0.028475419 0.011612842 0.16914664 0.26027596
0001b0 10 e6 8a bc 31 86 85 be 5e bc 8c 3f 5e 13 39 3e
       -0.016955405 -0.26078942 1.0994985 0.18073794
0001c0 7b 1b 8c 3f 72 1e 81 3e c3 dc 30 bd 95 90 b5 3e
       1.0945886 0.2521854 -0.043179285 0.3546187
0001d0 f0 ca 6f 3c c1 ec a8 3e d1 ec 7c be 13 02 f6 3c
       0.014635786 0.3299313 -0.24699713 0.030030286
0001e0 1b e1 d8 3c ae 64 22 3c b8 5a bc 3d bb c7 87 3e
       0.026474526 0.009911699 0.09196991 0.2651957
0001f0 66 2f 53 3e f2 0b 07 bd 4c 58 56 bd 98 e7 8c be
       0.2062355 -0.032970376 -0.0523303 -0.27520442

fc4.bias f4 [8]
000000 d4 e6 d0 3e 24 16 9c 3e c9 d1 85 bd 0b c3 81 3d
       0.40801108 0.30485642 -0.06534154 0.063360296
000010 93 c0 a2 3e b5 42 3b 3e cc 83 4f 3e da 9a f9 3d
       0.31787547 0.18287165 0.2026512 0.12187739
