COIL/vae/c1_v3_vae.pt (torch, 3527 bytes, 10 tensors)

fc1.weight f4 [6, 3]
0	0xbd83a16f	-0.064272754
1	0xbeaf4cd8	-0.34238315
2	0x3f18c4f4	0.59675527
3	0xbe44879c	-0.19192356
4	0x3ea50692	0.32231575
5	0xbe3a9287	-0.18219958
6	0x3ebce752	0.36895233
7	0x3f817553	1.011393
8	0x3f8654f2	1.0494673
9	0xbf0e983d	-0.5570105
10	0x3f16e471	0.58942324
11	0x3e2e5f6d	0.1702859
12	0x3f481f9c	0.7817323
13	0x3f541cbd	0.8285635
14	0xbf3d03a8	-0.73833704
15	0x3f8ce553	1.1007484
16	0x3e2dc8c5	0.16971119
17	0x3f2e4b8b	0.6808402

fc1.bias f4 [6]
0	0x3f9533b2	1.1656401
1	0xbeb4cd02	-0.3531266
2	0xbebbaa30	-0.3665328
3	0x3f818d77	1.0121297
4	0x3f45c43d	0.7725256
5	0x3e6ff436	0.23433003

fc21.weight f4 [3, 6]
0	0x3f5d1020	0.8635273
1	0xbdab61c8	-0.0836826
2	0xbfc560a4	-1.5420117
3	0x3f02ebda	0.5114113
4	0x3dd02fdf	0.10165381
5	0xbf652961	-0.89516264
6	0xbf635471	-0.8880072
7	0xbebf1591	-0.3732114
8	0x3de3f286	0.11130242
9	0x3f16ae54	0.58859754
10	0x3f36dad4	0.71427655
11	0xbec7edea	-0.39048702
12	0xbe5f209e	-0.21789786
13	0x3e7c652c	0.24647969
14	0xbf80d54d	-1.0065094
15	0xbee7e4df	-0.45291802
16	0x3eddab5e	0.43294805
17	0x3f73c311	0.9521952

fc21.bias f4 [3]
0	0x3f84d8e7	1.0378693
1	0xbd04b158	-0.03239569
2	0xbb2d47ff	-0.0026440618

fc22.weight f4 [3, 6]
0	0xbf4d89c9	-0.8028837
1	0x3e1f9678	0.15584743
2	0x3e74fb68	0.23924029
3	0xbf050555	-0.5196126
4	0xbed10bcc	-0.40829313
5	0xbce35f00	-0.02775526
6	0xbf86a3ba	-1.0518715
7	0x3e87d69a	0.26530915
8	0x3f555639	0.8333469
9	0xbf1947c0	-0.59875107
10	0xbef11bda	-0.47091562
11	0xbefb44e8	-0.4907601
12	0xbf8b633c	-1.0889659
13	0xbe988ad6	-0.29793423
14	0x3f068e72	0.52561104
15	0xbf76ff3e	-0.9648322
16	0xbeff3670	-0.4984622
17	0xbe057ad7	-0.13035141

fc22.bias f4 [3]
0	0xbe888c3d	-0.26669493
1	0xbf771693	-0.9651882
2	0xbf334f0d	-0.70042497

fc3.weight f4 [6, 3]
0	0xbed1f725	-0.4100887
1	0xbf625a35	-0.88418895
2	0xbf3426f4	-0.7037194
3	0xbebcd447	-0.36880705
4	0xbd962314	-0.07330909
5	0x3f440699	0.7657257
6	0xbdce71a8	-0.10080272
7	0x3d8cb168	0.06869775
8	0xbf09b111	-0.53785807
9	0xbeefaca9	-0.46811417
10	0x3f9730bf	1.1811751
11	0xbf19aa0d	-0.600251
12	0xbeb5abb1	-0.35482553
13	0x3ec1f32e	0.37880844
14	0x3e825509	0.25455502
15	0xbec6c1ae	-0.3881964
16	0xbe662777	-0.22475992
17	0x3d9c0d2a	0.07619698

fc3.bias f4 [6]
0	0xbe42152a	-0.18953386
1	0xbe10d7cf	-0.14144824
2	0x3f727307	0.9470677
3	0xbe17c3b0	-0.14820743
4	0x3f87482d	1.0568901
5	0x3f5e44c1	0.8682366

fc4.weight f4 [3, 6]
0	0x3c51cc5a	0.012805069
1	0x3ff43a65	1.9080321
2	0xbf477aed	-0.77921945
3	0x3c7cc66e	0.015428169
4	0x3e976ee6	0.29576796
5	0x3ef6a11a	0.48169786
6	0x3a6ece08	0.00091096805
7	0xbd1e4aa8	-0.038645416
8	0x3f422782	0.75841534
9	0x3f871c80	1.0555573
10	0x3f5f2689	0.87168175
11	0xbf09adf9	-0.53781086
12	0x3fae6960	1.3625908
13	0xbbe7b935	-0.007071639
14	0x3ebe1d77	0.37131855
15	0x3d487df2	0.048948236
16	0xbf364e0e	-0.7121285
17	0x3f79972b	0.9749629

fc4.bias f4 [3]
0	0x3f229f4d	0.63524324
1	0xbeff84c2	-0.49905974
2	0x3e392583	0.18080716
