COIL/vae/c1_v4_vae.pt (torch, 3527 bytes, 10 tensors)

fc1.weight f4 [8, 4]
0	0x3ef16bec	0.4715265
1	0xbe549f50	-0.20763898
2	0xbee29450	-0.44253778
3	0xbeb7f5f6	-0.3592984
4	0x3f4e6146	0.8061718
5	0x3f7bd1d7	0.98367065
6	0x3f38816e	0.72072494
7	0xbf27aa4b	-0.6549422
8	0x3f3c006d	0.7343815
9	0x3e90a794	0.28252852
10	0x3f849472	1.0357802
11	0x3f0f467e	0.5596694
12	0x3f2f5da0	0.68502235
13	0xbf325efc	-0.69676185
14	0x3f3bd199	0.73366696
15	0x3d2569de	0.040384166
16	0xbe81dbb2	-0.25362927
17	0xbede7188	-0.43445992
18	0x3de0fad0	0.10985339
19	0xbe82e6b6	-0.25566643
20	0x3ef361b5	0.47535482
21	0x3f5c0ad4	0.8595402
22	0x3e15cff2	0.14630106
23	0x3fa4e48a	1.2882245
24	0xbf46e97e	-0.7770003
25	0x3f1910e7	0.59791416
26	0x3f808b89	1.0042583
27	0x3f1ef910	0.6209879
28	0xbd7c7fab	-0.06164519
29	0xbd785788	-0.06063035
30	0xbd857e5d	-0.065182425
31	0x3cdef2e5	0.02721543

fc1.bias f4 [8]
0	0xbed49330	-0.41518545
1	0x3e00674b	0.12539403
2	0xbf5d2607	-0.8638615
3	0x3f481b19	0.7816635
4	0xbeac9fa0	-0.33715534
5	0xbe89f701	-0.26946262
6	0x3efb486c	0.4907869
7	0x3bf694f4	0.007525081

fc21.weight f4 [4, 8]
0	0xbe9c11a7	-0.30482218
1	0x3d8d3ad7	0.068959884
2	0xbf7deff2	-0.9919425
3	0x3f0e9d28	0.5570855
4	0x3d869688	0.0657168
5	0xbfad5173	-1.3540481
6	0x3e8b0f5b	0.27160153
7	0xbda53e12	-0.080684796
8	0x3e4ae33e	0.19813249
9	0xbdb7c092	-0.08972277
10	0x3f840c30	1.0316219
11	0x3f052f39	0.5202518
12	0x3e35e69a	0.17763749
13	0xbf2953da	-0.6614357
14	0x3f5c7730	0.86119366
15	0xbe59d29e	-0.2127175
16	0xbe18f21b	-0.14936106
17	0x3f60cc52	0.8781177
18	0x3f19fb2b	0.60148877
19	0x3d282402	0.041049965
20	0x3e294a9a	0.16532364
21	0xbd4a210b	-0.04934792
22	0xbf615af5	-0.88029414
23	0xbdedd5aa	-0.11613019
24	0xbe51a4e8	-0.20473063
25	0x3f7047c8	0.9385953
26	0xbea5a3dc	-0.32351577
27	0xbf59336d	-0.84844095
28	0xbe88d921	-0.26728156
29	0xbe980ffb	-0.29699692
30	0x3f2f9e97	0.68601364
31	0xbe8af402	-0.27139288

fc21.bias f4 [4]
0	0x3fdd51a8	1.7290545
1	0xbfd1f052	-1.6401465
2	0xbec215cc	-0.37907255
3	0xbee1f26f	-0.44130275

fc22.weight f4 [4, 8]
0	0x3eadaeab	0.33922324
1	0xbef8e540	-0.48612404
2	0x3f62a1fd	0.88528425
3	0xbf208b7d	-0.6271284
4	0x3eae1f8b	0.3400844
5	0xbe341e75	-0.17589743
6	0xbe0a5089	-0.13507284
7	0xbeb7270f	-0.35771987
8	0xbcc1a880	-0.023639917
9	0xbe6e8f87	-0.23296939
10	0x3fb049a9	1.3772479
11	0xbf296aba	-0.66178477
12	0xbc3bace0	-0.011454791
13	0xbf6c72a2	-0.92362416
14	0x3df33971	0.118761905
15	0xbeabcc1d	-0.33554164
16	0x3ea24339	0.31691912
17	0xbe9f4ea2	-0.3111468
18	0x3f68b9fd	0.90908796
19	0xbec1653d	-0.3777255
20	0xbe9402f2	-0.28908497
21	0xbe20adc3	-0.15691285
22	0xbf168de4	-0.5881026
23	0xbeb051da	-0.34437448
24	0xbc0263a0	-0.007958323
25	0xbde1ec24	-0.110313684
26	0x3f824e6f	1.0180186
27	0xbf8e380b	-1.1110853
28	0xbe88d74c	-0.26726758
29	0xbeb03fd7	-0.34423706
30	0xbe959e40	-0.29222298
31	0x3e4d3c82	0.20042613

fc22.bias f4 [4]
0	0xbf890e93	-1.0707573
1	0xbfc4dc8f	-1.5379809
2	0xbfd383fb	-1.6524652
3	0xbfb85cd2	-1.4403327

fc3.weight f4 [8, 4]
0	0xbf239d3b	-0.6391179
1	0x3d23ca4f	0.03998786
2	0xbf163835	-0.58679515
3	0xbf032a99	-0.51236874
4	0xbee04ac4	-0.43807042
5	0xbeb17793	-0.3466154
6	0x3ddf609f	0.10907101
7	0xbd8ec855	-0.06971804
8	0xbe86e779	-0.26348475
9	0xbe1f4711	-0.15554453
10	0x3f9a6991	1.2063466
11	0xbf28e9c9	-0.6598173
12	0xbf133153	-0.5749714
13	0xbebcd17a	-0.36878568
14	0x3e263a06	0.16233072
15	0x3f9b95f4	1.2155137
16	0x3dc51614	0.09623352
17	0x3fa1f240	1.2652054
18	0x3dd97b35	0.10619203
19	0x3e7a7ced	0.24461718
20	0x3d662b8f	0.056193884
21	0x3e42810b	0.18994538
22	0x3f282855	0.6568654
23	0x3ee9b1aa	0.4564336
24	0xbdf6d57b	-0.12052437
25	0x3eb95a81	0.36201862
26	0x3da399ac	0.07988295
27	0xbef1e612	-0.47245842
28	0xbeb8ac75	-0.36069074
29	0x3eb02a5b	0.34407315
30	0xbe97af6c	-0.29626024
31	0x3ea8003e	0.32812685

fc3.bias f4 [8]
0	0x3d8b95f0	0.06815708
1	0x3f72f2ee	0.9490193
2	0x3c94df59	0.018172907
3	0x3cdb6a6b	0.026784142
4	0x3d9903b6	0.07471411
5	0x3f9356c9	1.151086
6	0x3f5accce	0.8546876
7	0x3f7f4acb	0.997235

fc4.weight f4 [4, 8]
0	0xbc7552cb	-0.014973353
1	0x3ef846c3	0.48491487
2	0x3f8684aa	1.0509236
3	0x3d21171f	0.03932869
4	0x3d309b0e	0.04311662
5	0x3ea5e2d1	0.3239961
6	0x3efeaa1d	0.4973916
7	0xbeee1bc3	-0.46505556
8	0xbcf3b3a9	-0.029748755
9	0x3ebd2c57	0.3694789
10	0xbbe3cae1	-0.0069516753
11	0x3f868777	1.051009
12	0x3db1c008	0.08679205
13	0x3e47d13a	0.19513407
14	0xbf142ce1	-0.5788098
15	0x3ea7f768	0.32805943
16	0x3d2c6aee	0.042094164
17	0xbf081b17	-0.53166336
18	0x3c7d52cf	0.015461638
19	0x3ca58448	0.020204678
20	0x3f8439e5	1.0330168
21	0x3e8a43e1	0.27004912
22	0x3ed5221b	0.41627583
23	0x3ec42ad2	0.3831392
24	0x3fa0a749	1.2551051
25	0x3e8f5ddf	0.28001305
26	0x3d836a1f	0.06416725
27	0x3cdd7468	0.027033046
28	0x3c500bef	0.012698158
29	0xbee679e4	-0.4501487
30	0x3e7d6176	0.2474421
31	0x3e9e0f54	0.3087107

fc4.bias f4 [4]
0	0xbdb546c3	-0.08851387
1	0x3e97d745	0.29656425
2	0x3e2ff5d3	0.17183618
3	0x3ee12efd	0.43981162
