COIL/vae/c1_v9_vae.pt (torch, 6535 bytes, 10 tensors)

fc1.weight f4 [18, 9]
0	0x3e9f37ef	0.3109736
1	0x3f11219b	0.566919
2	0x3f0b20e3	0.54347056
3	0xbe1782ae	-0.14795944
4	0xbf25d94c	-0.64784694
5	0x3ce1b80b	0.027553579
6	0xbea0e61e	-0.31425565
7	0x3f26f7fc	0.65222144
8	0x3e6d245e	0.23158404
9	0x3ec600e7	0.38672563
10	0x3d72c170	0.059266508
11	0xbef39452	-0.47574097
12	0xbef797c5	-0.48357978
13	0x3ea64b97	0.32479545
14	0xbd28602c	-0.04110734
15	0xbe142495	-0.1446708
16	0x3f637647	0.8885235
17	0x3ea2e317	0.3181388
18	0xbe1996a0	-0.14998865
19	0xbec970ca	-0.39343864
20	0x3f0a7db6	0.5409807
21	0x3f29dc99	0.6635223
22	0xbe373b28	-0.1789366
23	0xbf0ca699	-0.5494171
24	0x3efc1430	0.49234152
25	0x3db94784	0.09046844
26	0x3f3c28f6	0.735
27	0xbf1a4e18	-0.6027541
28	0x3f440c2b	0.76581067
29	0x3e03096e	0.12796566
30	0xbdf78105	-0.120851554
31	0x3e8f9b44	0.28048146
32	0x3f1e0571	0.6172705
33	0x3edc516a	0.43030864
34	0xbef37843	-0.4755269
35	0x3e5aac38	0.21354759
36	0xbe9b18f0	-0.30292463
37	0x3ede5eff	0.4343185
38	0x3e17573e	0.14779374
39	0x3e0539d4	0.13010341
40	0x3df87b2f	0.121328704
41	0x3e92c562	0.28666216
42	0xbed2009d	-0.41016093
43	0xbd10eca5	-0.03538193
44	0x3edfa9de	0.43684286
45	0x3dad2765	0.084547795
46	0xbf045e44	-0.5170634
47	0x3ec18580	0.37797165
48	0x3e41f2b5	0.18940242
49	0xbdf50034	-0.11962929
50	0xbbdd8fdb	-0.0067615337
51	0x3e4ffa38	0.20310295
52	0x3ea62dbd	0.3245677
53	0x3d0c5e41	0.034269575
54	0x3d957e84	0.072995216
55	0x3e174046	0.14770612
56	0x3f1729e2	0.59048283
57	0x3ea7a21b	0.32740864
58	0x3f265b4e	0.6498307
59	0xbc72432c	-0.014786523
60	0x3ec79b40	0.38985634
61	0x3ee7b6ea	0.4525674
62	0xbf67a303	-0.9048311
63	0xbe3d73b6	-0.18501171
64	0xbccf2140	-0.02528441
65	0x3d8e5b44	0.06951001
66	0xbc718e00	-0.014743328
67	0xbce6fb30	-0.028195947
68	0xbe70986b	-0.23495643
69	0xbe9655d7	-0.29362366
70	0xbcf6b980	-0.03011775
71	0x3dbc1210	0.09183133
72	0x3e16d1a4	0.14728409
73	0x3e8cbd4b	0.2748817
74	0xbe98857f	-0.2978935
75	0xbe901c92	-0.28146797
76	0xbdfd7f11	-0.123777516
77	0x3ddf9c20	0.1091845
78	0x3c175a27	0.009237803
79	0xbc346e68	-0.011012651
80	0xbe8de4e8	-0.27713704
81	0x3ec4daa1	0.3844805
82	0x3ca734a9	0.020410853
83	0x3e3d1b37	0.18467413
84	0xbeda8152	-0.4267679
85	0xbee8554d	-0.4537758
86	0x3e8a1126	0.26966208
87	0x3e90fee1	0.28319457
88	0x3e2382d2	0.15967873
89	0x3d993630	0.074810386
90	0x3e515c9b	0.20445482
91	0x3eb3e5ab	0.3513616
92	0x3f107338	0.5642581
93	0xbe565b8a	-0.20933357
94	0xbddc1f85	-0.107481994
95	0x3f0351f4	0.51296926
96	0xbe49a5a1	-0.19692089
97	0xbec736f3	-0.3890911
98	0x3f1d3560	0.6140957
99	0xbde95720	-0.11393571
100	0xbd5b81b8	-0.053590506
101	0xbdbc3006	-0.09188847
102	0x3da9ee1c	0.08297369
103	0xbe13fad0	-0.14451146
104	0xbe315058	-0.17315805
105	0x3e362dea	0.17790952
106	0x3b4a4380	0.0030862987
107	0x3d7df1c8	0.06199816
108	0xbe58c7e3	-0.2117
109	0xbe2ba3ce	-0.16761705
110	0xbc9beab0	-0.019032806
111	0xbe125726	-0.14291057
112	0x3bc1a540	0.005909592
113	0xbe0f700e	-0.14007589
114	0xbe8a9fce	-0.27075046
115	0xbd9b68d4	-0.07588354
116	0xbea974ce	-0.33096927
117	0x3f6d3003	0.92651385
118	0x3f01341a	0.50470126
119	0xbf30c263	-0.6904661
120	0x3f12b4c3	0.5730707
121	0xbe0e146b	-0.13874976
122	0xbe086e30	-0.13323283
123	0x3e847375	0.25869337
124	0xbe273e31	-0.16332318
125	0x3e1b9a39	0.1519555
126	0x3e9a9a6b	0.30195937
127	0xbe53face	-0.20701143
128	0x3d28491b	0.041085344
129	0xbf3a91fd	-0.7287901
130	0x3e5cb4f4	0.21553403
131	0x3e72f8f4	0.2372778
132	0x3f4bccac	0.7960918
133	0xbcae226c	-0.021256648
134	0x3ede04db	0.4336308
135	0x3e977dd4	0.29588187
136	0x3e41b767	0.18917619
137	0x3e44cd68	0.19218981
138	0xbea9fdfa	-0.3320158
139	0xbdc19023	-0.0945132
140	0x3e7fabbb	0.24967854
141	0x3ea12e4f	0.31480643
142	0xbe739568	-0.23787463
143	0xbdabbfc4	-0.08386186
144	0xbe52c3b0	-0.20582461
145	0x3f40c439	0.7529941
146	0xbe0c0227	-0.13672696
147	0xbe97a042	-0.29614455
148	0x3f06248c	0.52399516
149	0xbf317200	-0.69314575
150	0x3e932f7d	0.28747168
151	0x3ecade6f	0.39622828
152	0x3f029104	0.51002526
153	0x3e110bcc	0.14164656
154	0xbecd452f	-0.40091845
155	0xbee8b12c	-0.4544767
156	0x3e374b73	0.17899875
157	0x3f3fefa2	0.74975026
158	0x3f49a3f1	0.7876578
159	0xbf12dbf0	-0.5736685
160	0x3eafe885	0.34357086
161	0x3f2fd551	0.6868487

fc1.bias f4 [18]
0	0x3d63aa7b	0.055582505
1	0x3db047c3	0.086074375
2	0x3eb1c74a	0.34722358
3	0x3e22a6d6	0.15883955
4	0x3d9103d2	0.07080807
5	0x3e0ffe54	0.14061862
6	0x3eb8e7f0	0.36114454
7	0xbe944bfc	-0.2896422
8	0xbe3af63f	-0.18257998
9	0x3db20906	0.08693127
10	0xbe34d49a	-0.17659226
11	0xbe42316b	-0.18964164
12	0xbe1cea1e	-0.15323684
13	0x3e82b1da	0.25526315
14	0xbdd14992	-0.102191105
15	0x3dd9ef9e	0.106414065
16	0x3e326c96	0.17424235
17	0x3ddd663a	0.10810514

fc21.weight f4 [9, 18]
0	0x3f39fe2e	0.7265347
1	0xbeebd2f1	-0.46059373
2	0x3f082842	0.5318643
3	0x3ebdc0f3	0.3706127
4	0x3e14525e	0.14484546
5	0x3e03cc91	0.12871005
6	0xbe3e6ba5	-0.1859575
7	0xbd36acc0	-0.04459834
8	0xbd55db3c	-0.05221103
9	0x3e52fecc	0.2060501
10	0x3ef60c48	0.48056245
11	0x3e4a35cb	0.19747083
12	0x3e3f6f55	0.18694814
13	0xbf6c8bd3	-0.92400855
14	0x3ce14806	0.027500164
15	0x3e0a2951	0.13492323
16	0xbe16e6ce	-0.14736483
17	0xbf0bdc6c	-0.5463321
18	0x3f8178c6	1.0114982
19	0x3eb4754f	0.3524575
20	0x3c1d9d3b	0.009620006
21	0xbe5da11c	-0.2164349
22	0x3eb4f6b4	0.3534447
23	0x3e01b04c	0.12664908
24	0xbed80cc9	-0.42197254
25	0x3d8f8cc6	0.07009272
26	0x3db16bd7	0.08663147
27	0xbea291b6	-0.31751794
28	0x3e8aab92	0.27084023
29	0xbd26a07c	-0.040680394
30	0x3def7c6e	0.11693655
31	0x3d292afe	0.041300766
32	0xbf9aa99c	-1.2083011
33	0xbe3d2e15	-0.1847461
34	0xbf14e4cc	-0.58161616
35	0x3f2b617f	0.6694564
36	0x3ca601be	0.020264503
37	0x3ea908dc	0.33014572
38	0xbf58fc5b	-0.84760064
39	0x3e8edd5d	0.27903262
40	0x3dc3248e	0.09528457
41	0xbcb06ab8	-0.021535262
42	0xbf0201b8	-0.5078387
43	0xbd179ca0	-0.037014604
44	0x3dfd8272	0.12378396
45	0x3ef7b881	0.48382953
46	0x3ec6b1b6	0.38807458
47	0x3e23bb39	0.15989389
48	0xbe341f95	-0.17590173
49	0xbe4ae2a8	-0.19813025
50	0x3f684997	0.9073729
51	0x3e015d20	0.1263318
52	0xbeb3c7e5	-0.35113445
53	0x3eac2528	0.33622098
54	0xbf9a37c5	-1.204827
55	0xbe98bee1	-0.2983313
56	0x3f87a1e2	1.0596278
57	0x3e9ebb03	0.31002054
58	0x3e6f00c5	0.23340137
59	0xbdb46f43	-0.08810284
60	0xbeb12858	-0.34601092
61	0xbd2370d0	-0.03990251
62	0x3d28645f	0.041111346
63	0xbe9fe031	-0.31225732
64	0x3e90bdee	0.28269905
65	0xbd3ebf14	-0.046568945
66	0x3e465f11	0.19372202
67	0xbd821b02	-0.063528076
68	0x3e49a764	0.1969276
69	0xbdaad27c	-0.08340928
70	0xbf109ba5	-0.56487495
71	0x3f0d5bab	0.55218
72	0x3d88c04e	0.06677304
73	0x3e0c77cd	0.13717575
74	0x3e018d33	0.1265152
75	0x3cc3c8bb	0.023899427
76	0xbd0f52b2	-0.034990974
77	0xbe63a01d	-0.22229047
78	0x3b646d5b	0.003485522
79	0x3dc32d1e	0.0953009
80	0x3b8a21f4	0.0042154733
81	0xbe2b3587	-0.16719638
82	0xbd6aa2b3	-0.05728407
83	0x3e5d43a7	0.21607839
84	0xbe2d43a5	-0.16920336
85	0xbd2537a8	-0.04033628
86	0x3d2e79ba	0.042596556
87	0x3dc4f29c	0.096165866
88	0xbe1fa81c	-0.15591472
89	0xbce7e4b3	-0.028307294
90	0xbddb478c	-0.10707006
91	0x3f04c257	0.5185904
92	0x3dcceb9a	0.10005875
93	0x3e6f7ffb	0.23388664
94	0x3e7d3744	0.24728113
95	0xbe301ff6	-0.17199692
96	0x3e04a21e	0.12952468
97	0xbd3d551c	-0.046223745
98	0x3dde4559	0.10853071
99	0xbec61375	-0.3868672
100	0xbe52def1	-0.20592858
101	0xbe455483	-0.1927052
102	0xbda7073c	-0.08155677
103	0xbfa20128	-1.2656603
104	0xbe303b32	-0.17210081
105	0xbe59f7cf	-0.21285938
106	0x3f8d27db	1.1027788
107	0x3ed30d04	0.41220868
108	0x3e8992c3	0.26869783
109	0x3f276818	0.6539321
110	0x3ef081b0	0.46973944
111	0xbf1757c6	-0.59118307
112	0xbee5c677	-0.4487798
113	0x3ebb2a65	0.36555782
114	0x3ee22c45	0.441744
115	0xbd2ed5cc	-0.04268436
116	0xbe42e1e0	-0.19031477
117	0x3e8ae38d	0.27126732
118	0xbeecf5d9	-0.46281317
119	0x3e503ac3	0.20334916
120	0xbdbe127e	-0.09280871
121	0xbf46c191	-0.7763911
122	0x3ef35bae	0.47530884
123	0x3dfeb49f	0.124367945
124	0xbf5f1d36	-0.8715395
125	0x3eaca2d1	0.3371797
126	0xbec75090	-0.38928652
127	0xbe83aae5	-0.2571632
128	0xbf3d1434	-0.7385895
129	0x3f0fc314	0.5615704
130	0x3dd8e8a2	0.10591246
131	0xbd05261a	-0.03250704
132	0x3f7a497b	0.9776837
133	0xbcda1580	-0.02662158
134	0x3df7aa86	0.12093072
135	0xbe3e7ecb	-0.18603055
136	0x3e4d7feb	0.20068328
137	0xbe3ab168	-0.18231738
138	0x3d1c57ac	0.038169548
139	0xbed5a8c1	-0.41730312
140	0xbf17ea84	-0.5934222
141	0x3e321517	0.17390858
142	0xbf1b9e8a	-0.60788786
143	0x3e946225	0.28981128
144	0xbde6e73d	-0.11274574
145	0x3e034800	0.12820435
146	0x3e3a6126	0.18201122
147	0xbd974c48	-0.07387596
148	0x3e71dc49	0.23619188
149	0xbea78435	-0.32718053
150	0x3da18f71	0.078886874
151	0xbdadd466	-0.084877774
152	0xbe346b72	-0.17619112
153	0x3e3bcae2	0.18339112
154	0xbd8fbf19	-0.07018871
155	0xbd5a44ac	-0.053288147
156	0x3d38fa6c	0.045160696
157	0xbd142913	-0.036171984
158	0xbc7e91d9	-0.0155377025
159	0x3daf816d	0.08569608
160	0xbe042af0	-0.12907004
161	0xbd488176	-0.04895159

fc21.bias f4 [9]
0	0x3d85de1a	0.06536503
1	0x3cba0d67	0.022711469
2	0x3e507287	0.20356189
3	0xbcea1562	-0.02857465
4	0x3da9e256	0.08295123
5	0xbec7705f	-0.3895292
6	0xbd3c3646	-0.045950197
7	0x3ebd5549	0.3697913
8	0xbd617bb8	-0.055049628

fc22.weight f4 [9, 18]
0	0xbaf3a0d0	-0.0018587355
1	0xbe358217	-0.17725407
2	0xbe6ad3fb	-0.22932427
3	0xbd5a65f5	-0.05331989
4	0xbea45ea8	-0.32103467
5	0x3cdfbf4a	0.027312893
6	0xbe5d4866	-0.21609649
7	0x3dcb99ba	0.099414304
8	0xbc9cd80e	-0.019145992
9	0xbc21a3c7	-0.009865708
10	0xbe13f7e8	-0.14450037
11	0x3e5b922f	0.21442483
12	0xbdeb6696	-0.11494176
13	0xbf3228d3	-0.6959354
14	0x3c492fb5	0.012279441
15	0xbe489e6f	-0.19591688
16	0xbd946f0d	-0.07247744
17	0xbe88863c	-0.26664913
18	0xbf015538	-0.5052066
19	0xbe2e18a2	-0.17001584
20	0xbdae96b9	-0.08524842
21	0xbe4888b6	-0.19583401
22	0xbebd80f8	-0.37012458
23	0xbdf0c7cf	-0.117568605
24	0xbe43778e	-0.19088575
25	0xbe26883c	-0.16262907
26	0x3dbbed20	0.091760874
27	0xbdaa3e9a	-0.083127216
28	0xbdbdb22e	-0.09262501
29	0x3e0594bd	0.1304502
30	0x3e011beb	0.12608306
31	0xbde590fe	-0.11209296
32	0x3f0cb0d4	0.5495732
33	0xbe646e96	-0.2230781
34	0x3d49f043	0.049301397
35	0xbee00969	-0.4375718
36	0xbea2129e	-0.3165483
37	0xbe674e44	-0.2258845
38	0xbe48e88a	-0.19619957
39	0xbe4c2c42	-0.19938758
40	0xbdba8810	-0.09107983
41	0xbdbaacbc	-0.09114978
42	0xbea5827e	-0.3232612
43	0xbdf93182	-0.12167646
44	0x3e2d4779	0.16921796
45	0xbe33cdee	-0.17559025
46	0x3e16d866	0.14730987
47	0xbd629ca8	-0.05532518
48	0xbe40d7c6	-0.18832311
49	0xbd626b74	-0.055278257
50	0xbe8218df	-0.254096
51	0xbe31161b	-0.17293589
52	0xbecb012c	-0.39649332
53	0x3dad8d29	0.0847419
54	0x3db6412b	0.088991486
55	0x3dd227a5	0.10261468
56	0xbea3f6dc	-0.32024276
57	0xbe68d261	-0.22736503
58	0xbe1256b8	-0.14290893
59	0x3d6e17df	0.058128234
60	0xbedb92e2	-0.428855
61	0x3e41d70f	0.18929695
62	0xbe0469cd	-0.12930985
63	0xbe812504	-0.25223553
64	0xbe0f5085	-0.1399556
65	0xbe47815c	-0.1948294
66	0xbdfac0e4	-0.12243822
67	0xbe4ecbda	-0.2019495
68	0xbe044d3f	-0.12920092
69	0xbe672012	-0.22570828
70	0x3de555c2	0.11197998
71	0xbe6458e3	-0.22299533
72	0x3ca3a42f	0.01997575
73	0x3d90cc9a	0.07070275
74	0xbd5849a6	-0.05280461
75	0x3d88872a	0.066664055
76	0xbdf04660	-0.11732173
77	0x3dfdb88a	0.12388714
78	0xbd1966f4	-0.0374517
79	0xbe25fb21	-0.1620908
80	0xbe6f2d2b	-0.23357074
81	0xbe122f60	-0.14275885
82	0x3db88166	0.09009056
83	0xbdf1495b	-0.117815696
84	0xbcee4190	-0.029083997
85	0x3c788775	0.015169014
86	0x3a948a67	0.0011332751
87	0xbdaf27ec	-0.08552536
88	0xbcbbf59a	-0.02294426
89	0xbd5806b8	-0.052740782
90	0xbe25e3fa	-0.16200247
91	0x3e96468a	0.29350692
92	0xbeb2583b	-0.3483294
93	0xbe8b7697	-0.27238914
94	0xbe049016	-0.1294559
95	0xbc8b8f2a	-0.01703604
96	0xbe9aa3df	-0.3020315
97	0xbe083592	-0.13301685
98	0x3d3fc194	0.04681547
99	0xbe8475b7	-0.2587106
100	0xbe77e38a	-0.24207893
101	0xbd813e6c	-0.06310734
102	0xbe2e5da4	-0.17027909
103	0xbe2714d7	-0.16316544
104	0x3e464765	0.19363172
105	0xbe7353f8	-0.237625
106	0xbe2f891a	-0.17142144
107	0xbe7f7c4b	-0.24949758
108	0x3ec0ec67	0.3768036
109	0x3d6b21fc	0.057405457
110	0xbf07870b	-0.52940434
111	0xbc2c2a89	-0.010508188
112	0xbe69c667	-0.2282959
113	0xbe7cea65	-0.2469879
114	0xbea63592	-0.32462746
115	0x3c2fbec0	0.010726631
116	0xbe662267	-0.22474061
117	0xbe6f2297	-0.23353039
118	0xbdadf264	-0.08493498
119	0xbca24268	-0.019807056
120	0xbe107f98	-0.14111173
121	0xbe682b59	-0.22672786
122	0xbe8b5df0	-0.27220106
123	0xbe440bcd	-0.19145127
124	0x3ee25009	0.44201687
125	0xbecfb98c	-0.4057125
126	0xbe249716	-0.1607326
127	0x3c72e580	0.014825225
128	0xbe263680	-0.16231728
129	0xbe5e3d9f	-0.21703194
130	0xbc707d72	-0.014678346
131	0xbe3d319d	-0.18475957
132	0xbf11d640	-0.56967545
133	0xbddfc7d2	-0.109267846
134	0x3e0dc349	0.13844027
135	0xbe546ae3	-0.20743899
136	0x3dbc767b	0.09202286
137	0x3de401d6	0.11133163
138	0xbdb4bdaa	-0.08825238
139	0xbe9f2b70	-0.31087828
140	0x3e876c9c	0.2645005
141	0xbe92939e	-0.28628248
142	0xbe151c2e	-0.14561531
143	0xbdddf063	-0.10836866
144	0x3d386be9	0.045024786
145	0xbe09d6cf	-0.13460849
146	0x3bb93417	0.0056519615
147	0xbd8ea953	-0.0696589
148	0x3cc72f98	0.024314687
149	0xbdbf2e19	-0.09334964
150	0xbc580186	-0.013183957
151	0x3e70cf3f	0.23516558
152	0xbe1e9268	-0.15485537
153	0x3d2c8632	0.042120166
154	0xbddd6957	-0.108111076
155	0xbe04fd26	-0.12987193
156	0xbd6c6cfc	-0.057721123
157	0xbcf02deb	-0.02931877
158	0x3cb2402a	0.021759111
159	0x3dd9d0ae	0.106355056
160	0x3d4744e7	0.048649695
161	0x3da27724	0.079328805

fc22.bias f4 [9]
0	0xbab9ba12	-0.0014169833
1	0xbe84822a	-0.25880557
2	0xbd934b0b	-0.07192048
3	0xbe8bd663	-0.27312002
4	0x3dbaff93	0.09130778
5	0xbe96b2e3	-0.29433355
6	0xbe0a9760	-0.13534307
7	0xbcacb221	-0.021081032
8	0x3db8fa25	0.09032086

fc3.weight f4 [18, 9]
0	0xbe60a17b	-0.219366
1	0x3e6b4c03	0.22978215
2	0xbee64fc3	-0.44982728
3	0x3e1348d7	0.14383255
4	0xbb4a5ed2	-0.0030879271
5	0xbede8083	-0.43457422
6	0xbd9df6a9	-0.07713062
7	0x3d87a8ad	0.06623969
8	0x3be4d661	0.006983564
9	0xbe018fde	-0.12652537
10	0xbd492326	-0.049105786
11	0x3b9b40d2	0.004737952
12	0x3e7f1aa8	0.24912512
13	0x3b84c3b3	0.0040516495
14	0xbd963662	-0.073345914
15	0x3f162399	0.5864807
16	0xbaef4ba3	-0.0018256794
17	0xbb3b114a	-0.002854424
18	0xbe072b95	-0.13200219
19	0x3e9f25b0	0.3108344
20	0xbe28e8ae	-0.1649501
21	0xbefc7f76	-0.49315995
22	0x3bca0dd9	0.0061662016
23	0x3f01aa1c	0.5065019
24	0x3ed96726	0.4246151
25	0xbe58f82a	-0.21188417
26	0x3aeb4531	0.0017949698
27	0xbf21471c	-0.6299913
28	0x3ca8f56b	0.020624837
29	0x3e862905	0.2620317
30	0xbed01ade	-0.40645498
31	0x399b6f15	0.00029646666
32	0xbf650e9a	-0.89475405
33	0x3e68575b	0.22689573
34	0xbe91b455	-0.28457895
35	0x3bcab9b5	0.006186689
36	0x3e216d37	0.15764318
37	0x3db0caae	0.08632408
38	0x3e12ea9a	0.14347306
39	0x3eac53e6	0.3365776
40	0x3a338be2	0.0006849152
41	0x3d76326e	0.060106687
42	0x3c8dd7f1	0.017314883
43	0xbd86b19a	-0.065768436
44	0x3c0c322a	0.008556882
45	0xbed2c16d	-0.41163197
46	0xbe4e1c82	-0.20128062
47	0xbd17975a	-0.037009574
48	0x3e4aab46	0.19791898
49	0x39bf3e87	0.00036476945
50	0x3f05060d	0.5196236
51	0xbd82f48c	-0.063943
52	0x3e8c8187	0.27442572
53	0x3a573270	0.0008209115
54	0x3eef189a	0.46698457
55	0xbe2eccc5	-0.17070301
56	0x3eb02407	0.34402487
57	0xbe6cb227	-0.23114835
58	0xbbaba91b	-0.005238665
59	0x3c61e1f3	0.013786781
60	0x3e8a2c74	0.2698704
61	0x3edbc04a	0.42920142
62	0x3b757bab	0.0037457745
63	0x3dbea54b	0.09308871
64	0x3d06c787	0.032905128
65	0xbb757aaa	-0.0037457147
66	0xbf0d49e7	-0.5519089
67	0x3bda98d5	0.006671051
68	0x3df78680	0.12086201
69	0xbf41134e	-0.7542008
70	0x3d6c02f3	0.05762
71	0x3b0a4da6	0.002110341
72	0xbbbe6b92	-0.005811163
73	0x3eb94152	0.36182648
74	0x3f3c5996	0.735742
75	0x3e9437b4	0.28948748
76	0xbb896713	-0.0041931956
77	0xbe944bad	-0.28963986
78	0x3b0825b8	0.0020774435
79	0x3f1642d0	0.586957
80	0x3b8e0ca8	0.004335005
81	0x3f46c3ed	0.7764271
82	0x3cc83e9f	0.024443923
83	0xbe6d23df	-0.23158215
84	0xbd01052a	-0.031499065
85	0xbb34e8cd	-0.002760458
86	0x3d4c7b57	0.049922314
87	0x3e1de197	0.15418087
88	0x3dcb7a88	0.0993548
89	0x3a828261	0.0009957069
90	0xbe448701	-0.19192125
91	0x3e8aa9a9	0.27082565
92	0xbf004410	-0.50103855
93	0x3eaba45c	0.33523834
94	0xbb3eac72	-0.0029094485
95	0xbe3625ef	-0.17787908
96	0xbde4eb75	-0.11177722
97	0x3d4b31f1	0.049608175
98	0x3b648092	0.0034866673
99	0xbf13642d	-0.5757473
100	0xbe816d9e	-0.25278944
101	0x3d4c4827	0.049873497
102	0x3e8a07f4	0.26959193
103	0x3b3a6be6	0.002844566
104	0x3f249420	0.6428852
105	0xbdcf97fd	-0.10136411
106	0x3e967bbe	0.29391283
107	0xbb460d12	-0.0030220193
108	0x3e5c7849	0.2153026
109	0x3e834689	0.25639752
110	0x3ea007d6	0.31255978
111	0x3ef51b42	0.4787236
112	0xba43d733	-0.0007470727
113	0x3e9b8eca	0.30382377
114	0xbe271ca8	-0.16319525
115	0xbf269f6b	-0.65087
116	0x3b94621a	0.004528296
117	0x3df35222	0.118809
118	0xbf8957ed	-1.0729958
119	0xbe20a6a3	-0.15688567
120	0x3e2f95bb	0.17146961
121	0xbc596964	-0.013269756
122	0xbe963a41	-0.2934132
123	0xbcbfa6c2	-0.023394946
124	0xbea6d8c1	-0.32587245
125	0x3ba642fa	0.005073902
126	0xbe2659ff	-0.16245268
127	0x3dbeabff	0.093101494
128	0x3e0ad002	0.13555911
129	0xbe2cffc1	-0.16894437
130	0x3b7c4dcb	0.0038498517
131	0xbec8a1a2	-0.39185816
132	0x3d0061ba	0.0313432
133	0xbe863a7e	-0.262165
134	0x3a555d6f	0.0008139228
135	0xbd4d86dc	-0.05017744
136	0x3e42c40f	0.19020103
137	0xbe075cdb	-0.13219015
138	0x3ee5880e	0.44830364
139	0x3a99c7c4	0.0011732508
140	0x3e250001	0.16113283
141	0xbe49874e	-0.19680521
142	0xbef2c34b	-0.47414622
143	0x39fefef5	0.00048636613
144	0x3e39e0ca	0.18152156
145	0xbbb951b1	-0.0056554903
146	0xbe3be55f	-0.18349217
147	0xbdc7ff76	-0.09765522
148	0x3b0b2527	0.0021231861
149	0xbe174f0b	-0.14776246
150	0x3d683852	0.056694336
151	0x3ecd21e3	0.40064916
152	0x3b28d546	0.0025761886
153	0xbe4a13ce	-0.19734117
154	0xbe18ebf9	-0.14933766
155	0x3e27b916	0.16379198
156	0xbe0ea0ce	-0.1392853
157	0x3ba32fa4	0.0049800444
158	0x3e083db1	0.13304783
159	0xbd0baf13	-0.03410251
160	0xbe0db189	-0.13837256
161	0x3bc2fc9a	0.0059505226

fc3.bias f4 [18]
0	0xbd469979	-0.048486207
1	0x3f3b1ab0	0.73087597
2	0x3f25ca44	0.6476176
3	0x3ebc0b6b	0.3672746
4	0x3f9a0057	1.2031354
5	0x3f1f21ad	0.6216076
6	0x3eddfc6b	0.43356642
7	0x3f00074e	0.50011146
8	0x3f291010	0.66040134
9	0x3edbb9db	0.42915234
10	0x3edca477	0.43094227
11	0xbd73b42e	-0.059498005
12	0x3ee8bce8	0.45456624
13	0x3f627e32	0.8847381
14	0x3f195803	0.5989992
15	0xbde06090	-0.10955918
16	0x3f65d0ba	0.89771616
17	0x3fa3f204	1.2808232

fc4.weight f4 [9, 18]
0	0x3ec40249	0.38282993
1	0x3db9d308	0.09073454
2	0x3e42146e	0.18953106
3	0x3ea7a8bd	0.32745925
4	0x3e620fcb	0.22076337
5	0x3dcfa441	0.10138751
6	0x3bc38493	0.005966732
7	0x3d30e8dc	0.043190822
8	0x3df09baa	0.117484406
9	0xbef6fee1	-0.48241332
10	0x3cf3077d	0.029666657
11	0xbf0ecaeb	-0.5577838
12	0xbe0053f6	-0.12532029
13	0x3e0e0a9b	0.13871233
14	0x3f56af2a	0.8386103
15	0x3cc98983	0.024601704
16	0x3e2c88d2	0.16849068
17	0x3e58e0c9	0.21179499
18	0xbd76bdba	-0.06023953
19	0xbf09b5b8	-0.53792906
20	0xbc0599e2	-0.008154364
21	0xbd314454	-0.043278053
22	0x3d270fd7	0.04078659
23	0x3d1d3b04	0.03838636
24	0xbd55b1bc	-0.052171454
25	0x3f8eb1b3	1.114798
26	0xbc09282b	-0.008371393
27	0x3d19e7ef	0.037574705
28	0x3cf413cc	0.029794596
29	0xbc8f5644	-0.01749719
30	0x3c26a965	0.010172223
31	0xbcf42fd5	-0.029807964
32	0x3e63f062	0.22259668
33	0x3ca70f65	0.020393083
34	0x3ec4ef92	0.38464028
35	0x3eee42d4	0.4653536
36	0xbdf30d2c	-0.11867747
37	0x3e2e8386	0.1704236
38	0x3e05db26	0.1307188
39	0xbe9c2a6f	-0.30501124
40	0x3c4297be	0.0118769985
41	0x3d1d1a57	0.038355198
42	0x3e7d41e6	0.2473217
43	0x3dc08ced	0.094018795
44	0x3d966efb	0.073453866
45	0x3f843499	1.0328552
46	0x3df46cdc	0.11934826
47	0xbec82807	-0.39093038
48	0x3de575a0	0.11204076
49	0x3e03e7ac	0.12881345
50	0x3dbbf3fb	0.09177395
51	0xbe46bab5	-0.1940716
52	0x3ea554b2	0.3229118
53	0x3d061e01	0.032743458
54	0x3f194176	0.5986551
55	0x3d5d5877	0.054039445
56	0xbd928b07	-0.071554236
57	0x3c212a13	0.009836691
58	0x3e1cf6f0	0.15328574
59	0x3c62e3c1	0.013848246
60	0xbef5f53f	-0.4803867
61	0xbd593ab6	-0.053034507
62	0xbd4b7b38	-0.049678057
63	0x3db78538	0.08960956
64	0x3fa31767	1.2741517
65	0x3d834cb5	0.06411115
66	0x3b040de1	0.0020149874
67	0xbd9054c7	-0.0704742
68	0x3da766c5	0.081738986
69	0x3d32aa0f	0.04361921
70	0x3f27d38e	0.6555718
71	0xbdb35f80	-0.087584496
72	0x3d932f67	0.07186776
73	0x3e472b40	0.19450092
74	0x3ded7f61	0.11596561
75	0xbea58942	-0.32331282
76	0xbe2b60a0	-0.16736078
77	0x3f80725a	1.0034897
78	0xbce3b6df	-0.02779716
79	0x3c467b78	0.012114398
80	0x3e15ce29	0.14629425
81	0xbec2cdd1	-0.3804765
82	0x3d2dc0dc	0.042420253
83	0xbd668931	-0.05628318
84	0xbb512b29	-0.0031916595
85	0x3db4a832	0.08821143
86	0xbe201e48	-0.15636551
87	0x3d24af90	0.040206492
88	0x3e595328	0.21223128
89	0x3ec95a0e	0.3932652
90	0xbdf6f7a7	-0.12058955
91	0x3e0b7aae	0.13621017
92	0xbeb25a74	-0.34834635
93	0x3df556c1	0.119794376
94	0x3e73921e	0.23786208
95	0x3d127153	0.035752606
96	0x3e7db4fd	0.24776073
97	0xbc3f43c5	-0.011673872
98	0x3f44a791	0.76818186
99	0x3a050c22	0.00050753553
100	0xbdc049f8	-0.093891084
101	0x3e2c814a	0.16846195
102	0x3dcd5f9e	0.10028003
103	0xbe853045	-0.2601339
104	0x3db2ba48	0.087269366
105	0xbe5bad5d	-0.21452852
106	0x3e5e64cc	0.21718138
107	0x3e0709a6	0.13187274
108	0xbe056607	-0.13027202
109	0x3e6c8772	0.23098543
110	0xbed934bc	-0.42423046
111	0x3e08e413	0.13368253
112	0x3e04c1a1	0.12964489
113	0xbd771f13	-0.06033237
114	0x3d503f24	0.050841466
115	0xbd37a76d	-0.044837404
116	0xbeb5e9fc	-0.35530078
117	0x3e0e3685	0.13887985
118	0xbd72cbbd	-0.05927633
119	0x3e66256b	0.22475211
120	0x3c83185c	0.016002826
121	0x3f2d04ce	0.67585456
122	0x3d067982	0.032830723
123	0xbdadba33	-0.0848278
124	0x3e72411e	0.23657653
125	0x3f0aeaa9	0.54264313
126	0xbe7e2ee5	-0.24822576
127	0x3ea64da7	0.3248112
128	0x3f5a040c	0.85162425
129	0x3dcfefe6	0.10153179
130	0xbe1be2b7	-0.15223204
131	0x3d49803d	0.049194563
132	0x3da9d45f	0.0829246
133	0x3d3ca269	0.046053324
134	0xbea4e642	-0.32206923
135	0x3e1b2a96	0.15152964
136	0xbb8d06ac	-0.004303774
137	0x3e22f4c3	0.15913682
138	0x3d9c4497	0.0763027
139	0xbea02d86	-0.31284732
140	0x3e3222bc	0.17396063
141	0xbda6cea7	-0.081448846
142	0x3dc4d703	0.09611323
143	0x3e805a9a	0.25069124
144	0xbd3e5d82	-0.046475895
145	0xbd9f82fc	-0.07788655
146	0x3d578eb7	0.052626338
147	0xbe299c9b	-0.16563646
148	0x3f1cc039	0.6123081
149	0xbcf80504	-0.03027583
150	0xbdb3234c	-0.08746967
151	0xbc67d5e6	-0.014150118
152	0xbc9afbee	-0.018918958
153	0x3d683655	0.05669244
154	0x3d143f05	0.036192913
155	0xbcc68bbc	-0.024236552
156	0x3f86b20a	1.0523083
157	0x3c95389f	0.018215476
158	0x3ec0833b	0.3760012
159	0x3f2b579d	0.6693056
160	0xbe9a1fdd	-0.30102435
161	0x3dee5416	0.11637132

fc4.bias f4 [9]
0	0x3be26c70	0.0069098994
1	0x3e822e34	0.25425875
2	0x3deb1d68	0.11480218
3	0x3ef4c032	0.47802883
4	0x3ed55b46	0.416712
5	0x3ed98d11	0.42490438
6	0x3e407ca6	0.1879755
7	0x3f28329e	0.65702236
8	0x3e48fb42	0.19627097
