COIL/vae/c2_v2_vae.pt (torch, 3207 bytes, 10 tensors)

fc1.weight f4 [4, 2]
0.64898026 -0.049897943 -0.8868194 -0.7105712 -0.14597003 -0.73517436 0.44933158 0.7132502
00000000: 9223 263f c961 4cbd 9906 63bf ffe7 35bf
00000010: 2b79 15be 6334 3cbf ca0e e63e 9197 363f

fc1.bias f4 [4]
-0.60169196 -1.0319675 1.1457387 1.166633
00000000: 7c08 1abf 8317 84bf 91a7 923f 3b54 953f

fc21.weight f4 [2, 4]
-0.143499 -0.73530304 -0.9982331 0.6448451 0.0078077246 -0.038189854 -0.1760911 -0.13992678
00000000: 67f1 12be d23c 3cbf 348c 7fbf 9214 253f
00000010: f1d7 ff3b f76c 1cbd 3a51 34be f748 0fbe

fc21.bias f4 [2]
0.42219257 0.36651862
00000000: a029 d83e 54a8 bb3e

fc22.weight f4 [2, 4]
-0.27871403 4.1577663 -1.5169884 -1.0784863 0.40522495 0.001144021 0.26898822 0.20423786
00000000: 9bb3 8ebe 6c0c 8540 ad2c c2bf d70b 8abf
00000010: a579 cf3e faf2 953a d3b8 893e bb23 513e

fc22.bias f4 [2]
-1.4462271 -0.54352915
00000000: f81d b9bf ba24 0bbf

fc3.weight f4 [4, 2]
0.9205781 -0.0046744947 -0.17083694 0.08597998 0.8655173 0.0006905831 -0.697815 0.00020027214
00000000: 02ab 6b3f 812c 99bb e1ef 2ebe 4616 b03d
00000010: 8b92 5d3f 3f08 353a 01a4 32bf 2500 5239

fc3.bias f4 [4]
-0.89287376 -0.6857225 1.656511 -0.535688
00000000: 6093 64bf 828b 2fbf 8d08 d43f d922 09bf

fc4.weight f4 [2, 4]
0.76561904 0.08577999 0.7431014 -0.4626652 0.87273574 0.05179043 0.747442 -0.390284
00000000: 9cff 433f 6bad af3d e53b 3e3f 74e2 ecbe
00000010: 9c6b 5f3f 3422 543d 5c58 3f3f 4ed3 c7be

fc4.bias f4 [2]
-1.2597554 -1.2458338
00000000: aa3f a1bf 7b77 9fbf
