COIL/vae/c2_v9_vae.pt (torch, 6535 bytes, 10 tensors)

fc1.weight f4 [18, 9]
000000 28 1a 59 3e ca 60 cc bd 5f aa 64 3e 9e e5 2f 3e
       0.21201384 -0.099793985 0.22330616 0.17177436
000010 33 c4 93 3e e6 32 47 bd 19 89 1a bd c1 e1 aa 3e
       0.28860626 -0.048632525 -0.037728403 0.33375362
000020 4f df d9 3c 05 51 ba 3e c0 92 98 bc 39 1f 6f 3d
       0.02659574 0.36389938 -0.018624663 0.058379386
000030 55 88 d9 bd 84 1d dc 3e 26 b0 5d bd 76 8d 65 3e
       -0.106217064 0.4299127 -0.054123066 0.22417244
000040 d4 c1 af 3e eb 58 51 3e 9c b4 47 3e c8 dd 94 bd
       0.34327567 0.20444076 0.19502491 -0.07268864
000050 2e cc e9 3d 14 86 08 3e 41 f2 1a be 89 03 9f 3c
       0.11415897 0.13332397 -0.15131475 0.019410865
000060 a2 51 b2 be 69 04 0c 3e 28 f1 81 3c 6b 3f c6 bd
       -0.34827906 0.13673557 0.015862063 -0.09680065
000070 f0 a8 f7 3d 93 32 c0 bd a5 b6 95 3e 93 1b 8f be
       0.12092769 -0.09384646 0.2924091 -0.27950725
000080 9a 84 eb bd b5 a0 46 be c8 cc 90 3e 18 82 34 be
       -0.11499901 -0.19397242 0.28281236 -0.17627752
000090 e2 79 bc bd 02 dd 5f be 9f 7f 0e 3e 53 f5 40 3e
       -0.09202935 -0.21861652 0.13915871 0.18843584
0000a0 de 58 df bd 80 01 49 3e c4 d5 0e 3e 55 b7 ea 3d
       -0.10905622 0.19629478 0.13948733 0.11460749
0000b0 ad 29 98 3e 90 61 9b be 6b e0 80 be 0a d8 61 3e
       0.29719296 -0.30347872 -0.25171217 0.22055069
0000c0 b8 e1 0f 3e af 7a 16 be 0c aa 68 3e 9e 75 28 3e
       0.14050949 -0.14695238 0.22721118 0.16451117
0000d0 8e 08 c7 3d 78 c6 b4 3d ac 89 be 3e fa da 95 3e
       0.097184286 0.088269174 0.3721441 0.29268628
0000e0 37 ff 64 3e 8f e7 d6 3d bb 2c 01 bd 3a c6 a8 3e
       0.22362982 0.10493385 -0.0315368 0.32963735
0000f0 c1 3e 89 3e ce 6b 6c 3e 16 50 48 be 84 a9 1f 3e
       0.2680569 0.23087999 -0.195618 0.15592009
000100 44 d6 c6 bc 21 ca e7 bd f2 78 21 3e 7b 58 7d 3e
       -0.024272092 -0.1131785 0.15768793 0.24740784
000110 f1 41 2b 3e ce b5 e7 3d 7f 93 68 be 68 2c 26 3e
       0.16724373 0.11313973 -0.22712515 0.16227877
000120 69 7c 88 be c4 ea 5d be 08 40 cd 3d ed bd 54 be
       -0.26657417 -0.21671587 0.100219786 -0.20775576
000130 f5 03 68 bd e0 59 96 be 5d 47 8a bd 9a a6 d8 3d
       -0.0566444 -0.29365444 -0.06751893 0.10578652
000140 72 19 e6 be dc 45 ed 3d c3 8e 4c 3e a8 55 5a 3e
       -0.44941288 0.1158559 0.19976334 0.21321738
000150 4b 94 22 bc 92 22 75 3d f2 7b b2 be 33 f7 07 3e
       -0.009923051 0.059847422 -0.34860188 0.13277893
000160 22 78 57 be 18 fd cc bd 25 87 c5 3d 51 7d 14 3e
       -0.21041921 -0.10009211 0.096449174 0.1450093
000170 67 b2 64 bd 5b 76 32 3e 7e 08 7b 3e 8b 90 91 3e
       -0.0558342 0.17427962 0.24514958 0.2843059
000180 c4 73 b0 3e f9 ba a8 bd b3 d2 24 3d a3 fa f9 3d
       0.34463322 -0.08238787 0.04024 0.12206008
000190 23 a1 c4 3e 8e 4b bc 3e 2c 34 74 3e 93 44 db 3d
       0.38404188 0.36776394 0.23848027 0.10706439
0001a0 5d b5 f5 3d 47 41 38 3e 0d 50 35 3d 0b e7 e9 3e
       0.11997483 0.17993651 0.044265795 0.45684084
0001b0 41 7c 03 bd 0d 56 c5 3e 66 1a 4b 3e 13 26 c6 3e
       -0.03210092 0.38542214 0.19834289 0.38700923
0001c0 ea 70 2d bb 37 1e 96 3e 7b 6d cd 3c d7 cf 77 3e
       -0.0026465007 0.29319927 0.025076618 0.24200378
0001d0 49 3d cc bd 9c 39 2b be 52 19 a7 be 1e c1 c5 bd
       -0.09972627 -0.16721195 -0.32636505 -0.09655975
0001e0 30 75 96 be 39 84 68 be 95 0d 9b be 99 c7 93 be
       -0.29386282 -0.22706689 -0.302838 -0.28863218
0001f0 fc 0c 37 be 02 90 28 bd cf 7e 80 be 9e cb 91 be
       -0.17876047 -0.04115296 -0.25096747 -0.2847566
000200 0b 3a c8 3c 5b 29 a1 be 52 8b 05 3d a9 54 90 bc
       0.02444174 -0.31476864 0.03260357 -0.017618494
000210 eb cb 2f be cd 9a c8 be 46 49 ec bc 99 62 81 3d
       -0.17167632 -0.39180604 -0.028843533 0.06317634
000220 e9 eb 49 be eb 77 ce bd 3c dd 87 be 89 d1 a1 bb
       -0.19718899 -0.10081466 -0.26535976 -0.0049383086
000230 61 eb 09 3d b1 17 c3 be 7a db 5f be d6 85 17 be
       0.03367174 -0.38104013 -0.21861067 -0.14797148
000240 e6 29 bf be b0 8d 3d 3d 60 61 e5 3d b6 7e d6 be
       -0.37336653 0.0462777 0.112002134 -0.41893548
000250 a7 f3 15 be ac 91 77 3d 0c 6e cf 3d 3c 12 33 be
       -0.14643727 0.060441658 0.10128412 -0.17487425
000260 f5 a6 03 3e 90 5b 1c 3c 7b 68 96 be b1 14 f9 be
       0.12856658 0.009543315 -0.29376587 -0.486486
000270 0b 22 93 bd 2d ba 9a be 49 88 98 be 8a 4d be bd
       -0.071842276 -0.30220166 -0.29791477 -0.09292133
000280 5b 3b 78 be fe 73 54 be
       -0.24241392 -0.20747373

fc1.bias f4 [18]
000000 c6 47 0a bf 59 da 67 3d 86 af 9e bd e9 a8 80 3e
       -0.5401577 0.056604717 -0.07748322 0.25128868
000010 29 c7 1c 3f d8 e5 15 3e 4e 7b 83 bf 34 e3 5b 3f
       0.61241394 0.1463846 -1.0272005 0.8589356
000020 fa 58 21 bf e2 e5 68 3f 6e e6 c1 be bd e4 0f be
       -0.6302639 0.90975773 -0.37871116 -0.140521
000030 8f 76 3a 3d ad 50 c0 bc e2 7d 92 3d ee 3f 56 bf
       0.045523223 -0.02347597 0.071529165 -0.836913
000040 7d 10 8e 3f 2c ab 2d be
       1.1098782 -0.16959828

fc21.weight f4 [9, 18]
000000 b9 cb 46 bc 7b e8 d8 3c 6a 12 1d be b9 2e 11 be
       -0.012133532 0.026478043 -0.15339056 -0.1417798
000010 62 0e cf 3d 27 74 00 3e 40 16 bb 3c 59 58 fc bc
       0.10110165 0.12544309 0.022837758 -0.030803846
000020 21 59 29 bc 1b 93 9d 3d 3b 24 b8 3c 91 62 46 3d
       -0.010336191 0.07694074 0.022478214 0.048433844
000030 3a c1 69 be 07 8a df 3d 2c 69 db bd 2a c7 35 bb
       -0.22827616 0.109149985 -0.10713419 -0.002773712
000040 aa aa 9c bd 15 2e 8c 3d 47 72 39 3d d2 54 ed bd
       -0.07649739 0.06844727 0.045275 -0.11588444
000050 1b ff 5a 3d c4 39 98 3c 30 fa f7 3b ec 07 3c be
       0.053465944 0.018582232 0.0075676665 -0.18362397
000060 9a 7f 40 bc 33 22 16 3e 1b 81 c7 3c b8 28 c8 bd
       -0.011749173 0.14661483 0.024353554 -0.097733915
000070 f6 b4 6f bd 57 b0 5d 3d 62 45 7c 3d ed 88 37 3b
       -0.058522187 0.05412325 0.061589606 0.0028005198
000080 34 7b 12 3a 20 90 a0 3c 6c d1 6d 3d f1 cb 65 3a
       0.00055878167 0.019599974 0.05806105 0.00087660464
000090 df 67 02 bf 8e 1a 9f be 0a 6e 69 bd 22 97 c0 3d
       -0.50939745 -0.31074947 -0.056989707 0.09403826
0000a0 ea b9 5b be ae 52 b3 3d 92 60 8a bf 4a 00 f7 bb
       -0.2145764 0.08756004 -1.0810721 -0.0075378763
0000b0 33 00 07 3f 0a ab 65 bc 5d cf 9c be 50 6d 92 be
       0.5273468 -0.01401783 -0.30626956 -0.28599024
0000c0 f5 eb 99 be b1 18 85 3e 8a 0b 7c 3e a2 24 c6 3f
       -0.30062833 0.259954 0.24613777 1.547993
0000d0 40 a2 08 3d 9e 6d ac 3e 24 bc b1 3c b7 97 b2 bd
       0.03335786 0.3367738 0.021696158 -0.087203436
0000e0 69 81 73 3c 39 9a 7a bd 63 c5 16 3d 88 45 27 3e
       0.014862397 -0.061182234 0.036809336 0.16335118
0000f0 e0 ce c6 3c 49 f8 2d 3e 6b 93 0a 3d 50 7f 31 3e
       0.024268568 0.16989245 0.033831995 0.17333722
000100 5c f2 43 bd 4e 92 77 3c d3 86 05 be 43 ae 36 3e
       -0.047838554 0.015110565 -0.13039713 0.17839913
000110 e1 b9 d0 3c c5 76 14 bd 3b 55 24 be 90 0e 1f bd
       0.025479259 -0.03624608 -0.16048138 -0.038832247
000120 4e 14 85 3c 8a 73 0a 3d 09 1b 32 be 4e 2d 41 3e
       0.016245034 0.033801593 -0.17393126 0.18864939
000130 f0 5f 30 be e4 c4 b5 bd 4a 20 83 bd 0e 1f 78 3e
       -0.17224097 -0.088754445 -0.06402643 0.24230596
000140 70 27 69 bc a2 3c 3a be 43 cd af 3c ac 7b ad bc
       -0.014230594 -0.18187192 0.021460181 -0.021177135
000150 5f a3 64 bd 0d 9b 00 bd 35 2b 4f 3d 92 e6 f7 bb
       -0.055819865 -0.031397868 0.050578315 -0.007565328
000160 69 9d 2b be 56 70 5a 3d 25 e4 11 3d 2e bd 0c be
       -0.16759266 0.05332979 0.035617966 -0.13744041
000170 53 43 96 3c e9 29 f5 bd be e6 2d bd 57 b4 7b bd
       0.01834265 -0.11970884 -0.04245638 -0.061451282
000180 ee 34 a7 bd 2a 27 d3 3d c0 37 a2 3b 39 7c de 3c
       -0.081643924 0.10310204 0.0049504936 0.027158843
000190 e1 ef f0 bb 42 90 43 bd 3a da 3a 3e 22 f3 83 bc
       -0.0073528145 -0.047744997 0.1824731 -0.016107146
0001a0 5c 35 06 3c d6 f4 3b bc ee 9e e0 3c db e2 de 3c
       0.008191433 -0.011471948 0.027419534 0.027207782
0001b0 32 d0 be 3d 63 b3 49 be 68 7d 11 ba 1a 23 21 bd
       0.09317054 -0.19697337 -0.0005549998 -0.039340116
0001c0 4c 4e a8 3d 6b 99 f4 bd 0e 4e f6 bc ec 70 11 3d
       0.08218059 -0.11943325 -0.030066516 0.03550808
0001d0 b5 45 ca b8 09 79 96 bd 34 31 d8 bd 45 13 84 3c
       -9.6450945e-05 -0.073473044 -0.1055626 0.01612247
0001e0 30 d6 16 3e 89 44 e0 bd d1 cd af 3d 90 88 00 3d
       0.14730144 -0.10950572 0.08584178 0.031380236
0001f0 d3 7b 06 bd 38 1d ac 3d 43 df e0 3b be 22 5d 3d
       -0.03283293 0.084040105 0.0068625524 0.05398821
000200 e6 51 d0 bd c0 62 6e 3e fb 76 7f 3d e8 c1 b3 3c
       -0.10171871 0.23279858 0.062369328 0.021943048
000210 5d 95 25 3d 21 91 12 3e c2 84 5a 3a 41 1a 86 be
       0.040425647 0.14313175 0.00083358225 -0.26191905
000220 7d 5b ce bc 3e 08 f3 3c 67 97 d0 bd d1 28 b3 bd
       -0.02519011 0.029667016 -0.10185128 -0.087480195
000230 53 b9 07 3e ad d2 3f 3d d1 7d 17 3d c8 eb 80 3c
       0.1325429 0.046831775 0.036985222 0.01573743
000240 54 26 b2 3a 62 5f a5 bc 56 f2 4c bd cf 52 0c bd
       0.0013591745 -0.020187084 -0.050035797 -0.03425866
000250 6b 0f 26 be 4c 36 fb 3d d5 8a 8f bc 5c 1a ec bd
       -0.16216819 0.12266216 -0.017522255 -0.11528465
000260 52 d5 da bc 7f 52 a9 3d 3c 79 3d 3c 55 36 e9 3d
       -0.026713047 0.08267688 0.011564549 0.11387316
000270 5c 23 b5 3c 6c 9a 7e be 0c ed c5 bc d7 35 2f bc
       0.022111587 -0.24863595 -0.024160884 -0.010693989
000280 20 93 1a 3e a7 ac 12 3e
       0.15095186 0.14323674

fc21.bias f4 [9]
000000 99 c4 34 3b 94 87 9a bd 65 b2 c1 3d a6 bd 1d be
       0.0027583002 -0.07545391 0.09457854 -0.15404376
000010 52 ba 65 3e e5 3a 8c bd ff 11 82 3d 28 76 6c bd
       0.22434357 -0.06847171 0.06351089 -0.05772987
000020 d2 11 17 bd
       -0.03688223

fc22.weight f4 [9, 18]
000000 c3 80 22 bc 46 ff f4 bc 6d d2 44 be 43 3e 82 bd
       -0.0099183945 -0.02990688 -0.19220896 -0.06359532
000010 c6 53 9c 3c 8a 25 1f be aa 4c 45 3a 72 7a 92 3c
       0.019082915 -0.15541664 0.00075263774 0.017880652
000020 aa 0b ef 3c 7d d8 15 be 9f b3 94 3c 56 e4 a0 bc
       0.029180367 -0.14633365 0.018152056 -0.019640129
000030 c8 25 8e 3d 30 bb 39 3e 78 91 07 be 76 06 c9 3c
       0.069408 0.18137813 -0.13239086 0.024539214
000040 84 c8 90 3c 20 d7 c6 bd d6 ff d3 bb 73 76 da bc
       0.017673738 -0.097090006 -0.006469707 -0.02666781
000050 cd 5d 10 be 22 46 e7 3d 4b a7 79 bd d1 f2 d9 3c
       -0.14098282 0.11292674 -0.06095056 0.026605042
000060 7e bd 53 bb 91 80 a1 3d 5c 86 52 bc 43 d4 ea bd
       -0.003230899 0.0788585 -0.012849417 -0.11466267
000070 03 07 d5 3c 73 13 02 bd df aa 3a 3d 8a 20 41 bd
       0.02600432 -0.03175683 0.04557311 -0.047150172
000080 f0 49 17 3d 60 d0 83 36 c7 cd 89 bd 79 1b 25 3d
       0.036935747 3.9283623e-06 -0.06728702 0.040309403
000090 7a 99 56 3f 9b fa d3 3e 23 ca 8a be 59 61 1a bf
       0.83827937 0.41402134 -0.27107343 -0.6030479
0000a0 42 12 80 bf 23 e6 a7 bd 87 ef de 3f 4f 60 b0 bf
       -1.0005572 -0.08198192 1.7416848 -1.3779391
0000b0 a7 e1 d0 3f 96 65 ae bf 33 d8 29 3f 94 d8 22 3f
       1.6318864 -1.3624752 0.6634552 0.6361172
0000c0 8c c1 55 3e 98 07 21 3e af f6 65 be 00 77 17 40
       0.20874614 0.15725553 -0.22457384 2.3666382
0000d0 77 31 ce bf db 9e 19 3f 0a c4 4f bd 80 e0 76 3d
       -1.6108845 0.6000802 -0.050724067 0.060272694
0000e0 62 ed 9d bd a3 31 f3 3b 6a ed 83 3d 12 53 c4 bd
       -0.07711293 0.0074216886 0.064417675 -0.09586157
0000f0 cd 45 c7 3c 51 5f 30 be 86 e9 a2 bc f3 cd 9c bc
       0.024325276 -0.1722386 -0.019886743 -0.019141173
000100 e0 34 46 3d 69 23 b0 3c 81 e0 83 bc a6 29 34 be
       0.04839027 0.02150126 -0.016098263 -0.17594013
000110 f2 50 58 3d 8d b6 d9 3c 51 82 1b 3d 11 14 a6 3d
       0.05281157 0.026576305 0.037966076 0.08109296
000120 13 f0 4a 3c 12 b6 88 bd 3d 44 4a be 44 e9 f9 3d
       0.01238634 -0.06675352 -0.19752593 0.12202695
000130 f9 a0 34 bd 40 61 a9 3e 2e 31 35 3d 60 cb 04 bc
       -0.044098828 0.33082008 0.044236355 -0.008105129
000140 4b 1b 95 bc 50 d8 d4 bd 6b d6 09 bd d7 23 4c 3e
       -0.01820149 -0.10392821 -0.03365175 0.19935547
000150 ab 85 95 be 9e 40 8a 3c 42 5d 2c be 01 a7 f2 bb
       -0.29203543 0.016876515 -0.1683245 -0.0074051623
000160 01 36 1e be 0f 00 2d 3e 08 cb 09 bb af cd 01 3c
       -0.15450288 0.16894554 -0.0021025557 0.007922574
000170 25 37 69 3d cb 5d a7 bd ca 76 51 3d 1f 29 f0 bd
       0.056937356 -0.081721865 0.051138677 -0.11726593
000180 e6 5d 5e 3a 75 a5 c9 3d 8c 26 95 3c 9b 3d 4e bd
       0.000848262 0.098460115 0.018206857 -0.05035172
000190 b3 d2 18 3c 1c fd a9 bc e1 57 49 bd e4 13 f9 3d
       0.009327578 -0.020750575 -0.049156073 0.12161997
0001a0 5d cc 3f bd e5 8d e1 3b 20 03 4c bb 61 34 30 bd
       -0.046825755 0.00688337 -0.0031129792 -0.043018702
0001b0 1d 42 5d 3d 85 10 27 be 87 ad 9e 3d 22 e2 57 bd
       0.05401813 -0.16314895 0.077479415 -0.05270589
0001c0 8f 8e 13 3c 92 b6 9f bd 2a b9 d2 bc a9 e9 2a 3e
       0.009006157 -0.077984944 -0.025723059 0.16690697
0001d0 1f 04 6c 3c 6b 43 2a be 19 5e 90 bd 95 11 4a 3d
       0.014405279 -0.1662728 -0.07049198 0.049333174
0001e0 ed 39 4d 3d aa dd b7 3d d2 f4 56 bd c6 9e 47 3c
       0.05010407 0.08977826 -0.052479573 0.012183851
0001f0 3a 64 82 bc ec 31 61 3c 16 72 f3 bc f2 bb 29 be
       -0.015916932 0.013744812 -0.029717486 -0.16575602
000200 54 2c 70 be 18 b4 c9 bd 26 d4 72 bd 04 82 f8 3d
       -0.2345441 -0.09848803 -0.05928435 0.121341735
000210 e4 19 55 ba 64 d2 1a 3e 97 d6 b1 3b bd d9 af 3d
       -0.0008129163 0.1511932 0.0054271924 0.08586452
000220 28 ad 0c 3d b8 0e cc 3d 8c e4 d9 bc e8 92 0e 3e
       0.034344822 0.09963745 -0.026598237 0.13923228
000230 05 74 72 be c7 45 9e bb 51 c2 c2 3d c8 1d 81 3d
       -0.2367707 -0.0048300955 0.09509719 0.063045084
000240 2e 6a cf bc 65 47 9c 3c 10 39 d7 3b 75 85 17 3d
       -0.025319185 0.019077012 0.0065680817 0.03699251
000250 f6 46 1e 3e ac d7 1a bd f4 a9 e2 3c 6f b0 31 3c
       0.15456757 -0.037803337 0.02766893 0.010845288
000260 7b a4 11 3c 20 72 c0 3d a1 06 73 3c 78 7a e6 bc
       0.008889313 0.093967676 0.014833123 -0.02813457
000270 e2 bd 7c bd 92 f8 86 3d 93 5e 3c 3c 9d 52 77 3c
       -0.061704524 0.0659038 0.011497158 0.01509538
000280 6d b1 99 ba c4 ae 90 bc
       -0.0011725851 -0.01766146

fc22.bias f4 [9]
000000 b9 1a ff 3d 49 35 e5 3d 42 ca a7 bf 03 16 af 3d
       0.12456269 0.11191804 -1.3108599 0.0854912
000010 fa 13 77 3e 37 3d e3 bc 6e 24 47 3d 79 c4 78 be
       0.24128714 -0.02773915 0.048618726 -0.24293698
000020 dd 40 49 be
       -0.1965365

fc3.weight f4 [18, 9]
000000 c9 39 17 bc 67 92 27 bc e6 37 82 3e 0d 61 c5 bb
       -0.009230086 -0.010227776 0.25433272 -0.0060235322
000010 26 c7 dd 3c c7 94 61 bc 4e 82 1e 3c a6 c4 1c 3c
       0.0270725 -0.013768381 0.009674622 0.009568369
000020 99 5a 9c 3b 83 0a dd bc 8c 38 88 bb 81 68 d6 be
       0.0047715423 -0.026982551 -0.0041571315 -0.41876605
000030 55 92 38 bc bc da 16 be 7d 36 27 3c b1 bf 99 3d
       -0.011265357 -0.14731878 0.010205862 0.07507265
000040 d8 f4 68 bd 5f 2a 4b 3d ce 62 2d 3b 35 32 5f bb
       -0.056874126 0.049600955 0.0026456597 -0.0034057025
000050 5a 39 1f bf 01 57 b9 bb 02 5b 58 bb aa 88 52 3c
       -0.62196887 -0.0056561236 -0.003301323 0.012849966
000060 cc 9c 3a 3c 20 83 65 bc 84 e8 7f 3c 4f 21 1b 3d
       0.011389922 -0.014008313 0.015619401 0.037873562
000070 9f bc 4b 3c e2 cc 48 bf d2 03 3f 3c 03 2f 62 3e
       0.0124351075 -0.78437626 0.011658626 0.22088246
000080 22 3d 60 bc 0b f5 ff bd 10 60 c4 3d 43 4a bf bd
       -0.01368645 -0.1249791 0.09588635 -0.09340336
000090 b4 af 38 bc b7 06 d1 ba 3f c2 d6 be be 9c c2 3a
       -0.01127236 -0.0015947436 -0.41945073 0.0014847738
0000a0 09 a1 95 bc fd 49 f7 3b 07 63 f7 3b 0d 01 48 bc
       -0.018265264 0.007546662 0.007549647 -0.012207282
0000b0 fb 01 a3 3b ba 15 d4 bc 03 43 9b bb 5c 5f 1a bf
       0.0049746013 -0.025889266 -0.004738213 -0.60301757
0000c0 6c b4 b1 bc 54 b0 3a be 16 3f d6 3b be ba a5 3d
       -0.021692477 -0.18231326 0.006538282 0.08092259
0000d0 45 41 71 bd 25 15 7e 3d c9 a1 79 bc 4f 50 cc 39
       -0.058900137 0.062031884 -0.0152363265 0.00038969747
0000e0 77 37 fe bd 5b 04 88 3c 2a 84 4d bb 39 5b 11 3b
       -0.12412923 0.01660364 -0.0031359293 0.0022179617
0000f0 cd 0d 04 bc bf 1b 51 bc 96 0a 5c 3c 20 3d 0f 3a
       -0.008059931 -0.012762963 0.013430258 0.00054641254
000100 b8 e0 db 3b 91 e1 33 3f 19 ee 02 ba 26 32 2c 3c
       0.006710138 0.7026606 -0.0004994586 0.010510003
000110 60 28 0e ba d8 1b 58 bc 63 c0 c5 3b 54 27 b0 bb
       -0.00054228865 -0.013190232 0.006034897 -0.005375782
000120 b0 50 e4 3c 6d 53 a0 3b f3 94 db 3e 3f d8 a5 3c
       0.027870506 0.0048927576 0.42887077 0.020244716
000130 56 3b 27 3e b3 45 84 bc cf 36 99 bd cf 35 7a 3d
       0.16331229 -0.016146516 -0.07481157 0.061086472
000140 29 11 71 bd af cc cc bc 24 68 05 bc db d0 3f bf
       -0.058854256 -0.024999944 -0.008142505 -0.74928063
000150 c8 76 aa bc 97 a9 4e be 01 2b 52 3b be ee be 3d
       -0.020808592 -0.20181881 0.003206909 0.0932288
000160 8c 59 87 bd e7 e1 8f 3d ee d0 3b bd 5d 5d 73 bc
       -0.066088766 0.07025509 -0.045853548 -0.0148538025
000170 39 dc 52 3f c2 2a ac bc 26 eb 6d be 6d ed 9f 3c
       0.82367283 -0.021016482 -0.23234233 0.019522393
000180 08 82 0a 3e 4b c8 e0 bd 01 69 d7 3d d0 47 e8 3c
       0.13526165 -0.10975703 0.10518075 0.028354555
000190 0d e8 1b 3c f0 48 2e 3f 8c 20 8f 3c ab 28 4a 3e
       0.009515774 0.68080044 0.017471574 0.19742076
0001a0 72 13 0c bc 23 05 a5 bd e6 02 6e 3d 7a 79 7a bd
       -0.008549558 -0.080576204 0.058108233 -0.061151005
0001b0 16 e2 b5 3b bc ec 84 bb fc bf 1b 3f 72 63 ec 3b
       0.005550633 -0.0040565412 0.6083982 0.0072140032
0001c0 ea 18 5d 3c 82 31 68 3b f3 ab 05 bc 4e 52 6d 3c
       0.0134947095 0.00354299 -0.008158672 0.014484955
0001d0 a9 35 9e ba af d5 c0 bb 40 60 3d 3b cf 19 7b 3e
       -0.0012070435 -0.005884848 0.002889648 0.24521564
0001e0 98 8b 06 bc 18 ed aa bd 1e 89 96 bb df e6 81 3b
       -0.008211993 -0.08346003 -0.0045939824 0.0039642896
0001f0 2b 96 78 3c 17 b3 3b 3b f0 a2 2b 3b 6c b0 11 bc
       0.015172522 0.0028640681 0.0026189648 -0.00889216
000200 4d 9b 07 bf 86 b9 aa bb 39 e3 73 3b 81 af 76 3c
       -0.52971345 -0.0052101044 0.0037214293 0.015056492
000210 c2 df ac bb fd 30 ec 3b 8d d4 1c 3c 77 1b 0c bc
       -0.0052756974 0.0072079883 0.00957216 -0.00855147
000220 c7 ae 45 3b a1 d8 b2 be c0 d8 f6 bb f3 05 c7 3c
       0.003016399 -0.349309 -0.007533163 0.024294829
000230 f1 ce 06 3c 72 fa c5 ba a4 1f 84 b9 63 c1 25 bc
       0.00822805 -0.0015104546 -0.00025200576 -0.010116908
000240 31 0e 95 3b 5f 05 f9 bb e8 2c 08 bf d8 ff db b9
       0.004548811 -0.0075995172 -0.5319352 -0.00041961554
000250 f8 ed b0 3b 26 e9 e0 bb 27 68 ac bb b7 94 ae b9
       0.005399462 -0.006863731 -0.0052614394 -0.00033298667
000260 c7 14 1c 3c 75 ff ca ba ff 90 87 3b 7f 87 17 3f
       0.009526438 -0.0015487509 0.004137158 0.59191126
000270 a5 d5 83 3b 50 7e 74 bc 6c dd 62 bb a6 43 9d bc
       0.004023271 -0.014922693 -0.003461684 -0.019197296
000280 ba 7b 37 3a 22 b8 da bb
       0.00069993327 -0.0066747824

fc3.bias f4 [18]
000000 f3 26 f5 bd d8 75 e7 bc 7a fc 38 3d 85 00 0e 3e
       -0.119703196 -0.028254434 0.045162655 0.13867386
000010 0f 80 24 be 5b ca b0 bc 31 c6 7d bd b3 b4 27 bc
       -0.16064475 -0.021580866 -0.06195659 -0.010235953
000020 90 7b c1 3c 23 1d 72 bc 73 f4 12 be da 76 b7 3c
       0.02361849 -0.014777455 -0.14351062 0.02239554
000030 80 36 75 3e e0 75 ff 3e 93 86 07 bf 84 ca 26 bf
       0.23946571 0.4989462 -0.5293972 -0.65152764
000040 5f 9f a7 3d d1 64 d7 be
       0.081846945 -0.42069104

fc4.weight f4 [9, 18]
000000 ac aa d6 bc 4b 69 54 3d 0d 9c ca 3d 9e 8e 70 3e
       -0.02620443 0.051858228 0.098930456 0.23491904
000010 4d 5b a4 3d 2b 6c 27 3e 39 ae 85 3b 38 98 76 be
       0.08025227 0.16349857 0.004079607 -0.24081504
000020 f7 2a 6c bd 97 f6 d2 3d fd 87 75 be d7 76 88 be
       -0.057658162 0.103009395 -0.23977657 -0.26653168
000030 f5 1a 4c be 94 ac 0b be e6 69 1a be cc 3a ab 3e
       -0.19932158 -0.13640052 -0.1507946 0.33443296
000040 d0 86 c5 3d 9d db 74 be 12 29 4c bc 4f 79 92 3d
       0.09644854 -0.23911901 -0.012460964 0.07152044
000050 59 6d d2 3d 97 5b 86 3e 06 69 28 3c f2 48 04 3e
       0.10274763 0.26241753 0.010278946 0.12918451
000060 fc 3d be 3b b6 77 2f be fa e4 00 bd 76 81 29 3e
       0.005805729 -0.1713551 -0.03146837 0.16553292
000070 c8 74 86 be eb 0d ab be d0 fd 11 be 2e 64 24 be
       -0.26260972 -0.33409056 -0.14256978 -0.1605384
000080 d1 4e d1 bd 07 db d2 3e 08 cc 55 3d 49 ca 67 bd
       -0.10220111 0.4118273 0.052196532 -0.0565894
000090 73 1a 01 bd 7b 9c a1 3d d7 e9 01 3e b6 0a 69 3e
       -0.031519365 0.078911744 0.12686859 0.22757992
0000a0 9e ca f6 3d a1 4d a5 3c 38 19 f6 ba da cd 3c be
       0.12050365 0.020178618 -0.0018775826 -0.18437901
0000b0 8d 92 59 bd 8f 4d 4b 3e 5b 87 63 be 78 45 80 be
       -0.053118277 0.19853805 -0.22219603 -0.25053
0000c0 96 21 47 be 3b eb 03 be f6 4c 04 be 3e ce c7 3e
       -0.19446406 -0.12882702 -0.12919983 0.39024538
0000d0 06 4c 86 3d 4e 86 91 3d 8f 94 92 bc 7b c8 18 3e
       0.06557469 0.07105695 -0.017893104 0.14920227
0000e0 9b 1f f0 3d 35 5a 8b 3e 14 8f 97 3c c5 4a 21 3d
       0.11724778 0.2721726 0.018500842 0.039377946
0000f0 0d f5 0b 3c f9 98 36 be f1 40 cd bd 77 45 47 3e
       0.008542311 -0.17831792 -0.10022152 0.19460092
000100 de be 85 be 94 fd 8c be f1 78 f8 bd c8 80 14 be
       -0.26122183 -0.27537215 -0.12132443 -0.14502251
000110 3e 3b c9 bd 08 b0 d5 3e 80 5a 73 3d a9 29 29 3c
       -0.09825753 0.41735864 0.05941248 0.010324874
000120 b9 50 d2 bc 82 b5 6c bb 90 e8 be 3d 19 75 7e 3e
       -0.025673257 -0.003611893 0.093217015 0.24849357
000130 9d 61 12 3e 6a eb 59 3e 0a 07 2f bc 7f 7e 22 be
       0.14295049 0.2128121 -0.010682831 -0.15868567
000140 98 9c 45 bd 82 90 f2 3d c9 51 6f be ff e9 8f be
       -0.048245043 0.11843969 -0.23371042 -0.28108212
000150 bc 49 3b be 67 f5 1b be d4 3c 60 bd f5 bc aa 3e
       -0.18289846 -0.15230332 -0.05474551 0.33347288
000160 27 0e b5 3d ea b7 6d 3d 77 dc 72 3c b0 8b e3 bb
       0.0884059 0.058036722 0.014823071 -0.0069441423
000170 5a 0f 24 3e 22 da 71 3e f9 c1 1e 3e e1 d9 c4 3d
       0.16021481 0.23618367 0.15503682 0.096118696
000180 6d 51 95 bb 8f 8d 41 be e6 fa 32 3b 93 9a 4c 3e
       -0.004556826 -0.18901657 0.0027310192 0.1998084
000190 3b 01 5e be 41 5a 96 be 88 c6 35 be db 47 02 be
       -0.21680157 -0.29365733 -0.17751515 -0.12722723
0001a0 0f 90 1e bd e7 5d d1 3d b8 ea 94 3d a4 21 44 3d
       -0.038711604 0.102229886 0.072713315 0.047883645
0001b0 ba ca df bb b3 30 48 3e d2 11 e3 3d 19 68 97 3e
       -0.006829587 0.19549827 0.11087383 0.29571608
0001c0 dc 08 a5 bc 43 ac b3 3d 6c 20 55 3c c7 40 2d be
       -0.020145826 0.08773091 0.013008218 -0.16919242
0001d0 a6 b0 2e be 69 9f 18 3e 92 12 8d be e8 6f 76 be
       -0.17059574 0.1490456 -0.2755323 -0.24066126
0001e0 dd 0a cd bc e2 77 0a be 31 07 7f ba b3 4d 23 be
       -0.025029594 -0.13522294 -0.00097285496 -0.15947609
0001f0 0b 2d ec 3d 42 84 07 3e 61 c7 7f bb e8 5e 46 3e
       0.11532029 0.13234046 -0.0039028751 0.19372141
000200 b0 70 40 3e 40 e6 87 3e f0 d7 92 3d e5 94 0b bd
       0.18792987 0.26542854 0.07170093 -0.034077544
000210 71 78 6e 3c e4 a9 5d be 02 f0 28 be 03 4f 4f 3e
       0.014555083 -0.2164684 -0.16497806 0.20244984
000220 b9 8a 74 be 0a a1 3d be 64 ee a3 bd 9b de c5 bd
       -0.23881043 -0.18518463 -0.08004454 -0.09661599
000230 ad c1 16 3e 62 af 71 be 24 5b 0c 3e e9 b5 0f 3e
       0.14722319 -0.2360206 0.13706642 0.14034237
000240 5a fa ba 3c 94 5a 7c 3d 5b 52 11 3e f6 28 9b 3e
       0.022824455 0.06160982 0.14191572 0.30304688
000250 22 80 87 3d c2 4c 37 3e 43 67 01 3a d8 28 02 be
       0.06616236 0.17900375 0.00049363467 -0.12710893
000260 bb d8 c8 bd 34 ec 31 3e fa b9 8a be a1 4a a3 be
       -0.09806963 0.1737526 -0.27095014 -0.31892875
000270 e7 eb 5a bd 0f e9 22 be 44 35 cb 3e d1 51 1f be
       -0.05344763 -0.15909217 0.39689076 -0.15558554
000280 5c 6f df 3d fb 40 f4 3d
       0.10909912 0.119264565

fc4.bias f4 [9]
000000 6f 80 d8 bc a2 b6 89 3c 34 a7 2f 3d 07 61 0f 3d
       -0.02642843 0.016810719 0.042884067 0.03500464
000010 7b 7b a6 3d 62 0a af 3d 7b 6f a2 3d f4 13 db 3d
       0.08129021 0.08546902 0.079314195 0.10697165
000020 80 a0 17 3e
       0.1480732
