COIL/vae/c2_v6_vae.pt (torch, 4487 bytes, 10 tensors)

fc1.weight f4 [12, 6]
000000 e0 22 61 bd 62 56 51 bd e5 1d 4d be ca aa 3d 3e
       -0.0549649 -0.05110777 -0.20030935 0.18522182
000010 3a f1 b4 bc a4 d6 b3 3e 2a e8 6b 3e f7 22 1e 3f
       -0.022087682 0.35124695 0.23037782 0.617721
000020 25 98 d9 3e 3f b8 35 3e 80 3a f4 3d 18 1e df 3e
       0.4249889 0.17746066 0.119252205 0.43577647
000030 98 3f 15 3e c8 fa 76 be 70 0c ed 3d 28 c3 ae 3e
       0.1457504 -0.24119103 0.11574638 0.34133267
000040 c0 b9 4a 3c 6a d0 cc be 6d 26 3a be c4 c0 37 be
       0.012373388 -0.40002757 -0.18178721 -0.17944628
000050 27 07 e1 be f0 2c f0 be e0 70 3c be 57 2c fa be
       -0.4395077 -0.46909285 -0.18402433 -0.48861954
000060 a2 40 fc be e6 ee 67 be af 68 a6 be 1a c3 83 3d
       -0.4926806 -0.22649726 -0.32501742 0.06433697
000070 ea 2f 73 bd 62 89 4a be ef 38 8b 3e 79 dd 54 bd
       -0.059371866 -0.1977897 0.27191874 -0.051969025
000080 a2 1b a2 3e b6 e6 38 be 2d 01 24 3e bb 1a 5a 3e
       0.31661707 -0.18056759 0.16016074 0.2129926
000090 9c a4 0e 3e 64 a3 f5 3e 3f 16 e3 bd fc f4 70 3e
       0.13929981 0.4797622 -0.110882275 0.23530954
0000a0 bd 5a 00 3d c6 d9 a8 3e 70 59 2b be aa 79 e6 3d
       0.031336535 0.32978648 -0.16733336 0.11253674
0000b0 fa 35 0c be 70 f2 57 be b1 98 9a be 9c 96 bc bd
       -0.13692465 -0.21088576 -0.3019462 -0.09208414
0000c0 e5 76 18 3e 59 7b ad 3e a7 32 39 bd 0d 47 9e be
       0.14889105 0.3388317 -0.04521432 -0.30913582
0000d0 57 71 b8 3e 93 78 2e be b0 01 f3 3d 01 64 9d be
       0.3602397 -0.17038183 0.11865556 -0.3074036
0000e0 f4 e2 84 be 2e ca 80 be a7 ae 7f be 98 e7 62 bb
       -0.25954401 -0.2515425 -0.24968968 -0.0034622904
0000f0 d2 fa 1e be 32 ac 30 be e0 e5 49 3e 20 c2 dc 3e
       -0.15525368 -0.17253187 0.19716597 0.43116856
000100 c5 1e e2 3e a6 bd 58 be 88 cc 54 3e fa 09 96 3e
       0.441641 -0.21166095 0.20781147 0.29304487
000110 f4 0a 73 be 18 e2 eb 3e 3d b9 1e be f7 9d 0a be
       -0.23734647 0.46070933 -0.1550035 -0.13536821

fc1.bias f4 [12]
000000 72 ba b9 3f 77 5d 68 bf ea c6 34 be 14 b8 09 bf
       1.4510024 -0.90767616 -0.17654005 -0.53796506
000010 96 2a 09 3f ed 4f 34 3f 56 3e 7f 3e 86 de b9 3e
       0.53580606 0.7043446 0.24926123 0.36302584
000020 fb 69 bf be 83 4e d7 3e ca 0d ed 3d 2c 71 92 3f
       -0.37385544 0.42052087 0.11574896 1.1440787

fc21.weight f4 [6, 12]
000000 79 05 73 bb 51 94 11 bd 22 55 26 be d7 de b4 bd
       -0.003708212 -0.035541836 -0.16243413 -0.08831566
000010 9e 13 37 bd 9d a9 72 be 4c be f6 3d a7 b6 69 3d
       -0.044696443 -0.23697515 0.12048015 0.057058956
000020 5c 2f 30 3e ff 10 7c 3d 77 87 88 3d 1d c6 05 3e
       0.17205566 0.061539646 0.06666463 0.13063855
000030 11 27 38 3e 48 a4 57 3d e0 24 29 3d 56 38 0c 3d
       0.17983653 0.052646905 0.041294932 0.034233414
000040 38 6f 03 be 69 35 6c bc 4e 0a 5f bd 8f c4 8f be
       -0.12835395 -0.014417031 -0.054453187 -0.2807965
000050 be c4 4e be 21 19 a1 3e 96 ed a0 bc 03 66 e8 bd
       -0.20192239 0.31464484 -0.01964454 -0.11347582
000060 71 64 b1 3d 7b bb 50 bd 5c ba 7c 3e 35 06 ac bd
       0.08661736 -0.050960045 0.24680465 -0.083996214
000070 71 55 c6 3d 36 13 10 bc 26 cb 0c 3e 11 5a b9 bd
       0.096842654 -0.008793643 0.1374937 -0.09050382
000080 ce f5 92 be 45 58 65 3d 50 4f ab 3b e3 1a 12 be
       -0.2870316 0.055992384 0.0052279606 -0.14268069
000090 75 c1 01 be 0d 6c 6f bf 80 8b 1f bb 08 e4 ff 3e
       -0.12671454 -0.9352425 -0.0024344623 0.49978662
0000a0 c8 ab c6 3e da 97 01 be 4d fd 94 be b1 e4 84 3e
       0.38802934 -0.12655583 -0.29099503 0.25955728
0000b0 d0 0e 71 be c1 34 a9 3e ad 6b 06 be 0a 6a 8a bd
       -0.23540807 0.3304806 -0.13127013 -0.067585066
0000c0 c2 ed 5e bd 62 3e 3b bd 3e 65 32 be b7 ea 93 bd
       -0.054425962 -0.04571379 -0.17421433 -0.07222503
0000d0 d7 9a 25 3e cb e0 31 be 4f c4 3e 3d 63 a9 10 3e
       0.16172348 -0.17370908 0.046573933 0.14127116
0000e0 57 fc 26 3e a1 bb 5c be 84 95 16 3e dc 0f 8c 3e
       0.16307198 -0.2155595 0.14705473 0.2735585
0000f0 11 9f 1d 3d b5 f1 bf bd 9e 97 88 3e fa 39 09 3c
       0.038481776 -0.09372274 0.26678175 0.008375639
000100 c0 df 6f 3d 97 96 59 3e 02 00 61 bc c9 e7 b8 bd
       0.058562994 0.21248852 -0.013732912 -0.090285845
000110 8c 14 4a 3e 59 84 2a 3e 46 6f f6 3c f6 57 2c ba
       0.197344 0.16652049 0.030082356 -0.00065743865

fc21.bias f4 [6]
000000 4a 67 26 bd 78 c6 96 bd 15 6e 4a bd 28 f1 91 3b
       -0.040625848 -0.07362074 -0.04942139 0.004453797
000010 c9 da 45 be 04 dc 91 be
       -0.19321741 -0.2848817

fc22.weight f4 [6, 12]
000000 59 81 db 3d 5a 6a 58 3c 30 5e f3 3d 92 8e d9 bc
       0.107180305 0.01320895 0.11883199 -0.02655724
000010 0b 87 68 bd eb f6 1f be 76 78 a4 3d 18 97 3e be
       -0.056769412 -0.15621535 0.080307886 -0.18612325
000020 cc bd 8e be 73 2d 4c 3e b0 22 9d bd 47 8d 5a 3c
       -0.2787918 0.19939213 -0.07672632 0.013339347
000030 f5 5b 74 3d 47 39 e3 3d e4 03 58 3e d2 fe 81 3d
       0.05965801 0.11094909 0.21095234 0.06347431
000040 56 5b 57 be a1 f3 6a be 31 5d 99 bd 47 58 ff 3d
       -0.21030936 -0.229445 -0.07488478 0.124680094
000050 41 f9 75 be 62 28 52 bd 0b 1a 8a bd 6f 68 0b 3e
       -0.24020864 -0.051308043 -0.067432486 0.13614057
000060 73 9f f6 3d 69 c4 6b 3c 7c 48 5d 3e 3e 59 93 bb
       0.12042131 0.01439009 0.21609682 -0.0044967225
000070 92 13 70 bd a7 c5 b1 3c 85 ca 35 3d 7e 2a be bd
       -0.058612414 0.021700693 0.04438259 -0.092854485
000080 1b 76 53 3e fb 38 02 3e 99 6d a6 bd d9 5a 30 be
       0.20650522 0.12717049 -0.08126373 -0.17222156
000090 e4 d8 de bf b4 a7 ee 3f 88 fc 44 be 61 a1 01 3f
       -1.740994 1.8644929 -0.19236958 0.5063687
0000a0 e9 7d 23 bf 59 b4 4a bf 65 e6 1f 3f ec d3 23 be
       -0.63864 -0.7918144 0.6246093 -0.1599881
0000b0 ea 74 69 3d 6c 9e 90 3d b2 b5 68 bc 9f a0 ad bf
       0.056996264 0.070614666 -0.014203476 -1.3564643
0000c0 0c e2 6b 3e 22 3c 65 3d 04 28 5b bd 1a 2c 7c 3d
       0.23035449 0.05596555 -0.05350496 0.061565496
0000d0 f8 39 76 3c 08 a2 03 bc 36 17 57 bd 61 7e 5d be
       0.015028469 -0.008034237 -0.05251237 -0.21630241
0000e0 bc 4c 82 3e e0 34 1b 3d 89 67 cf bd e9 84 e0 bd
       0.2544917 0.037892222 -0.1012717 -0.109628506
0000f0 ca b2 2e 3e 04 fb 22 bd d4 e9 90 3e 9d d0 ec 3c
       0.1706039 -0.03979017 0.28303397 0.028908068
000100 59 6b 1f be d5 22 e3 3d 42 66 48 3d 78 89 77 3d
       -0.15568294 0.11090628 0.048925646 0.060433835
000110 d0 2c 76 3e 2a c6 6e 3e 38 5a 3e be b6 ed a4 bb
       0.24040532 0.23317781 -0.18589103 -0.00503322

fc22.bias f4 [6]
000000 c9 db 80 bd d4 13 42 3d 5a 9f 19 3c 26 15 3d bf
       -0.06291921 0.04738219 0.009376371 -0.73860395
000010 d3 35 11 be fd 90 af be
       -0.14180689 -0.34290305

fc3.weight f4 [12, 6]
000000 d6 d2 8e 3b f3 84 5b 3b e8 61 32 3b 42 d1 01 3f
       0.0043586297 0.0033495992 0.0027219001 0.5070993
000010 79 cc 29 3c 2b 79 c3 3b 94 1d b7 3c f9 c0 ae bb
       0.0103636915 0.005965372 0.022352971 -0.0053330627
000020 e1 6f 00 3d 3a 0f 89 3e 9c 7d 2f 3d f4 cb 6c 3d
       0.031356696 0.2676943 0.0428444 0.057811692
000030 03 99 20 bb 94 a3 82 bb d9 b4 80 3a d3 58 29 3f
       -0.0024505265 -0.003986785 0.0009819522 0.6615116
000040 08 d4 b8 3b 26 99 29 3c 47 a6 c8 bb 2a 63 07 3c
       0.0056405105 0.010351455 -0.0061233374 0.008263389
000050 70 53 65 3a 8a 06 37 3f 29 2a 18 39 7f 2f 44 ba
       0.000874809 0.7149435 0.00014511555 -0.0007483884
000060 24 89 fc bb 24 8c c6 ba 91 e3 91 bc 40 46 f2 be
       -0.007706778 -0.0015147966 -0.017808707 -0.47319221
000070 00 55 f3 bc 06 b4 10 bd 95 c4 86 3c 89 e3 31 3a
       -0.029703617 -0.035327934 0.01645116 0.00067859195
000080 09 fc 0b 3d 49 da 51 3e 0d 6b 9d 3d 07 b7 8c 3d
       0.034175906 0.20493425 0.07686434 0.06870847
000090 c2 6c 63 ba 09 80 30 3b d4 f1 b7 ba 4f db 42 bf
       -0.0008675569 0.0026931784 -0.0014033862 -0.7611589
0000a0 15 16 9a bb 3c 53 6f bc ff 4f b4 bb 01 51 d1 ba
       -0.0047023394 -0.014607247 -0.0055027003 -0.0015969576
0000b0 aa 98 11 3a 99 5c 14 bf 7f ae 82 ba 3d ce fb bb
       0.000555406 -0.5795379 -0.0009970217 -0.0076844976
0000c0 ae 1a 66 3c ac a3 92 3b 1f 99 b6 3c aa 3d 48 3f
       0.014044447 0.0044750776 0.02228981 0.7821909
0000d0 04 94 6e 3d 3f f6 39 3d 87 b0 2f 3c 88 11 31 3c
       0.058246627 0.045400854 0.01072324 0.010807402
0000e0 e6 61 1a 3d 40 ff 62 bf c8 a6 b8 3d d8 93 91 3d
       0.03769102 -0.8867073 0.09016186 0.07108277
0000f0 66 99 48 bc af 4e 34 bc d0 ae 15 bd 4e ea 51 3f
       -0.012243604 -0.011005088 -0.036543667 0.81998146
000100 19 32 b2 bd f5 37 92 bd 3b 1e 21 bc 44 dd bf bb
       -0.087009616 -0.07139579 -0.009833868 -0.0058552343
000110 0b a5 ad bc 62 9f 56 bf f8 72 2f bd d7 40 1e bd
       -0.021196863 -0.8383695 -0.042834252 -0.038636055

fc3.bias f4 [12]
000000 68 1e ff 3e e6 52 68 be 65 c3 2b bf 4b b0 80 bf
       0.49827886 -0.22687873 -0.67095023 -1.00538
000010 7b 77 dc 3e 70 61 e9 3e 2a 94 5f bf 79 49 56 bf
       0.43059906 0.4558215 -0.87335455 -0.8370586
000020 a1 b8 57 be c0 68 a4 bd 3b 6d 82 3d 63 da 79 3e
       -0.21066524 -0.08027792 0.0636849 0.24399714

fc4.weight f4 [6, 12]
000000 b7 1e 9e be f4 96 8f bd e5 5c 05 bf 86 d0 ba bf
       -0.3088281 -0.07011214 -0.5209487 -1.4594886
000010 e3 df 17 3e f0 4f f8 bd 80 1d b9 3e 4a 10 0f 3f
       0.148315 -0.12124622 0.3615532 0.5588423
000020 d9 8e 38 be 73 02 96 3e 6f 73 a4 be f6 9f 48 3e
       -0.18023242 0.29298744 -0.3211932 0.1959227
000030 cb 03 10 be 3f 27 7f bc b4 f4 cf be da 32 79 bf
       -0.14063947 -0.015573322 -0.4061638 -0.9734322
000040 ab 29 89 3d 3f a8 95 bd d5 b4 83 3e 17 12 25 3f
       0.06697401 -0.07307481 0.257239 0.6448073
000050 a8 a5 a6 be 66 d9 93 3e f7 68 9f be cf 83 b4 3e
       -0.3254826 0.288768 -0.3113477 0.35256812
000060 14 b4 a9 be a3 74 cf bd 92 f0 d3 be b2 9e 3a bf
       -0.331452 -0.101296686 -0.41394478 -0.728984
000070 98 4e 3c 3e 56 34 e6 bd d8 7a f6 3e d4 6f 1c 3f
       0.18389356 -0.11240451 0.48140597 0.61108136
000080 ec 96 f1 bd 9b b5 97 3e ad 85 96 be 49 69 2a 3e
       -0.11796364 0.2963074 -0.29398862 0.16641726
000090 66 67 ee bd 0a 30 d4 bc c1 57 9f be 3e d2 17 bf
       -0.116408154 -0.025901813 -0.31121638 -0.5930518
0000a0 54 39 75 3d 2a 05 89 bd 18 16 9e 3e 13 9c 3a 3f
       0.059869125 -0.06690438 0.3087623 0.728944
0000b0 ff 75 a2 be 6c 88 97 3e 2a ba 95 be 5d 68 be 3e
       -0.3173065 0.2959627 -0.29243594 0.37188998
0000c0 9a 0f 69 be 2b 73 72 bd b1 bc b6 be ef 98 1b bf
       -0.22759858 -0.059191864 -0.35690835 -0.60780233
0000d0 c4 22 f8 3d f3 76 c8 bd 9a 57 fa 3e e1 b8 53 3f
       0.12116006 -0.09788313 0.4889496 0.8270398
0000e0 0a f0 55 be 22 1e 9e 3e 8d 38 96 be 1f 61 8a 3e
       -0.20892349 0.30882365 -0.2934002 0.27027223
0000f0 2a 40 17 be ad 63 8e bd d1 15 ad be 71 0a f8 be
       -0.1477057 -0.069526054 -0.33805707 -0.48445466
000100 f4 d9 1e 3e f4 78 8f bb 81 ac 0f 3f 78 1c 8a 3f
       0.1551283 -0.0043784324 0.56122595 1.0789938
000110 94 50 93 be 04 a2 91 3e 1a 56 82 be ca f0 b9 3e
       -0.28772414 0.2844392 -0.25456315 0.3631652

fc4.bias f4 [6]
000000 41 f4 9b 3d 38 bb 16 bc a0 ed ef 3d ea c2 28 3c
       0.07614947 -0.00919991 0.11715245 0.010300377
000010 b3 f9 b1 3d 22 63 ec bb
       0.086902045 -0.007213966
