COIL/vae/c2_v5_vae.pt (torch, 4167 bytes, 10 tensors)

fc1.weight f4 [10, 5]
00000000: efdd 893e 8225 83ba dcce e3bd b8e0 633e
00000010: 708b fd3e c7ff 523d 2ca6 25bf 4f96 05bf
00000020: 0474 b4bd 6ef3 c4be 242a 0bbe bd0c 9a3e
00000030: 2708 e8bd bbf7 63be 5e41 a23d bba3 0ebd
00000040: 4e2d b93e 5b2c 6f3e 4ca5 0ebe 0563 1fbe
00000050: b2cc 15bd c15a febe e679 cabe 5165 533c
00000060: 28ef a0bb 48bf a73e 5a99 c6be 462e a5be
00000070: 1848 843d 98f9 0c3e f0c6 d93d 61ff dabe
00000080: d21c 57be 0c3b 6c3e aacf 9b3e 1e03 19be
00000090: 732c 76be 83aa 07bf 3b15 17bf 34ac 47bd
000000a0: 9902 593e 9dac 1b3f 8c6f f53e a833 6b3e
000000b0: 4482 b53e 9c44 123e d532 053f 24eb c43e
000000c0: 408b 063f 32bd e83e
0.26927134 -0.0010005685 -0.1112344 0.22253692 0.49520445 0.05151346 -0.64706683 -0.5218248
-0.08811191 -0.38466972 -0.13590294 0.30087844 -0.1132968 -0.2226247 0.07922624 -0.034824114
0.36167377 0.23356764 -0.13930243 -0.15565117 -0.036572166 -0.49678615 -0.39546126 0.012902574
-0.004911322 0.32763124 -0.38788873 -0.32261866 0.06459063 0.13767087 0.106336474 -0.42772964
-0.21007088 0.230694 0.30431873 -0.14942595 -0.24040394 -0.52994555 -0.5901677 -0.04874821
0.21192397 0.6081026 0.47936666 0.22968924 0.35450947 0.14283985 0.5203069 0.38460648
0.5255623 0.45456845

fc1.bias f4 [10]
00000000: f3c1 8f3f 898b 9ebe 773e ffbd 429b 89be
00000010: a6f6 713f 59bc 95be 040a 8fbd 9246 6abf
00000020: faba 813e faea acbf
1.1231064 -0.30965832 -0.12463086 -0.26876265 0.9451698 -0.2924526 -0.06984332 -0.9151393
0.25337964 -1.3509209

fc21.weight f4 [5, 10]
00000000: 240c 57be 846d 96be 2544 bb3c 30b7 27bd
00000010: 25ef 683e 5a2e 79be b069 b33d 9ff3 833d
00000020: 663e 5d3e b5de 44bc dcfa fdbd 5f38 dc3c
00000030: 498b 223e 0437 a53d 4c4b 2dbe b84a 303d
00000040: cc55 0fbe 1af5 c8ba 1c5f d1bc aa62 643c
00000050: 5af1 08be 3e45 99bd fbac 36ba f365 7f3e
00000060: 896d 33bc 0497 e4bd 0a62 4d3e e412 6a3c
00000070: c68e 703d cab6 f9bb 1e57 14bf ca58 b33e
00000080: c1ad 243e 8703 763e f601 1e3f 7ca0 cd3d
00000090: 70e2 61bd 0fa0 4a3f 1e8a 68be c542 65bf
000000a0: d3f0 25be 54b4 8bbe df74 99be 9a59 053e
000000b0: 9258 7d3e f3e2 8f3e 60d8 aabd 7f37 5c3d
000000c0: 906c 4f3e dfed 56bc
-0.21000725 -0.2938043 0.022859642 -0.040946186 0.22747476 -0.24334088 0.08760393 0.064429514
0.21605834 -0.012015988 -0.12401363 0.026882349 0.15873446 0.08067134 -0.16923255 0.043040007
-0.13997573 -0.0015331835 -0.025558047 0.013939539 -0.13373318 -0.0748391 -0.0006968525 0.24941234
-0.010951408 -0.111616164 0.2005693 0.01428673 0.05872991 -0.007620667 -0.5794543 0.35028678
0.16081907 0.24024783 0.6172174 0.100403756 -0.05514759 0.7915048 -0.22708938 -0.8955501
-0.16205148 -0.27286017 -0.29971978 0.13022462 0.24740818 0.28102836 -0.083420515 0.053763863
0.20256257 -0.013118236

fc21.bias f4 [5]
00000000: cbaa 0dbd 71c3 9d3e facb 133e 2231 093e
00000010: c2f6 dabd
-0.03458671 0.30813172 0.1443328 0.13397649 -0.106915966

fc22.weight f4 [5, 10]
00000000: 9428 a0bc 39f8 16be e610 7f3e 3201 4b3e
00000010: da30 583e 1cc0 873d e1f2 17be d074 463c
00000020: 2e88 f63d 687b b6bc 75fe 9a3d 7fbf 883d
00000030: 0be9 a6bd 6de5 72bd 0f3e d9bc 4e2a 6c3e
00000040: 7d23 8b3e ce2c 41bc c6be 52bd 2e60 e63b
00000050: 18d9 2cbd 9753 eebc c656 a7be 322f 893e
00000060: f11c 463b ce9b 30be 785a e3bd 6589 b43b
00000070: beab 9d3c c9dd be3a da86 d3bf 3155 c83f
00000080: f8e8 1b3e be20 2b3d e3a4 07c0 9658 53be
00000090: 7a12 51be e5bf ad3f 43d3 c33d 766a 6840
000000a0: bb54 cc3d 45e9 fbbb 523c 5d3e 07b7 163d
000000b0: 7a56 e73d a0ce 31bc bf09 06be 6f86 1b3b
000000c0: 8cfc 1a3c eb50 913a
-0.0195506 -0.14743127 0.2490879 0.19824675 0.21112385 0.06628439 -0.14838745 0.012112811
0.12037693 -0.022275642 0.07568065 0.0667715 -0.08149918 -0.05930083 -0.02651885 0.23063013
0.27175513 -0.011790467 -0.051451467 0.0070305085 -0.042199224 -0.029092593 -0.3268339 0.2679382
0.0030229653 -0.17246935 -0.1110124 0.0055095428 0.019246932 0.0014561947 -1.6525528 1.5650998
0.1522559 0.041779272 -2.119439 -0.20639262 -0.20417204 1.3574187 0.09561779 3.6314979
0.099770986 -0.00768772 0.21605042 0.036795642 0.11295791 -0.010852486 -0.13089655 0.0023731252
0.009459626 0.0011086738

fc22.bias f4 [5]
00000000: 8a29 54be ed93 3cbd 9415 153d 3c4f ecbf
00000010: 0201 63be
-0.20718971 -0.04603951 0.03639753 -1.846168 -0.22168353

fc3.weight f4 [10, 5]
00000000: 14ae 8bbd e7a1 e13b 2599 19bc 384d 1fbf
00000010: 5454 eabc 9221 243c 28ef 153c 7643 1ebb
00000020: 19a4 353f fb0a 34bc dcea 7e3d cd7f e9bb
00000030: d0e4 1c3c f2e3 f53e 68ab 143d 9ac5 8d3c
00000040: a990 f6bb 630b 10bc 98c6 1b3f 0cf5 383b
00000050: 61a4 d03d 9394 4cbb 035d 263d d332 68bf
00000060: efcc 833c 31f2 acbd aaee 8d3b c433 2dbd
00000070: b92f 36bf aded 113c 3bbe 853d 4811 cabb
00000080: 8b36 3d3d bf38 493f 0b7e 74bc 63a7 adbd
00000090: f99c 91ba d84d 10bd e9fb 41bf 682b 6e3c
000000a0: 73fe e9bd c2ad 523c 086c 40bd 6bcc 5c3f
000000b0: 03ec 8cbc 76b0 113d d3b7 e5ba def1 203d
000000c0: c274 ddbc 556f 16bd
-0.06820312 0.0068857553 -0.009374891 -0.622272 -0.028604664 0.010017769 0.009151258 -0.0024149097
0.7095352 -0.010988946 0.062235698 -0.0071258307 0.0095760375 0.4802547 0.03629628 0.017306138
-0.007524569 -0.008791777 0.60849905 0.0028222231 0.10187603 -0.0031216487 0.040616047 -0.9070255
0.01608893 -0.08444632 0.0043314295 -0.042285696 -0.7116657 0.008906764 0.06530424 -0.006166611
0.046194594 0.7860221 -0.014922629 -0.08479192 -0.0011109404 -0.035230488 -0.7577501 0.014536716
-0.114254855 0.01285881 -0.046978027 0.8624942 -0.017202383 0.035568677 -0.0017526097 0.039293163
-0.027033214 -0.03672727

fc3.bias f4 [10]
00000000: f213 7bbe 7a32 71bf 4f7e 373e 4934 77bf
00000010: 1c71 babe 12e0 1e3e adbe 32be a1ec 313e
00000020: df28 a53e a96c 013f
-0.24519327 -0.94217646 0.17919277 -0.96564156 -0.3641442 0.15515164 -0.1745555 0.17375423
0.32257745 0.5055643

fc4.weight f4 [5, 10]
00000000: 00f6 413e 3301 05bf 5e6b 25be 7f8e 1cbf
00000010: d928 c43e 761b 7a3e 6e12 fbbe a450 333e
00000020: 6de7 adbe ae34 033e d904 c43e 5067 a7be
00000030: 5f6d bebe df69 aebe d681 e43e 03d5 103e
00000040: c25b 8bbe 9759 ae3d 9eea cabe 5877 c5bd
00000050: d43b c03e afe1 3cbe eaf8 b1be 5144 77be
00000060: 9329 e83e 88e8 1a3e db47 8cbe 2195 c83d
00000070: e98d c4be 7ac2 9abd 74e9 693e 2a56 38be
00000080: 3ed1 0fbe 9c32 abbe d241 d93e f8a9 853e
00000090: 390a f3be f5ab 3a3e d073 a6be 8870 0f3e
000000a0: 3fa7 a33e 416b fdbd c035 58be eaaf 74be
000000b0: 9469 ee3e 296a 653e 7bea cebe d4d1 203e
000000c0: 5c68 b0be 50ee 7b3d
0.18941498 -0.51954955 -0.16154239 -0.6115493 0.38312414 0.24424538 -0.49037498 0.1751123
-0.33965626 0.12813064 0.38284948 -0.3269601 -0.3719282 -0.34065148 0.44630307 0.14143758
-0.27218443 0.08513182 -0.39632124 -0.09641904 0.37545645 -0.18445466 -0.3476022 -0.24147154
0.4534422 0.15127766 -0.2739857 0.09794069 -0.3838952 -0.07556625 0.22842962 -0.18001619
-0.14044663 -0.3343705 0.4243303 0.26106238 -0.47468737 0.18229659 -0.32510233 0.14007771
0.31963536 -0.12373973 -0.21114254 -0.23895231 0.46564925 0.22403778 -0.4041327 0.15705043
-0.3445462 0.06150657

fc4.bias f4 [5]
00000000: 972f f9bc d5a5 453e cbf4 413e afcf 69bb
00000010: 997f ad3d
-0.0304182 0.19301541 0.18941037 -0.0035676768 0.08471603
