COIL/vae/c2_v10_vae.pt (torch, 7175 bytes, 10 tensors)

fc1.weight f4 [20, 10]
00000000: ca33 17be a2a0 803c 247f ab3d a1ef 4a3e
00000010: b662 17bd a705 563e c394 ef3d ea71 dd3d
00000020: 796c 22be 4328 973e b8b0 3cbe 85e4 12be
00000030: 8ed1 8dbd 5830 5c3d e4e6 b53d cc7b 0c3e
00000040: f0e2 c5bd 1e4f 1e3e 24e4 a0be 0818 313e
00000050: 358b e43d 9683 0f3e cc02 b63e ca46 003e
00000060: f007 63bd 4367 6c3e 6590 603e 1d70 763e
00000070: 50fe c83e b812 b43e 7747 b13d ed6d e9bd
00000080: 5096 583e d36c 8bbd df69 913e 4ee7 b83d
00000090: 4ea5 b33d 5f76 73be 3800 eb3e cd0d 30bb
000000a0: c36e fd3d b5bb 1ebe 1ea3 383e e98a 99be
000000b0: 7470 323e cc94 1bbe 0cf3 9dbe 29bc cdbe
000000c0: 0622 8fbd 0634 efbe 75fc 713d 1e6e 4e3e
000000d0: 69c4 873e 4be1 88bd 3740 553e 2e6c 3eba
000000e0: 883d 8c3e 4d95 123e d2b2 53bd e15f fc3d
000000f0: 07b4 01bf f059 64be 894b 98be 20bc 84be
00000100: fcaf 6dbe 7820 123e 6df6 da3d 9e87 a13d
00000110: 1580 ba3e 45cc 393e 74cb c5be 98d9 aabe
00000120: d324 f93c 825d 82be 835a 3dbe 3df7 fdbd
00000130: 0909 963e 2263 fe3d eeee 143e 1c95 2b3e
00000140: d43c a13e f80e 603e de62 c93d 7b38 453e
00000150: c43c a33e 5f98 cbbc a26b 8a3e fdb8 f23d
00000160: 09ec 023e e9b2 9cbc c221 2b3e 5eda 6abe
00000170: 774b 46be 2367 0cbe 1e9c 25be 619d 20bd
00000180: a106 2dbe 3734 25be 387f 5dbe 235f 9bbe
00000190: b277 32be 5699 8fbe e107 c1be aab2 e53c
000001a0: e7e1 b0bd e420 73be 9903 65be 36dc 9fbe
000001b0: 0cbd 97be c715 a1be 2ba4 473e 793f a73e
000001c0: fcde 563e 1425 833c a3df 973e d5b8 62be
000001d0: e105 80be 6465 b53d 76fe d8be 195a bbbe
000001e0: 08df ae3d f089 563e b8c4 0d3e 9a3f ffbc
000001f0: a8f8 883e a51b 513e 8c1c fd3d f75a 243e
00000200: 31db 883e 9cc8 eb3b f54e 9c3e a124 4ebd
00000210: a026 603d 69d8 253e 5c58 853e 4d3d 5e3e
00000220: 5556 943d 5cc5 553e 2789 373e b538 cfbb
00000230: 7748 713d cfa3 323e 9ee8 66bb eb14 0fbe
00000240: 10ca 973e 488b 36be b415 86bd 4e4c 263d
00000250: 262e ba3d 84e4 b43c b937 0d3e eb69 d83d
00000260: a440 77be d53c a43d 9589 373e 4713 2fbe
00000270: 2556 503e 8bfa 973e aa75 00bd d314 933d
00000280: dafa 14be 9efb 223e 1b05 79be aa70 3abe
00000290: 49fc 58be a894 aabe f0cd 19bd be68 0abd
000002a0: d98b b8be bd89 1dbe 949f f23e 01b2 833e
000002b0: bf38 ea3e 2959 313d d031 5fbe c1f2 6c3c
000002c0: 2b4f f9bd a54a 0dbf fb58 e3bc dcbd b5be
000002d0: b7e3 873d afd7 e73e 935c 743d 5c6a b03e
000002e0: a9f3 4b3d c433 803c c429 4dbc 16e7 acbd
000002f0: e59f 0bbf 6fa6 a3be 5d70 95bd 517a fabc
00000300: 5a8d 30be 8624 25be 4bb9 aabe 48ac 43bd
00000310: 419c a9be 36f1 93be a8a3 a2be 0e3b 093b
-0.1476585 0.015701596 0.083738595 0.19817974 -0.036959372 0.20900594 0.11698296 0.10812743
-0.15861692 0.29522905 -0.18426788 -0.14344986 -0.06924735 0.05375704 0.088819295 0.137191
-0.096624255 0.15459868 -0.31424057 0.17294323 0.11159364 0.1401504 0.3554901 0.12527004
-0.05542749 0.23086266 0.21930082 0.24066205 0.39256525 0.3517053 0.08656209 -0.1139792
0.2115109 -0.06807866 0.28401086 0.09028493 0.08771764 -0.23775624 0.45898604 -0.0026863695
0.12374642 -0.15501292 0.18030974 -0.29988793 0.1742571 -0.1519348 -0.30849493 -0.40182617
-0.06988911 -0.46719378 0.059078652 0.20159194 0.26517037 -0.06683596 0.20825277 -0.0007264045
0.27390695 0.14314766 -0.05168421 0.12322975 -0.50665325 -0.22299933 -0.2974513 -0.25924778
-0.23211664 0.14270198 0.10691533 0.07887195 0.36425844 0.18144329 -0.38631785 -0.33369136
0.030413067 -0.25461966 -0.18491559 -0.124006726 0.29303768 0.12421252 0.1454427 0.167561
0.3149172 0.2188071 0.098333105 0.19259827 0.31882298 -0.02485293 0.27035242 0.1185169
0.12785353 -0.01912828 0.16712096 -0.22934863 -0.19364725 -0.13711219 -0.16172835 -0.03921259
-0.1689706 -0.161332 -0.21630561 -0.3034602 -0.17428473 -0.28046674 -0.37701324 0.028039295
-0.086368375 -0.23743016 -0.22364654 -0.31222695 -0.2963642 -0.31461927 0.19496219 0.32665613
0.209835 0.016008891 0.2966281 -0.2214082 -0.25004485 0.08857229 -0.42381638 -0.36592177
0.085386336 0.20951056 0.13844573 -0.031158257 0.2675221 0.20420702 0.123589605 0.16050325
0.2672973 0.0071955454 0.3052899 -0.0503279 0.054724336 0.16195835 0.26043975 0.21703072
0.07243029 0.20876068 0.17923413 -0.0063238987 0.058907 0.174453 -0.0035233865 -0.13972823
0.2964635 -0.17826569 -0.06547108 0.040600114 0.09090833 0.022081621 0.13790788 0.10567077
-0.24145752 0.08019415 0.17923577 -0.17097197 0.20345362 0.29683337 -0.031362213 0.07181706
-0.14548817 0.15916297 -0.24318354 -0.1820704 -0.21189989 -0.3331654 -0.037549913 -0.033791296
-0.36044195 -0.15384574 0.47387373 0.25721744 0.4574642 0.04329792 -0.21796346 0.014462174
-0.12173303 -0.55192024 -0.02775239 -0.35496414 0.0663523 0.4528174 0.0596586 0.34456146
0.04979292 0.015649684 -0.012522165 -0.08442514 -0.54540855 -0.31962916 -0.07296822 -0.030575903
-0.17241421 -0.16127214 -0.33344492 -0.047771722 -0.33127025 -0.28894967 -0.31765485 0.002093974

fc1.bias f4 [20]
00000000: 65c8 6b3e 02b5 99be ff18 1fbe f046 a63e
00000010: d673 603e 9f5c 08bf d3e3 1f3f c0ac 583f
00000020: f50c 84bf ebde 62bf 8f55 b03d f56f 043f
00000030: f3f0 b7be 7505 c8bb 80dc 7a3f e321 183f
00000040: f897 26bf 8486 1e3f f095 053f bd91 9dbe
0.23025663 -0.3002091 -0.15536879 0.32475996 0.21919188 -0.5326633 0.6245701 0.84638596
-1.0316454 -0.88621396 0.08610069 0.5173333 -0.35926017 -0.006104166 0.97992706 0.5942671
-0.65075636 0.61924005 0.5218191 -0.30775252

fc21.weight f4 [10, 20]
00000000: 095e 98bc a6ab 5e3e 8dc3 18be a4bb b63d
00000010: 7f9b adbc e1d9 473c a2d8 eabd f4a2 9dbd
00000020: e932 ff3a d483 8a3b 8e75 1a3e b337 72be
00000030: 8ae6 b13b 39f3 603b 31ed a73d 6f66 d83d
00000040: 9df3 09bd d66d c53b c88f 843d af61 0bbc
00000050: a11c f9bb 227b 463e 5b9a b33c 48f5 033c
00000060: 0460 a1bd 68bc 53bd b24a dabc dcd7 e63d
00000070: 7221 8e3c 0ab5 51bc 54cc 0bbd 74bc acbc
00000080: ae66 353d bce5 933d aa16 d4bd 9a06 24be
00000090: 5340 d53b 5031 843d 1984 b33a 5198 8a3b
000000a0: 6e48 953c 1405 bf3d 394a dbbd 3386 20be
000000b0: 1004 edbc b157 97bd 8eee a5bc 665d ef3d
000000c0: 33a2 41bc fcb7 58bb 5f41 243c ab31 54bd
000000d0: 1efa b43d 27e1 153e 03b8 27bc fd90 483e
000000e0: 4ba0 9d3d 6814 0e3e d654 39bc 54e8 81bb
000000f0: b695 1a3e 7fbe 51be c7ad bfbd 6580 9fbe
00000100: 8dc5 99bd cf81 c5bd 13b5 f03d d2c1 ebbd
00000110: 87a5 813d 05d3 893d 108c 1fbc 2d73 583d
00000120: cb50 f43d d560 cf3d df44 763e a2f7 b43d
00000130: 177b bb3c 2da6 363e 2df7 91be 8aed 863d
00000140: 4809 67bc 460f 4a3e c678 14be 8327 d03e
00000150: 1513 fd3d 7a69 563d c743 a0ba fa55 a7bd
00000160: ffc0 8abc d9e9 d5bc df5c d13d e361 9cbc
00000170: 7c6a 78bd 4818 0fbd 03f0 b4bd 4459 aa3d
00000180: 816a 35be c808 c5bd cce4 eb3c bb2b 9fbc
00000190: db70 7bbd e80a 073d 8f09 4bbd df52 1a3e
000001a0: cd22 aabd 6298 7fbb 0914 de3d 5b8e 4fbd
000001b0: 3aee c2bc cb81 133d c24a ab3d 4bab 46bc
000001c0: 13da ef3c 649a 843c 3ff9 95bc d7ac 7e3d
000001d0: 9fcb 2abd 659b b63b 8390 d43c 630d 92bb
000001e0: c18b b1be 6874 8ebd c741 cebe 2589 5fbd
000001f0: 0266 493f 1fae 28bf 35c1 7bbf 91d5 49bf
00000200: 6302 a6bf b4e6 bbbf 5b7d acbd 546c 8f3f
00000210: 213c 60bd eb16 6e3c 34a1 063e 4f34 8bbd
00000220: 60f1 1cbf 7fad 1240 311c e43f e05d 6a3d
00000230: dd96 6bbe 48dc ce3c f14e d4be 3765 4abe
00000240: 628a d43d 621f 00bf 14f1 9a3d 8292 1d3e
00000250: ceb0 81bf 4b84 8d3f b3b8 d13e f106 8c3d
00000260: 28f5 a6be 9f3b 1ebe 3dfc f7bc 34ab 63be
00000270: 2657 113f f7ac 7ebc 1e1d 90bd f8d7 5d3e
00000280: f663 81be 50e6 78bc 6476 e1bd 7053 d43d
00000290: 30a5 4bbd 6f78 1ebc 7248 803d 911a 86bd
000002a0: 6ba1 32bb bc0b 16bb ae15 0d3d 8cfb 05bf
000002b0: 382d 023d 840c ef3d 17da 3ebe 8355 303e
000002c0: 6392 6e3d 33c8 083e 5ee1 b43e bd3f 693c
000002d0: 2ef4 2bbd a82a e73d 8b00 813d 5f70 14be
000002e0: d59c 023d b585 033c 901a 993d bcae ffbc
000002f0: 162d d53c 4d14 b9bc 49e6 9ebd 1d65 853c
00000300: 5c13 eebc fb19 4c3d 1b7c 5fbd 15f6 323d
00000310: 3c72 dd3d 44e5 493a 275b 593d 07e8 cebc
-0.018599527 0.21745166 -0.14918347 0.08922508 -0.02119231 0.0121979425 -0.11467101 -0.076970965
0.0019470128 0.004227141 0.15083906 -0.2365406 0.0054290937 0.003432466 0.081995375 0.10566413
-0.033679593 0.0060250564 0.064727366 -0.008507176 -0.00760229 0.19382909 0.021924188 0.008054085
-0.07879642 -0.05169335 -0.026646946 0.11271641 0.017349932 -0.012799511 -0.03413041 -0.021085955
0.044287376 0.07221553 -0.10355885 -0.16018143 0.006507912 0.06454718 0.0013695984 0.0042295833
0.018223014 0.093271405 -0.10707516 -0.15676193 -0.028932601 -0.07389773 -0.020255353 0.11687736
-0.011818456 -0.0033068648 0.010025351 -0.05180518 0.088367686 0.1463667 -0.010236743 0.19586559
0.07696589 0.13874972 -0.01131173 -0.0039644632 0.15096173 -0.20482825 -0.09359317 -0.31152645
-0.07508383 -0.096439 0.11753287 -0.11511578 0.063304 0.06729702 -0.009737983 0.052844215
0.119294725 0.10125891 0.2404971 0.08836295 0.022885842 0.17836829 -0.28508893 0.06588276
-0.014101334 0.19732389 -0.14499196 0.40655145 0.12357155 0.052346684 -0.001222723 -0.081706956
-0.01693773 -0.026112484 0.10222792 -0.019089645 -0.060648426 -0.034935266 -0.08834841 0.08317807
-0.1771641 -0.096208155 0.028795622 -0.019430032 -0.061386924 0.032969385 -0.049569663 0.15070675
-0.08307419 -0.003900074 0.10843665 -0.05067287 -0.023795236 0.036012452 0.08363868 -0.0121258
0.02927879 0.0161869 -0.018307326 0.06217655 -0.041698094 0.0055727237 0.025947815 -0.004457162
-0.34676936 -0.069557965 -0.4028456 -0.05457415 0.78671277 -0.6589069 -0.98341686 -0.788415
-1.2969478 -1.467978 -0.08422347 1.1204934 -0.054744843 0.014531831 0.13147432 -0.067970864
-0.6130581 2.2918394 1.7821103 0.057218432 -0.23006769 0.025251523 -0.41466478 -0.19765173
0.10377957 -0.50047886 0.07565513 0.1538792 -1.0132082 1.1055998 0.40961227 0.068372615
-0.32608914 -0.15452431 -0.030271644 -0.22233278 0.567736 -0.015544168 -0.07036804 0.21664417
-0.25271577 -0.0151916295 -0.11008909 0.10367477 -0.049718082 -0.009672268 0.06263818 -0.06548036
-0.0027256857 -0.0022895178 0.034444503 -0.52336955 0.031781405 0.11672309 -0.18637882 0.1722012
0.058245074 0.1335762 0.35328192 0.014236388 -0.041980915 0.11287433 0.06298932 -0.14495991
0.031887848 0.008027484 0.074757695 -0.03121125 0.026022475 -0.022592688 -0.07758767 0.016283566
-0.029061966 0.049829464 -0.054561716 0.043691713 0.10812804 0.0007701705 0.053065445 -0.025257124

fc21.bias f4 [10]
00000000: 506a 603d 6d98 b23d 407a 39be a8f1 40be
00000010: 348f 6e3a 1a59 ddbd c8a6 343e 9930 6e3d
00000020: 938f 093e f79c 103d
0.054788888 0.08720479 -0.18113041 -0.18842185 0.00091003184 -0.108080104 0.17641747 0.058151815
0.13433675 0.035305943

fc22.weight f4 [10, 20]
00000000: cd27 5f3d aca1 16be 08a8 223d eb9c 10bd
00000010: 21ac 423c 41c6 1bbd 6ddc 7c3c 6ae0 1f3e
00000020: 7359 003d c08b 9a3c eef6 cabd 893a 0a3e
00000030: ef42 ca3c cbbf 7f3d 80e0 8fbd 2945 efbd
00000040: 4745 6bbc ad59 643d e680 6ebd c79a 853c
00000050: a0e4 25bd e080 cbbd 61ff a73d 1d0a b83d
00000060: 9155 2c3b dc26 a33b e681 5b3d 55cd fd3d
00000070: 50a4 263b 7f0e 8a3c 558a 7dbd 8225 d53b
00000080: dd84 e5bb 95ae a8bc eed1 c7bb 2ed1 fabd
00000090: b74f 0bbd e336 333d e8df df3d fe15 d83b
000000a0: 7a3f ec3a 38da d63d b5c2 99bc ce1d 673b
000000b0: 9cb0 5cbd 712b 24bd 7d9d 56bd 22da c93d
000000c0: 6c00 223a ff06 403c 0b73 383c 2809 dc3d
000000d0: 5de4 033d 2c77 7b3d f534 313d 0a45 95bd
000000e0: a1a9 5f3b 16f7 85bb 63b0 85bd e082 4fbc
000000f0: e18d 8cbd c6ac 243e 1d87 40bd 4d9e 883e
00000100: c9ef 26bd 10b0 b2bb d376 963d 051c ce3d
00000110: 397b b2bc c36b 8fbc 267a 533d 5637 093d
00000120: c741 d13b bc82 273d 2c8a 4abc 3ddc e9bc
00000130: 4146 71bd ef37 483d 5795 f13c 4ed0 17bd
00000140: 4491 a13d f8ce 2a3d ac7c 12bd ab4e 383d
00000150: 89cd 9bbc 6647 35bd eb9f 81bd 85c4 9b3d
00000160: 2de5 e73b dbf0 75bc ee44 6e3d 51f4 743d
00000170: 0020 5e3d 760d 1cbd 3ebf debd 3d22 983d
00000180: 1a27 44bd 54a7 623d dc24 bdbd 59ae a3bb
00000190: 08d0 393d f015 263e 63eb 2a3b be28 0fbd
000001a0: 3737 053d eede 443c 7181 f1bd 40d5 d93d
000001b0: 0ccd 943c e5b3 903a dca0 013d ee3a c6bd
000001c0: 3ed8 38bc 34fd 9dbd 87aa db3c 655d d83d
000001d0: 8341 26bc 2e0b 9e3c b7a7 d93c 3f91 193c
000001e0: 8291 1ebe 42f7 153e 4924 493e 3ebe 093c
000001f0: 74df 2f3d 298c 7e3f 590a 9e3b 835b bcbe
00000200: fa98 1d3f 2ffd 593f 3154 843d ea97 82bc
00000210: d60c 153e b988 d1bd 9e16 84be 7000 9dbe
00000220: 644c eb3e b82a fdbd 7995 e3bc c227 bfbd
00000230: 3728 1cbf 00a5 94bd e668 373f a330 1bbe
00000240: f1d9 81be 8a03 683f 3452 6abf c442 b1bf
00000250: 4148 c13f c2ca d23f b094 073f a639 e2be
00000260: 2137 e43e 7cd0 0c3e 3c0a b7bf 8fca 7cbf
00000270: 552e 803f 943a 4abf f091 30bf b1e4 003f
00000280: 1e72 13bd d454 993d dd50 9bbc eb4c 90bc
00000290: c6c3 0cbd 2e57 6fbd 213e 4abc b230 123e
000002a0: ecc4 893c b5b1 353d 81ee 9abd 5d2d 263d
000002b0: 7caf 9a3d 27ea d83d da22 2b3e 93b7 4dbe
000002c0: 89e7 e93a 37ba 1fbd e94e 713d 5945 e23c
000002d0: d19b cc3c f77d 4dbe 8ad7 ebbc cfa5 cfbd
000002e0: 5969 9b3d 7622 22bd 0f94 d9bc 7742 043e
000002f0: fbfd 873c 16c8 c13c eda1 e9bd 82fa a53d
00000300: 383f 113d 3c90 003e 22bb ed3d 83b4 80bd
00000310: 033f 493b 7235 9cbc b132 e6bc 654e 053d
0.054481316 -0.1471011 0.03971103 -0.0353059 0.011881859 -0.038030867 0.015433413 0.15612951
0.031335305 0.018865466 -0.09910379 0.13498892 0.02469012 0.062438767 -0.07025242 -0.11683113
-0.014359779 0.055749584 -0.058228396 0.016309155 -0.040501237 -0.0993669 0.082030065 0.08986304
0.0026296119 0.0049789976 0.053590678 0.123926796 0.0025427528 0.016852615 -0.0618995 0.0065047154
-0.007004364 -0.02059106 -0.0060980236 -0.12246929 -0.03401157 0.043753516 0.109313786 0.0065944185
0.0018024289 0.10490841 -0.018769601 0.0035265568 -0.053879365 -0.04008049 -0.052396286 0.09856059
0.00061798724 0.011720418 0.011257897 0.10743934 0.032200206 0.061392948 0.043263394 -0.07288559
0.0034128206 -0.004088293 -0.06527784 -0.01266548 -0.06862999 0.16081533 -0.047003854 0.26683274
-0.04075602 -0.005453117 0.07346883 0.10063938 -0.021787273 -0.01750744 0.05163016 0.033500038
0.006386015 0.040896162 -0.012362044 -0.0285474 -0.05890489 0.048881467 0.029490156 -0.03706389
0.07889035 0.041701287 -0.035763428 0.0449969 -0.019018905 -0.044257544 -0.0632933 0.076058425
0.0070768804 -0.015011038 0.058171205 0.05980331 0.054229736 -0.038098775 -0.1087632 0.074284054
-0.047888853 0.055335358 -0.09235546 -0.004995149 0.04536441 0.16219306 0.0026080243 -0.034950964
0.03252336 0.012016041 -0.11792267 0.10636377 0.01816418 0.0011039941 0.031647548 -0.09679209
-0.011282025 -0.0771431 0.026814712 0.105646886 -0.010147455 0.01929244 0.02656923 0.009373008
-0.15485194 0.14645103 0.19642748 0.008407174 0.04293771 0.9943262 0.004823011 -0.36788568
0.6156155 0.8515195 0.06461371 -0.015941579 0.14555678 -0.10231156 -0.25798506 -0.30664396
0.4595672 -0.123616636 -0.027781235 -0.09333755 -0.60998863 -0.07258034 0.7164444 -0.15155272
-0.2536159 0.906304 -0.9153168 -1.38485 1.5100175 1.6468127 0.52961254 -0.44184607
0.4457331 0.13751405 -1.4299998 -0.9874658 1.001414 -0.78995633 -0.6897268 0.50348955
-0.035997503 0.07486883 -0.018959457 -0.017614802 -0.03436639 -0.05843275 -0.012343914 0.14276388
0.016817532 0.044358928 -0.07565022 0.040570606 0.07553002 0.10591536 0.16712514 -0.2008956
0.0017845492 -0.038995948 0.058913145 0.027620958 0.024976643 -0.20067583 -0.0287893 -0.10139047
0.07588453 -0.039583646 -0.026559858 0.1291598 0.0166006 0.023654979 -0.11407838 0.08104421
0.03546068 0.12555021 0.116079584 -0.0628443 0.0030707724 -0.019068453 -0.028100343 0.032545466

fc22.bias f4 [10]
00000000: 84b4 a1bd f065 26be ab04 9cbd 4d67 87be
00000010: ccfa 8bbc 25e6 bcbd 125b 86be 2535 8fbf
00000020: 2a48 2bbe 9c3b 2bbe
-0.07895759 -0.16249824 -0.07618078 -0.26446 -0.017087363 -0.09223584 -0.26241356 -1.1188093
-0.16726747 -0.16721958

fc3.weight f4 [20, 10]
00000000: cebf 17ba fad2 a9ba e9eb 2b3c 5978 423b
00000010: 96d9 4abb d444 4cbc 954d 1fbe ae8b 4dbc
00000020: 9339 b83c 5957 80bb d57b e13c cd77 ea3c
00000030: 9399 35bc bbff a43d ad59 f5bc 4627 2abb
00000040: cc62 02be 2d59 153e 620a b73b 411f 593c
00000050: 705d 44bb 9594 603a d30c 173c 354f 2cba
00000060: a36d 1d3b efe0 f0b9 6aff 843d 3379 4f3f
00000070: 2921 fd3b 549e 7a3a c52a 29bc 3012 113b
00000080: b7e2 e7ba ce50 85bc 42f7 ad3b d8c2 ac3b
00000090: 219a 8b3b 7f70 18bf 0ed4 2ebb bc2f 3dbc
000000a0: 3739 82bd cda9 88bd ae98 123d cba1 18be
000000b0: 5ca6 913d 1e6b dd3c e170 0ebd 9e60 1abf
000000c0: ac32 ba3c b20a cdbc e9b6 0bbc b5f5 e33b
000000d0: cfa3 4a3c ef6a 313c 2503 543b cb10 b73b
000000e0: 70ef 18be f419 093f 65c8 a63b 34e1 433c
000000f0: 18d4 253d ca0c 413d 638b b1bc ac2d c73d
00000100: 77d3 48bd 59b5 82bc d98a a7bd 2699 38bf
00000110: 0abf 5abc e7cb 923c ea10 7d3d d05d 1abd
00000120: 042a 823c da97 a1bd 7678 18bb 37f7 00bc
00000130: 0590 2ebd 8e95 06bc 9ad9 313d 0c86 c43c
00000140: deef 9f3c b080 d3b7 e343 6f3c a80b 683c
00000150: 0dd6 0ebb f8b8 083c ef47 693e 95b2 0abf
00000160: 84dd 2d3d 366d 633b c43a b9ba 9725 fa3b
00000170: 2dcd 583c b879 183c f504 8abc 5797 2e3c
00000180: 551a b73d ae6f a23e a8f1 6dbc b351 fc3b
00000190: 2ce1 35bd d717 52bd c015 ef3c db4e e4bd
000001a0: 8b87 693d f958 b73c 922a 933d 2bdd 4b3f
000001b0: 016c db3c b61f 48bc 63ea f03b 3bab 3cbc
000001c0: 4885 303c 1f03 b03b 96c1 7e3c 4dcf 8d3c
000001d0: 607d b2bd 40c7 37ba c712 503d b0c2 28bb
000001e0: 4351 2cbc c773 c83b 8981 f9bb 6875 ae3b
000001f0: 63bb d03b d448 f0b8 93c8 debd f30c 92be
00000200: cf53 d33b 77ff 91bc 988c 61bc 7b60 0ebc
00000210: d421 31bb 9bdd c8bc 51ca 2c3c 44b8 5fbb
00000220: b291 06be 1c91 79bd dbcb 94bc ec4e 20bb
00000230: 68f3 013d e975 c2bc 8ff8 163c 17fc 18bd
00000240: ea2d 73bb a673 733c 894f eebc f30b 11bd
00000250: 1ea2 cc3c 9f29 633c 1ef2 ccbc b3f8 00bd
00000260: 46a2 973c 0529 8dbd 7d46 1e3d cbd7 0e3c
00000270: ca15 713d 2185 ed3e 1bc8 a23b d876 55bc
00000280: 71c4 f63c 6990 273d 88e4 aebc 5541 a53d
00000290: f5be 41bd 3a70 8cbc 93db 7dbd 3c89 1ebf
000002a0: c141 82bc 7f78 b43c 1c23 5438 273b 823b
000002b0: de86 39bc fb2e 9e3a 7ec2 503b c7dd 053b
000002c0: 3db6 e8bd c455 20bf e8ea daba 6a69 bd39
000002d0: 7b6d 693d 9e97 8a3d e17e 06bd 05cb 093e
000002e0: bde4 94bd 2ea5 99bc 3bcc 533c 7f9b 0f3f
000002f0: ae50 b6bc 530a 863c 1aee bcbc fc43 643b
00000300: 28d5 1dbc b20c c3bc 9165 133b 07e4 f6bb
00000310: 8cca 5bbe 3952 0b3f 3958 3abd 795b 52bb
-0.0005788774 -0.0012956553 0.010493257 0.0029673784 -0.0030952445 -0.012467582 -0.15556939 -0.012545509
0.022488391 -0.0039166627 0.027524868 0.028621579 -0.011083978 0.08056589 -0.029949987 -0.002596335
-0.12733 0.14584799 0.0055859545 0.01325208 -0.002996292 0.00085670623 0.009219366 -0.0006573082
0.0024021647 -0.00045943956 0.06494029 0.8104431 0.0077249003 0.0009560336 -0.010325138 0.0022136085
-0.0017691468 -0.016273882 0.0053090164 0.0052722506 0.004260317 -0.59546655 -0.0026676687 -0.011547025
-0.06358569 -0.06673012 0.035790138 -0.14905469 0.07111809 0.027028617 -0.03477562 -0.60303676
0.02272924 -0.025029514 -0.008527496 0.006956781 0.012368157 0.010828718 0.0032350507 0.0055867187
-0.14935088 0.53555226 0.005089807 0.011955548 0.04048547 0.047131337 -0.02167291 0.09725508
-0.049029794 -0.015955614 -0.0818078 -0.72108686 -0.013351211 0.017919494 0.06178371 -0.037687123
0.015889175 -0.078902915 -0.002326516 -0.007871441 -0.042617816 -0.008214368 0.04342041 0.0239897
0.019523557 -2.5213085e-05 0.014603588 0.014162935 -0.0021795065 0.008344881 0.22781347 -0.54178745
0.042447582 0.0034702546 -0.0014131893 0.0076338756 0.0132325115 0.009306364 -0.016848067 0.010656199
0.08940569 0.3172583 -0.014522947 0.007700169 -0.044404194 -0.051292267 0.029185176 -0.11147853
0.05701403 0.022381293 0.07185854 0.7963435 0.026784899 -0.012214592 0.00735216 -0.011515434
0.010773964 0.005371466 0.015549084 0.017310763 -0.0871532 -0.00070105866 0.050799157 -0.0025750808
-0.010517421 0.0061173174 -0.0076143187 0.0053240545 0.0063699945 -0.00011457657 -0.108781 -0.28525504
0.0064491997 -0.01782201 -0.01376643 -0.008689995 -0.002702822 -0.024519732 0.010546283 -0.003413693
-0.13141516 -0.060929403 -0.018163612 -0.0024461104 0.03172627 -0.023737865 0.009214534 -0.037349787
-0.0037106224 0.014859116 -0.02909066 -0.035411786 0.024979647 0.013864904 -0.025017794 -0.031487178
0.018509995 -0.068925895 0.03864144 0.008718441 0.05885867 0.46390632 0.004967702 -0.013028823
0.030122967 0.040909205 -0.021349207 0.08069102 -0.04730125 -0.017143358 -0.06197698 -0.61928153
-0.015900495 0.022030113 5.0577437e-05 0.0039743367 -0.011323659 0.0012068445 0.0031854208 0.002042638
-0.11362884 -0.6263087 -0.0016702088 0.0003612743 0.056989174 0.067672 -0.032835845 0.13456352
-0.07270191 -0.018755522 0.01292711 0.56096643 -0.022255268 0.016362345 -0.023062754 0.003483056
-0.00963334 -0.023809765 0.0022490958 -0.007534507 -0.21463984 0.54422337 -0.045494292 -0.003209798

fc3.bias f4 [20]
00000000: 6dbe a33e f72e 1c3f d633 aa3e e69c 183e
00000010: 8e51 28bd e468 fbbe 828c e03d fbe3 85bd
00000020: 5051 90bd b7a3 c0be c1b4 bcbd d2e0 833e
00000030: cddf a3be 3858 d63e ba1b babd d041 9dbd
00000040: 686c 683d 7b54 9dbe 7848 433d 7696 483d
0.3198122 0.6100916 0.33242673 0.14903602 -0.0410934 -0.49103463 0.109643 -0.065376244
-0.07046759 -0.37624905 -0.092141636 0.25757462 -0.32006684 0.4186418 -0.0908732 -0.07678568
0.05674401 -0.30728516 0.047676533 0.048971616

fc4.weight f4 [10, 20]
00000000: 4f09 3ebd 8f83 8fbe 4282 8dbe dac3 a7bc
00000010: 9cef df3d 06b8 f4be 093c 7f3e aa80 adbb
00000020: 29f2 153e 76b8 803e 4ce5 80be 4183 bbbc
00000030: d3f7 dfbc 1fe5 08be fbf1 aebb f71a 84bd
00000040: cfb9 a63d 0198 db3d 1765 02be 2021 67be
00000050: 5fce 82bd 6157 f4bd 6b59 62be 952a 823d
00000060: d0ae f93d c5ca 74be 14d5 0d3e d2e8 8bbb
00000070: 67b1 6f3e 1817 963e 97bb 68be bd8d bbbd
00000080: a0ad 3bbd ad5d a03c b0ce a9b9 d1d5 93bc
00000090: 1001 f03d e443 cf3d 9641 18be a397 8fbe
000000a0: 5d2e 59bd 2c41 24be 82fa 3bbe 6c9f 883d
000000b0: c922 ff3d 8b51 f7bd 6213 783e 2eef 573c
000000c0: 96d0 563e 0beb 5b3e 7bc2 63be 4b29 60bd
000000d0: 0eed 173c e68c ad3c 525d 24bc 800f 8abd
000000e0: 2bb7 3f3d 16ea a63d f465 0dbe fafe 64be
000000f0: 76cb 32bd 1ad6 7ebe 425c 10be bd6e ff3d
00000100: 47f5 a13d b80a e1bc adff 253e 0e3b 5239
00000110: be96 283e 79e1 163e e211 7fbe 3826 443d
00000120: 1126 c43b cae5 d83d 7c44 0dbb 5d10 83bd
00000130: bb9b 323e a85c 3b3d 2f56 a9bd 1129 3dbe
00000140: 6d94 12bd b8d7 10be b684 0ebe a97c fe3d
00000150: cd1d 103e e618 21bd 25a7 583e 0545 b43b
00000160: 6aa3 083e bbaa 653d 2103 65be 3bcd 203c
00000170: 2c67 803d d7fb 9e3d df68 d23a 669b ecbd
00000180: 956b 013e dd22 413d 582c 1dbe a7ff 17be
00000190: b80c 583b 79dc 97bd 02e4 3dbe 51d0 133e
000001a0: 3662 263e 033f a6bc 43ee ff3d bf06 b6ba
000001b0: 0487 a73d 16c5 92bc fc38 67be 12af ccbb
000001c0: 54c9 a63c d80d e83c a735 a8bb acd5 99bd
000001d0: 1216 4e3e 4ef3 c73d 95c8 32be 3d7c d7bd
000001e0: f84f f03c 99f8 86bd b863 39be e2a5 123e
000001f0: 33d6 313e 7282 5b3b 7534 4b3e 4f63 8abc
00000200: 7c2b 703d 6242 a1bc 161f 5fbe bdcf 273c
00000210: e60e ac3d ccf6 093d 73db 443c 4168 cabd
00000220: 1de5 033e a00f 223e 9028 3bbe 7cdf 83bd
00000230: c5ea 0a3d 9412 a33c c073 3fbe 7bef 303e
00000240: cd14 563e 08b0 0f3d 63d2 143e 987e 45bc
00000250: 7505 1e3c b7b7 30bd 876b 5cbe 467d d5bb
00000260: 01c5 9e3d e8dc 25bb aa29 803c 2406 aebd
00000270: e0b7 303e fb34 333e c78f 5fbe 1cc7 eabc
00000280: ed30 1f3d 9866 da3c 995e 21be 2c7a 723e
00000290: 316d 1e3e e9cc 093d 49ec 1a3e a401 48bc
000002a0: 7081 c83d 405d e5bc 2528 52be a5bd d83b
000002b0: b3b6 793e 9692 833e e6bf 61bb 1c0c 35bd
000002c0: b6b9 093e 39c5 593e e5cf 26be 7952 03be
000002d0: f897 383d 7559 f2bd 11fd 0ebe d806 833e
000002e0: 7831 3d3e bf2f 263d a309 953e 4379 00bd
000002f0: a2a0 90bd 88d7 1dbd 1f5c 74be f7b0 d83d
00000300: 2137 e63e 6cf8 df3c 3b7b 403d 991f 36be
00000310: 91d6 033e e676 9c3e 6021 44be cafc 033d
-0.046395596 -0.2803006 -0.2763844 -0.020479131 0.10934374 -0.4779665 0.24925245 -0.005294879
0.14643158 0.25140733 -0.2517494 -0.022889735 -0.027339851 -0.13368653 -0.005338905 -0.06450456
0.08140909 0.10722352 -0.12733875 -0.2257123 -0.063870184 -0.11930729 -0.22104423 0.06355778
0.12191546 -0.23905475 0.13850814 -0.0042696977 0.23407517 0.29314494 -0.2272781 -0.09157894
-0.04581988 0.019575918 -0.00032388186 -0.018046292 0.11718953 0.10120371 -0.14868769 -0.28045377
-0.05302273 -0.16040486 -0.1835728 0.06671032 0.124578066 -0.120761 0.24226144 0.0131795835
0.20978007 0.2147638 -0.22242157 -0.05472688 0.009272827 0.02118535 -0.010032015 -0.06741238
0.046805542 0.08150117 -0.13808423 -0.22362891 -0.043651067 -0.24886361 -0.14097694 0.124722935
0.07908111 -0.027470931 0.16210814 0.0002004916 0.16463754 0.14734448 -0.24909166 0.04788801
0.005985983 0.10590704 -0.0021555712 -0.063996054 0.17442219 0.04574266 -0.08268391 -0.18472697
-0.03578608 -0.1414479 -0.13917813 0.12426121 0.14073868 -0.039330386 0.2115751 0.005501392
0.13343588 0.056071024 -0.22364475 0.009814556 0.062696785 0.077628784 0.0016052983 -0.115530774
0.12638696 0.04715239 -0.15348947 -0.14843617 0.0032966565 -0.07415099 -0.1854401 0.14434935
0.16248402 -0.020293718 0.12496617 -0.0013887509 0.08180049 -0.017916244 -0.22580332 -0.006246456
0.020359673 0.028326914 -0.005133349 -0.07511458 0.20125607 0.097632036 -0.17459328 -0.105217434
0.029335007 -0.06590385 -0.18104446 0.14321092 0.17366867 0.00334945 0.1984423 -0.016893057
0.05863522 -0.019684974 -0.21789202 0.0102424 0.08401279 0.03368263 0.012015211 -0.09883166
0.12880369 0.15826273 -0.18277192 -0.06439111 0.0339153 0.01990632 -0.18696499 0.17278855
0.20906372 0.035079986 0.14533381 -0.012054108 0.009644856 -0.043143954 -0.21525393 -0.006515178
0.07752419 -0.0025308672 0.015644867 -0.08497265 0.17257643 0.17500679 -0.2183219 -0.028659396
0.03886502 0.026660249 -0.15758742 0.23679417 0.1547134 0.033642683 0.15129198 -0.012207422
0.09790313 -0.027998567 -0.20523126 0.0066144043 0.243861 0.25697774 -0.0034446656 -0.044201
0.1344975 0.2126664 -0.16290243 -0.1282443 0.045066804 -0.11833469 -0.13963725 0.2559116
0.18475902 0.040572878 0.29108915 -0.031365644 -0.07061888 -0.038535625 -0.23863266 0.10580628
0.44963935 0.027340136 0.04699252 -0.17785491 0.1287482 0.30559462 -0.19153357 0.0322235

fc4.bias f4 [10]
00000000: 7c47 013e e17a 283d 3ec7 a33d 606c c83d
00000010: 5b9a 9d3d 369b 933d 1e1c c53d c57b bc3d
00000020: a07a b83c aabe 433e
0.12624925 0.04113281 0.07996987 0.09786296 0.076954566 0.072073385 0.096245036 0.09203295
0.02251941 0.19115701
