COIL/vae/c2_v7_vae.pt (torch, 5127 bytes, 10 tensors)

fc1.weight f4 [14, 7]
00000000: 42a0 123b ece6 bc3d 820f f43b 4967 a1bd
00000010: 8da7 143f b23a b4bd 44bd b63e cd79 c03d
00000020: c0da e2be c273 eebe 7403 763c 9f76 f6be
00000030: 4071 02be 0001 ccbd ee63 96bc d8fc f4be
00000040: 3483 7bbe d648 ab3c 3532 febe 90dd dcbe
00000050: 2453 0cbf 9fd9 873e fdb1 383e cbc4 403e
00000060: 1a13 dc3d 3445 25be 200e 853e d3bd 85be
00000070: adfa 44be f346 953c 860e b6be 0ec3 a9be
00000080: 2c5f 99be af76 04bf 0af8 1dbd fa1d 3abe
00000090: 187c 0e3e 23e2 8bbe 0d16 5b3e 14f5 043d
000000a0: 206e 863e bf2e 63be 1206 483e 24a4 27be
000000b0: e086 c33d fd6a 983e 78b1 963d 4972 97be
000000c0: 58a6 d3bd 7149 a53e 91d7 c53e 9fc2 1dbc
000000d0: 5d6a 0b3f 6760 023e e7d0 dd3e 63db 043f
000000e0: 7bd4 42bd ac11 e73e cc7f f03e 0162 9d3e
000000f0: b1c4 923e 2758 32be ded6 943e 9a46 31be
00000100: 38d8 95be 742a d7be 0c10 54bb 11fa 773e
00000110: e332 a1be 3f5f e9bc 1b73 063e 7fb8 a4bd
00000120: f948 343e 225b aa3e 9424 e3bd 71e1 1f3e
00000130: 9ccb 9f3d 1400 15be eb04 143d 93c5 03be
00000140: 9e94 2f3e 997f 423e 4a17 533d 9d80 2ebe
00000150: d030 fb3d 4de2 eb3c 9b99 533e f1f2 e43d
00000160: ed49 e1bc 00f6 cd3d 39d0 9b3c 4d65 d63c
00000170: 82fb a7bd deee fcbd 2a28 d6be f615 80be
00000180: 8bab 0cbe 8f83 67be
0.0022373353 0.09223732 0.0074481377 -0.07881028 0.5806816 -0.08800258 0.35691273 0.09398232
-0.44307518 -0.4657269 0.015015472 -0.48137376 -0.12738514 -0.09961128 -0.018358197 -0.47849154
-0.24561769 0.020908754 -0.4964768 -0.4313779 -0.5481436 0.2653322 0.18036647 0.1882507
0.10745831 -0.1613968 0.2598734 -0.26121387 -0.1923625 0.018222308 -0.35557956 -0.33156627
-0.29955423 -0.51743597 -0.038566627 -0.18175498 0.13914526 -0.27320966 0.2139513 0.032460287
0.26255894 -0.22185801 0.19533566 -0.16371208 0.0954721 0.29769126 0.07358068 -0.2957938
-0.10334462 0.32282594 0.38641027 -0.009628921 0.5445917 0.12732087 0.43323442 0.5189726
-0.04756592 0.4513067 0.469725 0.30738834 0.2866569 -0.1741644 0.2907018 -0.17312089
-0.29266524 -0.42024577 -0.0032358197 0.24216487 -0.31484136 -0.0284878 0.13129847 -0.08043002
0.17605962 0.33272654 -0.11090961 0.15613343 0.07802507 -0.14550811 0.036137503 -0.12868337
0.17146537 0.18993987 0.051535882 -0.1704125 0.122651696 0.028794432 0.20664065 0.1117915
-0.02750107 0.100566864 0.019020187 0.02617135 -0.08202268 -0.12350248 -0.41827518 -0.25016755
-0.13737313 -0.2260878

fc1.bias f4 [14]
00000000: d657 7b3e a4c9 f1be dd3d 2f3d 408c 103f
00000010: 3f69 80bf 53ff 983f ad37 0abe e0b0 98bd
00000020: 7f94 86bf 9e74 af3f e5f9 263f 688b 85bd
00000030: 4b42 093f 1e32 68bf
0.24545226 -0.47224152 0.042783607 0.56464005 -1.0032119 1.1952919 -0.13497801 -0.07455611
-1.0514067 1.3707464 0.6522506 -0.0652073 0.5361678 -0.9070147

fc21.weight f4 [7, 14]
00000000: 91d1 7fbe 0be7 b13e e04a be3e 52c4 9fbe
00000010: 39c0 193f f97a e63b ab0c 1abe 4fc9 e2be
00000020: 3e8b 8bbf a4e4 a33d 9f64 96bd 8cc5 2c3e
00000030: 760e 5ebe d4d9 c83f 6ca5 f43c 0ac2 ccbc
00000040: bf5b 853d 30f9 093e 1c38 963c 4fa1 513d
00000050: 787f 81bd 3035 6ebd 156f b43b d07e 4fbd
00000060: a829 a0bd 5591 54be f7fe 743d 853a 13bc
00000070: 0929 5c3e 7947 1fbe 970c 973d ffd9 e53d
00000080: 1d08 463d e6bc 803a 8013 27be 3155 97bd
00000090: 03b4 6b3c 6f74 14bc c0bf f23c c41a 31be
000000a0: 2e12 5dbe c76f b2bc 4532 10be 808c f03d
000000b0: 0648 373d 534e 4fbc b721 e2bd 739d 95bb
000000c0: c0e2 983d 4242 71bd aea9 08bb cd99 8bbd
000000d0: 1635 093e 418a 403d 5247 293e 836f 553e
000000e0: c984 5ebe f72c a63d 06b6 d13d 54cf d1bd
000000f0: 2ce0 343c bc3c ac3d fa0a 1b3e f010 a0bd
00000100: a447 59bc 15b7 63bd a912 6a3d e673 4abe
00000110: 86db 1e3f 9685 3d3e 4532 f1bc fc74 6ebc
00000120: 7ef6 15bc 2931 a3bd 7691 753c 44b8 0fbe
00000130: 68b0 6cbe 317a c13c 0dbf 873c a5dc e53d
00000140: 45ff 8d3c 2428 e73d fd8b 653e 7529 3a3c
00000150: 2890 813c af56 393c bd96 abbd 32a4 beba
00000160: 334a 1d3b 9689 6ebe 1018 493d 8377 993d
00000170: 1995 4f3b d62d f43d e498 03bd c4b1 6e3e
00000180: f2c7 bdbd 3e92 97bd
-0.24982287 0.34746584 0.371665 -0.31204468 0.60058933 0.0070337025 -0.15043895 -0.4429421
-1.0901868 0.08002594 -0.07343411 0.16872233 -0.21685204 1.5691476 0.029864036 -0.024994869
0.0651164 0.13473964 0.018337302 0.051179226 -0.06323141 -0.058156192 0.005506406 -0.050658047
-0.07820445 -0.20758565 0.059813466 -0.00898612 0.21500029 -0.15554608 0.07375448 0.1122322
0.04834758 0.0009821921 -0.16316032 -0.07389296 0.01438618 -0.009060963 0.02963245 -0.17295367
-0.21588966 -0.021781815 -0.14081676 0.11745548 0.04474642 -0.012652951 -0.11041587 -0.0045658886
0.07465124 -0.05890108 -0.002085309 -0.068164445 0.13399157 0.04700685 0.16531113 0.2084332
-0.21730341 0.08114045 0.10239796 -0.10244623 0.011039775 0.08410022 0.15140906 -0.078157306
-0.013261709 -0.055594523 0.057146702 -0.19770774 0.62053716 0.1850799 -0.029442916 -0.014554258
-0.009153007 -0.07968361 0.014988294 -0.14035136 -0.23114169 0.023617836 0.016570592 0.11223725
0.017333636 0.11286953 0.22416683 0.011362423 0.01581581 0.011312171 -0.083783604 -0.0014544784
0.0024000525 -0.23294672 0.049095213 0.07493498 0.0031674562 0.11922805 -0.03212823 0.2331
-0.09266652 -0.0740094

fc21.bias f4 [7]
00000000: 7db3 823e 9e9f 59bd 27fa 11bc 96b2 cebc
00000010: 785e 8fbe 3467 89bd dd9f 3a3e
0.25527564 -0.05313074 -0.008909739 -0.02523164 -0.2800176 -0.067091376 0.18225046

fc22.weight f4 [7, 14]
00000000: 952b 38bc 1e29 893f 74de 083f 273f 2bbf
00000010: 4bd9 0840 fe33 a8bf 10eb 983d ca60 db3e
00000020: 2169 6540 141e d7bf 9c8f 71bf abf8 8b3e
00000030: 1a45 abbe 7d44 bd3f 5d25 fb3b 734b 323a
00000040: f12d f6bc 15e2 a73d 0556 05bb fa04 57be
00000050: 3034 ec3d cae4 db3c 0a3a ac3b bd59 bb3d
00000060: cd0a b4bd d89b 7ebd 84b5 533d 5660 18bc
00000070: f233 eebd b1e1 a03d 9cdb 52bd b97b 6b3c
00000080: c217 2dbc 7179 7d3e 7e44 5b3e 5921 483d
00000090: 2083 89bb 5c4c 00be 39d3 f1bd ebef 56bd
000000a0: 9515 b1bd bff4 073d 9148 18bd c699 233d
000000b0: 057e 48bd 6e21 e6bd d49e afbc f29a 043d
000000c0: 3c77 a73d d732 383d 61a2 1fbc 9ac1 753c
000000d0: dba4 94bd 4cc7 27be dcb3 e43d db98 823d
000000e0: 327d 96bd dcdd 743d 2dce c8bd 005b 7fbd
000000f0: fa69 c0bc 85a9 1b3d a6fe 84be 59ef b23d
00000100: 1a5e 6fbc 399a 803d a0a3 debe 4a3e 783e
00000110: 7c65 e83e e468 a83d dc98 8cbe f1ac 303e
00000120: 7a45 58bd 29f7 38be 4b10 7fbc 4781 243e
00000130: 80fd 003d f9b4 523d 401e aaba 6f9a b5bc
00000140: 14fb 803e 7bf4 efbd 325a a83d 2eeb 1f3d
00000150: e009 73be 00de 1f3e 46b7 0bbe 2159 923d
00000160: 7982 87bc 9918 743e a584 73be 152f 043e
00000170: a865 9ebc bdd0 9ebc 3768 25be 43e4 043d
00000180: ab42 59bd dc5c de3c
-0.0112408595 1.0715673 0.53464437 -0.6689324 2.1382625 -1.3140867 0.074667096 0.42847282
3.5845416 -1.6806054 -0.94359756 0.27338156 -0.33451158 1.4786526 0.007664366 0.0006801404
-0.030051203 0.081974186 -0.002034546 -0.20997992 0.115333915 0.026842494 0.0052559422 0.091479756
-0.087911226 -0.062160343 0.05168678 -0.009300312 -0.116310015 0.07855547 -0.051478967 0.0143727595
-0.010564746 0.24753357 0.21412846 0.048859928 -0.0041965395 -0.12529129 -0.11807866 -0.052474897
-0.086466946 0.033192392 -0.03717858 0.03994157 -0.048948307 -0.11236845 -0.02143804 0.03237433
0.08177039 0.04497036 -0.009743304 0.0149997715 -0.07258006 -0.1638462 0.11167118 0.06376811
-0.07348098 0.059781894 -0.0980495 -0.062342644 -0.023488034 0.038003463 -0.2597553 0.08737058
-0.014609838 0.06279416 -0.4348421 0.24242511 0.45389926 0.08223131 -0.27460372 0.17253472
-0.052800633 -0.18063034 -0.015567849 0.1606494 0.031491756 0.05144212 -0.0012978986 -0.022168366
0.25191557 -0.11716553 0.082203284 0.039042644 -0.23734236 0.1561203 -0.13644132 0.07145906
-0.016541706 0.23837508 -0.23781069 0.12908585 -0.019335583 -0.019386644 -0.16153036 0.03244425
-0.053042095 0.027143888

fc22.bias f4 [7]
00000000: 7ed8 88bf 27b4 da3d 6332 db3c 60d4 61bb
00000010: 0aa7 15bd 4b58 4fbe d536 cabd
-1.0691068 0.106788926 0.026757425 -0.003445886 -0.036536254 -0.20248525 -0.0987374

fc3.weight f4 [14, 7]
00000000: 3d1a 353f 9c1a 5f3c e057 c73b 99c4 723c
00000010: 432e a23d 9a69 713b a36d a3bc d866 e8bc
00000020: c441 c9bd b47f 9dbd cd88 3cbd d569 bbbd
00000030: 99dc 9d3d 8bd4 9abd 8869 fdbe 5ac5 4eb9
00000040: 22a1 183a 3e41 333b 6963 c83b 6899 bbbb
00000050: 0a1b 4fbb 9631 38bf aafc ba3b e884 9e3b
00000060: 9037 8f3b f24c 1abb 7bc9 24ba 608e 143b
00000070: fbd6 01bf e59e 2a3b a6fe a23b 814d a1bb
00000080: e91a 263b 4348 5e3c 1c7d 383c 356f 0d3f
00000090: f04c 14bb 3e27 c73b c6b0 0bbc 95a4 263b
000000a0: 2f75 a73c 310c 843c 061a 193f c8b1 35ba
000000b0: 2b76 d13b 771f d5ba cbb7 193c f3ff 63bc
000000c0: 9991 3e3c b2a2 703f 2fad 5b3b 51d9 8c3b
000000d0: eef1 08ba 37cf ec3a 05fd dcba 1bbc b23a
000000e0: c057 3bbf 5591 cebb ecab e1bb 3230 bdbc
000000f0: 31f2 9dbd 4408 23bb 96f8 e13c 5f59 03bf
00000100: 8940 113b 0390 d43c 6a96 2cbc 5bb1 823d
00000110: 444c f8ba 88f6 823a 9e51 a73e e422 1cbc
00000120: 6f3b ef3c 1f54 79bd ef6f 5cbd 2469 a8bb
00000130: b7fe 643d 5526 e43e af1c 6c3b 2125 1dbd
00000140: ebe1 6b3c 7ce4 aabd b76e c33b 6557 dbbc
00000150: ab3a 673e 1ef9 253c f5fc 0b3c f5f7 0ebd
00000160: 2dc1 c43b c00a 453b 087f 263d 5931 4a3e
00000170: 0cf1 1b3c ae20 1abd d821 873d 769a a43c
00000180: 50d1 bb3b fd0c 61bd
0.7074316 0.013617184 0.0060834736 0.01481738 0.0791898 0.0036836625 -0.01994974 -0.028369352
-0.09826997 -0.07690373 -0.0460289 -0.09151045 0.07708091 -0.075600706 -0.49494576 -0.0001971921
0.00058223505 0.002735212 0.0061153662 -0.0057250746 -0.003160181 -0.7195066 0.0057063894 0.004837621
0.0043706372 -0.0023544398 -0.00062861264 0.002266787 -0.5071866 0.002603465 0.004974204 -0.0049225693
0.002534563 0.013567033 0.011260297 0.55247813 -0.0022628866 0.006077676 -0.008526033 0.0025427688
0.02044162 0.016119095 0.59805334 -0.00069310935 0.0063922605 -0.0016259988 0.009382199 -0.0139160035
0.011631393 0.93998253 0.0033519974 0.004298367 -0.00052240386 0.0018067126 -0.0016860074 0.0013636382
-0.7318077 -0.006303946 -0.0068869498 -0.02309427 -0.0771221 -0.0024876753 0.027584355 -0.51308244
0.002216371 0.025947576 -0.010533908 0.06381484 -0.0018943627 0.0009991685 0.32679456 -0.009529803
0.029203145 -0.06087124 -0.053817686 -0.005139487 0.055906978 0.44560495 0.003602784 -0.038365487
0.014397125 -0.08344361 0.005964126 -0.026775071 0.22580974 0.010130195 0.008544196 -0.03490444
0.0060044737 0.0030066222 0.04064849 0.19745387 0.009517919 -0.037628822 0.06598252 0.020093184
0.005731739 -0.054944027

fc3.bias f4 [14]
00000000: 5fe0 8abe 88e0 02bf 195b 93bd bd80 53be
00000010: 8cb0 bbbe 73c4 22bf 11ad babe 953a 153e
00000020: d258 943e 4d11 0e3f 6c6e 373f 13da 05bf
00000030: 9df1 bfbe 9029 da3e
-0.27124307 -0.5112386 -0.0719511 -0.20654579 -0.36658132 -0.6358101 -0.36460164 0.14573129
0.28974015 0.5549515 0.71652865 -0.5228588 -0.37489024 0.42609835

fc4.weight f4 [7, 14]
00000000: e5c4 a0be f697 8c3b ccc0 283e 9280 833e
00000010: 557c b83d 7696 7dbe 940f 0dbe 5692 b0be
00000020: a548 9c3e da06 643e 5db1 57be 9049 4cbe
00000030: 1018 cf3c d42a 8ebd dfd1 a8be a400 0f3c
00000040: f946 183e d95e 7c3e c8a4 953d c429 afbd
00000050: acad e8bd 204a a1be 1b89 a63e dcc1 8f3e
00000060: f903 10be 98c1 49be 8c72 b03c 082e 5a3c
00000070: 055a 9dbe 0ffc 9e3b ee95 453e fe4b 5e3e
00000080: 59c2 a43d d2d3 063d 0706 9dbd 84c3 9abe
00000090: 9706 a33e 4c74 853e 0c7b 20be daa0 14be
000000a0: e8b6 af3c f53a 26bc b525 afbe 9778 263c
000000b0: e3de e73d 0f0f 363e 136f 173e d218 7b3c
000000c0: 245b 8fbd 6e55 69be 211c b63e 870c 7b3e
000000d0: 26ab 87be ac1d 12be cf7f 123c 71c1 c3bd
000000e0: 04ec 90be 23d0 383c 15e8 5e3e 8faf 583e
000000f0: a5ec 953e d448 da3d 8fb9 1ebd b7d8 94be
00000100: ecab 9e3e a51c 4e3e c8f8 76be 7fc7 9ebd
00000110: b62d 783c a133 cabd 6344 8cbe f4cd b63c
00000120: 3011 963e e791 533e 1665 be3e af4d 683d
00000130: 4181 1ebd 9984 a5be e496 9e3e 95d8 773e
00000140: ad23 21be e16c e8bd 3d92 b43c f81e aabc
00000150: e96a 85be 9cfc 943c 9632 aa3e 4d26 5c3e
00000160: fc14 023f b699 903d cb0f 26bd a8ef aebe
00000170: 2efe 953e d8ba 423e 2143 5dbe 03a6 93bd
00000180: a21f 143c ee2b bfbd
-0.3140022 0.004290576 0.16479796 0.2568403 0.090080895 -0.24764428 -0.13775474 -0.34486645
0.30524173 0.22268239 -0.21063752 -0.19949937 0.025280029 -0.069417626 -0.3297262 0.00872818
0.14870824 0.24645557 0.0730682 -0.08552888 -0.1136125 -0.31501865 0.32526478 0.2807759
-0.14064015 -0.19702756 0.021538995 0.013316639 -0.30732742 0.004851825 0.19295475 0.21708676
0.080448814 0.03291685 -0.07667165 -0.30227292 0.31840965 0.2606529 -0.15671939 -0.14514485
0.021449521 -0.010145892 -0.34208456 0.010160587 0.11321809 0.17779182 0.14788465 0.015325742
-0.069998056 -0.22786495 0.35568336 0.24516498 -0.26497763 -0.14269131 0.008941605 -0.095583804
-0.28305066 0.011280092 0.2176822 0.2116072 0.29282108 0.10658422 -0.03875118 -0.2907159
0.3099054 0.20128115 -0.2411834 -0.077528946 0.015147617 -0.09873129 -0.27395925 0.022315003
0.29309988 0.20661126 0.37186497 0.05671471 -0.038697485 -0.32327726 0.30974495 0.24203713
-0.15736265 -0.11348892 0.022042388 -0.02076672 -0.26058128 0.01818686 0.3324172 0.21498986
0.5081327 0.07060568 -0.040542405 -0.34167218 0.29295486 0.19016588 -0.21607639 -0.072093986
0.009040745 -0.09334551

fc4.bias f4 [7]
00000000: 303f 34bd c2a3 20be 8212 d9bd fea0 533b
00000010: 4cad 963d 3a5b f3bc e9d4 bc3d
-0.044005573 -0.15687469 -0.10599233 0.0032292004 0.073572725 -0.029706586 0.09220297
