COIL/vae/c2_v4_vae.pt (torch, 3527 bytes, 10 tensors)

fc1.weight f4 [8, 4]
0	0xbc9b4698	-0.01895456
1	0x3f0576e0	0.52134514
2	0x3e5d9425	0.21638544
3	0x3e5df028	0.21673644
4	0x3eb90dd9	0.36143377
5	0xbe2a21aa	-0.16614404
6	0x3d05aa2d	0.032632995
7	0x3ea60fa1	0.324338
8	0x3e9a140c	0.3009342
9	0x3f0fd57b	0.5618512
10	0xbc63fcf3	-0.013915288
11	0x3ee8aec6	0.45445842
12	0xbc429323	-0.0118759
13	0xbe70474c	-0.23464698
14	0xbe1616d0	-0.1465714
15	0xbdd57851	-0.10423339
16	0xbebec35c	-0.37258422
17	0xbf047bbd	-0.5175131
18	0xbeb4c608	-0.35307336
19	0xbf2ae2f5	-0.6675256
20	0xbef154f9	-0.47135141
21	0xbe911918	-0.28339458
22	0xbd8e112c	-0.06936869
23	0xbe1a7d93	-0.15086965
24	0x3e9741e8	0.2954247
25	0x3e43c188	0.19116795
26	0x3e3a71d0	0.18207479
27	0xbed59e9c	-0.41722572
28	0xbde8beb8	-0.11364502
29	0xbddeee58	-0.10885304
30	0x3ec8a9cc	0.39192045
31	0xbebf2d24	-0.37339127

fc1.bias f4 [8]
0	0x3f9698a0	1.1765327
1	0x3f2caaa2	0.67447865
2	0xbf34a681	-0.70566565
3	0x3f1b5890	0.6068201
4	0xbf971931	-1.1804563
5	0x3f72c501	0.94831854
6	0xbedbd8c4	-0.42938817
7	0xbeb369c4	-0.3504163

fc21.weight f4 [4, 8]
0	0x3d8fc1ce	0.07019387
1	0x3e75dac4	0.24009234
2	0xbc45d54c	-0.01207478
3	0xbee4f858	-0.4472072
4	0x3bd15e4c	0.006389415
5	0x3eddde6f	0.43333766
6	0x3dd7ab88	0.10530764
7	0x3e5e18c2	0.21689132
8	0x3af8afd7	0.0018973303
9	0x3d059946	0.032616876
10	0x3c021550	0.007939652
11	0x3e641cf8	0.22276676
12	0xbbc89ac1	-0.0061219637
13	0xbdcd2962	-0.10017659
14	0x3c450ea0	0.012027413
15	0xbe6454ce	-0.22297975
16	0x3ee9075d	0.4551343
17	0x3f15293d	0.5826605
18	0x3f3eb2e9	0.74491745
19	0xbf33d33d	-0.702442
20	0xbf66d342	-0.90166104
21	0xbed606c4	-0.41802037
22	0xbdd31a00	-0.103076935
23	0x3ccc6790	0.024951726
24	0x3db5c62a	0.088756874
25	0xbddf3d05	-0.109003104
26	0x3c3639b0	0.011122152
27	0x3e12dba1	0.14341594
28	0x3c1e0f1e	0.009647159
29	0xbd3f9cb4	-0.046780303
30	0xbd75cfe0	-0.0600127
31	0x3e99b29b	0.30019078

fc21.bias f4 [4]
0	0xbec9b528	-0.39396024
1	0xbd85e814	-0.06538406
2	0xbdd46e4b	-0.10372599
3	0xbd8f6840	-0.07002306

fc22.weight f4 [4, 8]
0	0x3e8d2ff0	0.27575636
1	0xbeca8bcb	-0.3955978
2	0x3c313058	0.010814749
3	0xbdbbbf08	-0.09167296
4	0x3b3a3be7	0.0028417052
5	0x3db2eec2	0.08736946
6	0x3e90c7e7	0.28277513
7	0x3e784362	0.24244455
8	0x3e66bcc2	0.22532943
9	0xbed77aaf	-0.42085788
10	0x3c4aafb6	0.012370994
11	0xbe38321d	-0.17987867
12	0x3b01ef71	0.0019826556
13	0x3d89ff55	0.06738154
14	0xbc31fe60	-0.01086387
15	0x3ca18a60	0.019719303
16	0xbfae7bbf	-1.3631514
17	0xbf7e58e5	-0.9935439
18	0x4045d71c	3.0912542
19	0xbf6f4d56	-0.9347738
20	0x407ba083	3.9316719
21	0xbfb4973f	-1.4108657
22	0x3e47ab42	0.19498923
23	0x3e49b056	0.19696173
24	0x3b1e0c96	0.0024116389
25	0xbe316e9e	-0.17327353
26	0x3b991b5c	0.004672451
27	0xbdc58b76	-0.09645741
28	0xbc345f12	-0.011008995
29	0xbd37d466	-0.044880293
30	0x3c712700	0.014718771
31	0x3e3a9fa6	0.18224964

fc22.bias f4 [4]
0	0xbda7029f	-0.08154797
1	0x3d7e200c	0.06204228
2	0xbf8adb59	-1.084819
3	0x3e5dca6a	0.21659246

fc3.weight f4 [8, 4]
0	0x3d32e1b7	0.04367229
1	0xba28b05c	-0.0006434971
2	0x3f85eea1	1.0463449
3	0xbd8c891b	-0.06862088
4	0xbc1c47f3	-0.009538638
5	0x3c56e2de	0.013115613
6	0x3f35ebec	0.71063113
7	0xbc30304f	-0.010753705
8	0x3ce1b560	0.027552307
9	0xb8219a12	-3.852888e-05
10	0x3e82a99d	0.2552003
11	0xbd17e42e	-0.037082843
12	0xbd766473	-0.06015439
13	0x3bb6dc8c	0.0055804905
14	0x3f56fc5c	0.8397882
15	0x3dd10afc	0.10207173
16	0xbc6b6ca6	-0.0143691655
17	0x39a86018	0.00032115052
18	0x3f0343fa	0.512756
19	0x3c9717e2	0.018444005
20	0xbd1f059d	-0.038823713
21	0x3b9b9b8b	0.004748767
22	0x3e36ebd2	0.17863396
23	0x3d951ce6	0.072809026
24	0x3d7a6f0b	0.061141055
25	0xbc15f365	-0.009152268
26	0xbf46ac28	-0.7760644
27	0xbde32061	-0.1109016
28	0xbd301a39	-0.042993758
29	0x3a187373	0.0005815543
30	0xbf92d447	-1.1471032
31	0x3d8a8aab	0.0676473

fc3.bias f4 [8]
0	0x3dbe0299	0.09277839
1	0xbf6453ff	-0.8919067
2	0x3f1305d5	0.57430774
3	0xbe9ec364	-0.31008446
4	0x3e89a22a	0.26881534
5	0x3efa73c3	0.48916444
6	0x3e91cb8a	0.284756
7	0xbe0136d2	-0.12618569

fc4.weight f4 [4, 8]
0	0x3eed1590	0.46305513
1	0x3eac128e	0.33607906
2	0x3dec7fbc	0.11547801
3	0x3e9b9dce	0.30393833
4	0xbdf4ebb4	-0.11959019
5	0x3db89150	0.09012091
6	0xbe898b4d	-0.2686409
7	0xbefbb07c	-0.49158084
8	0x3f00f9d0	0.50381184
9	0x3f008881	0.5020829
10	0x3b2ed761	0.0026678669
11	0x3e8d42a9	0.2758992
12	0xbd97c9a4	-0.07411507
13	0x3de31e7e	0.110898
14	0xbe652914	-0.22378951
15	0xbf029e02	-0.5102235
16	0x3ea12f78	0.31481528
17	0x3f1a956c	0.6038425
18	0x3ec68930	0.3877654
19	0x3eeab8c0	0.45844078
20	0xbd909f83	-0.070616744
21	0xbdea2a2d	-0.11433826
22	0xbecada67	-0.39619753
23	0xbead5450	-0.33853388
24	0x3f0cbbaf	0.5497388
25	0x3f6551b6	0.89577806
26	0x3c64f84d	0.013975215
27	0x3e578414	0.21046478
28	0xbd4243a7	-0.0474278
29	0x3e8d459a	0.27592164
30	0xbe0523af	-0.13001893
31	0xbf083d0f	-0.5321817

fc4.bias f4 [4]
0	0xbd95408b	-0.07287701
1	0xbcc9ddf0	-0.02464196
2	0xbd6c78ad	-0.057732273
3	0xbe006757	-0.12539421
