COIL/vae/c2_v8_vae.pt (torch, 5447 bytes, 10 tensors)

fc1.weight f4 [16, 8]
0.1762133 0.44257084 0.31417435 0.3903468 0.22521701 0.012016687 0.1951228 0.21851575
0.21531677 0.2922669 -0.1709311 -0.3584768 -0.08387746 0.028484657 0.14869517 -0.038006023
-0.24448888 0.31558818 -0.27115563 0.35445932 -0.2531481 0.054309502 0.00925621 0.024058046
0.009118694 -0.12136632 0.2985188 0.15575854 0.049328398 0.28302082 0.27553824 0.020857567
-0.042825446 -0.19625169 -0.18351053 -0.023408704 -0.23659135 -0.07148937 -0.20270136 -0.4088832
-0.1277114 0.049703054 -0.44196525 -0.2864763 -0.321884 0.026360363 -0.2629975 -0.06802248
0.10155469 -0.07626648 0.38209507 0.25674406 0.23517245 0.42686176 0.23991309 0.35844985
-0.12870163 -0.028589126 0.11874881 -0.05724289 0.17403826 -0.051046535 -0.23565996 -0.090338185
-0.19033407 0.011497796 -0.24572653 0.28271666 -0.26556715 0.13659418 0.16792902 0.051526338
-0.05000202 -0.24637714 -0.23840994 -0.4141901 -0.0782751 -0.22875635 -0.17583963 -0.24764553
0.26845667 0.22146574 -0.15219244 0.09040127 -0.067832425 -0.093082175 0.050193377 0.26506418
-0.18870868 -0.049666885 0.10187474 -0.24026445 -0.35486776 -0.19401066 0.030105332 0.11726191
0.11496275 0.26498303 0.12346785 0.30287948 0.041224875 0.41996506 0.058435034 -0.13226762
-0.30573866 -0.18733521 -0.19769844 -0.31996843 0.14240779 -0.40294257 -0.41642857 -0.2132653
-0.04238844 -0.46602464 -0.14125004 0.18067428 -0.2307542 -0.06391392 -0.0013942112 -0.25047597
-0.0132129425 -0.17825577 0.22678451 -0.1243485 -0.110611394 -0.19317208 0.118056 0.18625614
00000000: 4271 343e a598 e23e 76db a03e 89db c73e
00000010: 4a9f 663e a3e1 443c 45ce 473e 98c2 5f3e
00000020: 007c 5c3e 02a4 953e 9008 2fbe 458a b7be
00000030: f2c7 abbd a858 e93c 8c43 183e 34ac 1bbd
00000040: 4b5b 7abe c694 a13e e9d4 8abe b17b b53e
00000050: a19c 81be a473 5e3d 5ca7 173c 6115 c53c
00000060: 9366 153c e88e f8bd 75d7 983e 2b7f 1f3e
00000070: 930c 4a3d 1be8 903e 5913 8d3e 7ddd aa3c
00000080: bc69 2fbd 34f6 48be 2fea 3bbe 9cc3 bfbc
00000090: 0145 72be 0569 92bd f290 4fbe 2459 d1be
000000a0: c7c6 02be 6e95 4b3d 4549 e2be 06ad 92be
000000b0: fbcd a4be b0f1 d73c 9ca7 86be 5f4f 8bbd
000000c0: e8fb cf3d 9a31 9cbd f7a1 c33e f573 833e
000000d0: 0cd1 703e a08d da3e c7ab 753e bd86 b73e
000000e0: 5cca 03be be33 eabc 9332 f33d 8577 6abd
000000f0: 1637 323e 2c16 51bd d850 71be 3a03 b9bd
00000100: efe6 42be 4061 3c3c bc9f 7bbe 3dc0 903e
00000110: 6bf8 87be 58df 0b3e 96f5 2b3e 480d 533d
00000120: ebce 4cbd 4a4a 7cbe bc21 74be ba10 d4be
00000130: b24e a0bd 1b3f 6abe 4e0f 34be ca96 7dbe
00000140: 2773 893e eac7 623e 56d8 1bbe 4d24 b93d
00000150: baeb 8abd dea1 bebd 9297 4d3d 7eb6 873e
00000160: d93c 41be 816f 4bbd b4a3 d03d e207 76be
00000170: 3ab1 b5be bbaa 46be 759f f63c 0327 f03d
00000180: 9771 eb3d dbab 873e b6dc fc3d 0513 9b3e
00000190: 6adb 283d a905 d73e 9359 6f3d 2a71 07be
000001a0: c789 9cbe cdd4 3fbe 7671 4abe e7d2 a3be
000001b0: 59d3 113e 7d4e cebe 2036 d5be 3862 5abe
000001c0: 809f 2dbd c89a eebe daa3 10be ae02 393e
000001d0: d44a 6cbe 4de5 82bd f7bd b6ba 633e 80be
000001e0: 197b 58bc ae88 36be 333a 683e 6daa febd
000001f0: 3a88 e2bd e7ce 45be 58c7 f13d eeb9 3e3e

fc1.bias f4 [16]
-0.048278715 0.64284545 -0.043304097 1.1407278 -0.9693466 0.006366092 0.23216581 -0.30492562
-0.21679246 -0.26410592 0.31995663 0.73930556 -0.59518033 -0.9947134 1.1375021 0.028916636
00000000: e7bf 45bd 8591 243f a35f 31bd 5e03 923f
00000010: 1927 78bf a69a d03b e0bc 6d3e 361f 9cbe
00000020: d8fe 5dbe e438 87be 5bd1 a33e 2143 3d3f
00000030: bd5d 18bf 8aa5 7ebf ab99 913f 95e2 ec3c

fc21.weight f4 [8, 16]
0.029503288 0.10414058 -0.12222834 -0.031232465 0.03969753 -0.014233957 -0.002252065 0.05212602
-0.18392473 0.013531717 -0.058080945 0.15262303 -0.007893712 0.0026050035 -0.13817352 -0.14273572
-0.20683767 -0.118927665 -0.016550157 0.16250806 0.023489784 0.28334224 -0.0072850334 0.036498696
-0.22468019 -0.0031689676 -0.065545164 -0.13627627 0.00928221 0.020899655 -0.2117264 0.39766014
-0.13159734 0.027498437 0.12347592 0.14415567 0.015825968 0.16196685 0.08744097 0.070230655
-0.2377896 -0.074576534 -0.012276735 0.05839533 0.013140106 -0.00030800648 -0.008519193 0.09190315
-0.15806264 -0.012428516 -0.042634383 -0.1398231 -0.03000664 0.21346517 0.25322157 -0.13747828
-0.04950887 -0.31072137 -0.07778087 -0.059066243 -0.0025474534 0.03308159 0.06768439 -0.06893578
0.07318616 -0.14072603 0.20753083 0.03435984 0.0061185122 -0.11046574 0.04627534 0.0019572559
-0.1652362 -0.06425571 -0.20719428 0.13192934 -0.02865476 0.0820157 0.03569498 0.13576406
-0.006794004 -0.10365114 0.04078834 -0.0057597067 0.009780237 -0.0029168979 0.033740833 -0.051734865
-0.037373036 -0.013178794 0.14408 -0.053238157 0.0051746904 -0.06861087 0.17027299 -0.07246004
0.34872752 0.09529598 0.003597785 0.1463877 -1.5583364 -0.27463847 0.2949611 0.11940616
0.24107006 -0.4035288 0.3022381 -0.09991945 0.8493212 -0.5621287 -0.06756492 -0.07581835
0.15050432 -0.14272255 0.020512437 -0.10236419 -0.020409929 -0.19879788 -0.0075444314 0.1268454
0.02176401 -0.00089758245 0.029048942 0.08248354 -0.02182448 0.009241665 0.1304764 -0.072295085
00000000: e1b0 f13c a847 d53d da52 fabd 3adb ffbc
00000010: e199 223d 8b35 69bc 6297 13bb 1882 553d
00000020: c456 3cbe 22b4 5d3c 49e6 6dbd 3649 1c3e
00000030: a154 01bc b5b8 2a3b 5c7d 0dbe 5029 12be
00000040: 41cd 53be 5990 f3bd 3294 87bc 8368 263e
00000050: a66d c03c 3c12 913e 4ab7 eebb a87f 153d
00000060: 9012 66be 74ae 4fbb 8b3c 86bd 028c 0bbe
00000070: 6914 183c c135 ab3c cece 58be 1c9a cb3e
00000080: 74c1 06be 6744 e13c f1e0 fc3d 8b9d 133e
00000090: 76a5 813c a3da 253e 4014 b33d 17d5 8f3d
000000a0: 1e7f 73be 95bb 98bd 5c24 49bc f12f 6f3d
000000b0: 9949 573c ee7b a1b9 1694 0bbc b837 bc3d
000000c0: 2cdb 21be f9a0 4bbc 64a1 2ebd c92d 0fbe
000000d0: 7cd0 f5bc 9d96 5a3e 42a6 813e 1bc7 0cbe
000000e0: d0c9 4abd df16 9fbe 944b 9fbd 72ef 71bd
000000f0: 2df3 26bb 9080 073d 1d9e 8a3d 342e 8dbd
00000100: a0e2 953d 7c1a 10be f682 543e e7bc 0c3d
00000110: cd7d c83b dd3b e2bd 368b 3d3d 4e45 003b
00000120: ae33 29be 7f98 83bd bd2a 54be 7c18 073e
00000130: 63bd eabc d9f7 a73d e634 123d bc05 0b3e
00000140: 3ca0 debb 0d47 d4bd ad11 273d ecbb bcbb
00000150: 4a3d 203c 6d29 3fbb d433 0a3d f0e7 53bd
00000160: 7814 19bd deeb 57bc b589 133e 4110 5abd
00000170: 7390 a93b db83 8cbd 0b5c 2e3e ee65 94bd
00000180: 6a8c b23e 8a2a c33d d1c8 6b3b a8e6 153e
00000190: 9177 c7bf 6a9d 8cbe 2405 973e 388b f43d
000001a0: 12db 763e 549b cebe f4be 9a3e 92a2 ccbd
000001b0: 1d6d 593f abe7 0fbf 7a5f 8abd a746 9bbd
000001c0: ce1d 1a3e dc25 12be b309 a83c 51a4 d1bd
000001d0: b932 a7bc ac91 4bbe 4737 f7bb c3e3 013e
000001e0: 704a b23c bd4b 6bba 0cf8 ed3c 21ed a83d
000001f0: 40c9 b2bc 5a6a 173c 9b9b 053e 720f 94bd

fc21.bias f4 [8]
0.041833557 0.23314607 -0.2512824 0.09184527 -0.050312355 -0.13298845 -0.25830925 -0.0076122032
00000000: aa59 2b3d d8bd 6e3e 16a8 80be 5f19 bc3d
00000010: 5414 4ebd 202e 08be 1c41 84be ca6f f9bb

fc22.weight f4 [8, 16]
0.024304226 0.0012498265 0.22015014 -0.08442375 -0.016267452 -0.012102853 0.06711193 0.2291254
-0.24837828 -0.08167598 0.05723127 -0.10923189 -0.01750756 0.002993408 0.18173814 0.003657604
0.013946909 0.07047887 -0.19274077 -0.01312794 -0.031759065 -0.0060856477 0.011746124 -0.025830157
-0.23140451 -0.019962521 -0.0709007 0.14666168 0.017830897 0.04136492 -0.09974644 -0.27118686
0.17613469 0.41106004 -0.0734757 -0.17269072 -0.019455593 -0.29277226 0.11484536 -0.193713
0.23797768 -0.077899955 -0.2524065 0.1577617 0.004761589 0.079967976 0.1428658 -0.16322133
0.025456365 0.11395172 -0.24715678 0.14444794 0.004947465 -0.03422753 -0.073626265 0.14820637
0.12069616 0.08224543 -0.053324126 -0.09314421 -0.0058257505 0.016556608 0.095696665 0.023286484
-0.07410841 0.114768185 0.013249823 -0.08944484 -0.0061899615 0.08790792 0.16430359 0.18151286
-0.13612294 -0.18538001 0.0750757 -0.029744422 0.012696979 -0.01963719 0.17102231 -0.07154881
0.075841494 0.09480584 -0.24619494 -0.04363636 -0.042627394 -0.1035886 0.10554589 0.06915173
-0.12987348 -0.118095025 -0.22529191 0.1466488 0.005394669 0.08933898 0.0736635 -0.2084054
0.17713691 -0.9495943 -0.090836145 -1.7434508 0.90206605 0.20304221 0.3258705 0.21936424
0.03980699 1.0642948 -0.21136016 -1.0922873 0.83460045 2.2148223 -1.4771076 -0.38132873
0.074463464 0.21069245 -0.064876966 -0.19061995 -0.0121489335 -0.14515883 0.13116188 0.03517186
0.042542458 -0.11052517 -0.3014424 0.15079653 0.0064928588 0.09261803 -0.07145561 -0.015440481
00000000: a819 c73c 38d1 a33a 0a6f 613e 5ce6 acbd
00000010: 5243 85bc 0b4b 46bc fb71 893d d99f 6a3e
00000020: e056 7ebe bc45 a7bd 566b 6a3d f8b4 dfbd
00000030: 046c 8fbc 0d2d 443b 9019 3a3e 6ab4 6f3b
00000040: 9481 643c 3a57 903d d65d 45be 9216 57bc
00000050: cb15 02bd 1d6a c7bb d172 403c c499 d3bc
00000060: 4ef5 6cbe 7188 a3bc 6334 91bd 7b2e 163e
00000070: 1a12 923c 436e 293d dd47 ccbd 01d9 8abe
00000080: a75c 343e 7676 d23e 6e7a 96bd d6d5 30be
00000090: 5661 9fbc 3fe6 95be 0b34 eb3d b35c 46be
000000a0: 6cb0 733e 038a 9fbd 6d3b 81be 488c 213e
000000b0: 1b07 9c3b 40c6 a33d 6a4b 123e 7e23 27be
000000c0: de89 d03c 855f e93d ab16 7dbe 29ea 133e
000000d0: 581e a23b 2b32 0cbd 5ec9 96bd 69c3 173e
000000e0: 8c2f f73d 4b70 a83d 666a 5abd 64c2 bebd
000000f0: f0e5 bebb b9a1 873c 9dfc c33d 4cc3 be3c
00000100: 26c6 97bd 950b eb3d c915 593c db2e b7bd
00000110: 29d5 cabb 1109 b43d 333f 283e 82de 393e
00000120: d063 0bbe 42d4 3dbe 4ac1 993d 93aa f3bc
00000130: fd06 503c 2cde a0bc 7920 2f3e 2f88 92bd
00000140: c952 9b3d 9029 c23d 871a 7cbe 0abc 32bd
00000150: 109a 2ebd 4326 d4bd 7228 d83d 6c9f 8d3d
00000160: 8efd 04be cedb f1bd ecb2 66be 1a2b 163e
00000170: c3c5 b03b 5bf7 b63d e4dc 963d 3a68 55be
00000180: 6163 353e 9d18 73bf 4d08 babd 6529 dfbf
00000190: cded 663f 4cea 4f3e 80d8 a63e 05a1 603e
000001a0: a80c 233d d03a 883f cc6e 58be 12d0 8bbf
000001b0: 60a8 553f a6bf 0d40 dd11 bdbf 853d c3be
000001c0: 4d80 983d c3bf 573e 37de 84bd e031 43be
000001d0: 520c 47bc 84a4 14be 4d4f 063e 5e10 103d
000001e0: 0041 2e3d 055b e2bd a956 9abe 686a 1a3e
000001f0: 0cc2 d43b 86ae bd3d 5257 92bd 12fa 7cbc

fc22.bias f4 [8]
-0.06781096 0.0050997725 -0.27166384 -0.24173203 -0.2182771 -0.14831337 -1.0089042 0.118870854
00000000: 79e0 8abd fe1b a73b 8617 8bbe 9a88 77be
00000010: 0884 5fbe 76df 17be c623 81bf 9072 f33d

fc3.weight f4 [16, 8]
0.021874357 -0.033147953 -0.0606657 -0.020863596 0.009237106 0.057279456 0.7530482 0.0033106385
0.0028286262 -0.0042890455 0.01804179 0.00039634795 0.0027867467 -0.005639447 0.119620785 0.007719106
-0.008535742 -0.0051282905 -0.004343378 -0.012013456 7.335475e-05 0.0032219635 0.8518033 -0.0016839814
0.0072434954 -0.02790427 -0.036610033 -0.012187802 -0.014693526 0.01842895 0.08806637 0.013523871
0.031734634 -0.01144255 -0.006316885 0.0002125483 -0.010427564 0.0034074872 0.5292187 0.0022375414
-0.00093455054 0.0066895257 -0.018661704 0.000766178 -0.008053369 0.00089573173 -0.267721 -0.007856478
0.0013536637 0.005513328 0.00486748 0.006391349 -0.0059418906 -0.007323376 -0.38246953 -0.006279724
-0.010727279 0.023059376 0.048126344 0.018685026 -0.013461255 -0.051045038 -0.6775856 -4.4948552e-05
0.009527317 -0.026258854 -0.04982939 -0.023168469 0.016023312 0.045240447 -0.8087358 0.0067471326
-0.002768337 -0.011819068 0.0029594847 -0.002933688 0.0051716357 -0.0056374264 0.58165395 0.009643993
0.0033029967 0.004611696 0.0050993813 0.0035546825 -0.0010411474 0.008550907 -0.8117455 0.0014000984
-0.00999699 0.02815055 0.042029362 0.018701626 -0.006678403 -0.039556954 0.74269104 -0.0054645417
0.031207493 0.047390666 -0.033112742 0.0052187038 0.008566221 -0.0858322 0.17298216 -0.07431863
-0.006881252 -0.0062667783 0.012258863 -0.0024879046 0.0056872806 0.0070611886 0.15571176 0.0062755225
-0.00060507364 -0.001806489 0.007895463 0.0027411717 0.0017649473 -0.009001011 0.4080564 -0.003967636
-0.0011406183 0.0047227154 0.0057832752 0.005332444 -5.6454315e-05 0.007267757 0.57344675 -0.0102330465
00000000: da31 b33c 26c6 07bd 997c 78bd 22ea aabc
00000010: 3b57 173c dd9d 6a3d c4c7 403f 4cf7 583b
00000020: 7960 393b 1f8b 8cbb 60cc 933c eccc cf39
00000030: daa1 363b 1ccb b8bb befb f43d 8ef0 fc3b
00000040: 7fd9 0bbc 380b a8bb e552 8ebb 16d4 44bc
00000050: 08d6 9938 9427 533b c80f 5a3f 0ab9 dcba
00000060: d85a ed3b 7f97 e4bc 67f4 15bd 59af 47bc
00000070: 1dbd 70bc 4ff8 963c 245c b43d 3a93 5d3c
00000080: 2dfc 013d 8979 3bbc dffd cebb 80df 5e39
00000090: 60d8 2abc 2650 5f3b e07a 073f b7a3 123b
000000a0: a0fc 74ba cf33 db3b 6ee0 98bc 56d9 483a
000000b0: 47f2 03bc 8acf 6a3a ba12 89be 75b8 00bc
000000c0: 6b6d b13a 26a9 b43b 627f 9f3b 856e d13b
000000d0: 31b4 c2bb eef8 efbb 0cd3 c3be 25c6 cdbb
000000e0: 78c1 2fbc 04e7 bc3c 2120 453d 5711 993c
000000f0: 988c 5cbc 9a14 51bd 4076 2dbf 2487 3cb8
00000100: 7718 1c3c cf1c d7bc e719 4cbd cdcb bdbc
00000110: 5243 833c 0c4e 393d 4f09 4fbf 0d17 dd3b
00000120: fd6c 35bb c4a4 41bc eaf3 413b 1e43 40bb
00000130: d376 a93b 29ba b8bb 46e7 143f d701 1e3c
00000140: 1777 583b b61d 973b b618 a73b adf5 683b
00000150: 1c77 88ba 1a19 0c3c 8ece 4fbf 8283 b73a
00000160: 6aca 23bc fb9b e63c fb26 2c3d 2734 993c
00000170: 81d6 dabb 7906 22bd 0021 3e3f e60f b3bb
00000180: dba6 ff3c b71c 423d 3aa1 07bd a901 ab3b
00000190: 5659 0c3c cbc8 afbd 3c22 313e 5e34 98bd
000001a0: 207c e1bb 8c59 cdbb 66d9 483c 1d0c 23bb
000001b0: 5e5c ba3b 8b61 e73b e772 1f3e e6a2 cd3b
000001c0: ce9d 1eba b6c7 ecba f95b 013c 3ba5 333b
000001d0: ce55 e73a fa78 13bc c5ec d03e f102 82bb
000001e0: cd80 95ba 02c1 9a3b a181 bd3b c8bb ae3b
000001f0: 5cc9 6cb8 5d26 ee3b 68cd 123f 82a8 27bc

fc3.bias f4 [16]
0.38795012 0.27668545 -0.03488854 -0.0012451757 -0.42451516 0.44035897 0.016492229 -0.33861092
-0.05176981 -0.8092657 0.015909268 0.04029862 -0.45957312 0.24728209 0.33264777 -0.9676176
00000000: 66a1 c63e b7a9 8d3e 49e7 0ebd 2a35 a3ba
00000010: 0d5a d9be bb76 e13e b61a 873c 695e adbe
00000020: 950c 54bd 092c 4fbf 2754 823c 2a10 253d
00000030: 2b4d ebbe 8437 7d3e cf50 aa3e c9b5 77bf

fc4.weight f4 [8, 16]
0.21487653 -0.09099273 0.18458924 0.026887083 -0.09121787 -0.15319166 -0.1581444 -0.40487024
-0.41141817 0.33180004 -0.20540202 0.3492148 0.00863701 0.053931236 0.009290419 0.37594405
0.1992766 -0.047498085 0.19935527 0.008733915 -0.09155258 -0.08840353 -0.036004927 -0.30613393
-0.3167714 0.29645708 -0.31499976 0.30542597 0.0013039341 0.06397617 0.09123917 0.43140617
0.20455092 0.011052733 0.18038899 0.005254969 -0.04693351 -0.061873984 -0.14320996 -0.26492348
-0.30815125 0.39727238 -0.21244314 0.2979194 -0.010590821 0.0533054 0.177542 0.67885387
0.22414409 0.15835948 0.17119548 0.007637502 0.0026130192 -0.0061409175 -0.06272958 -0.2886897
-0.2876239 0.37840182 -0.26057333 0.29791516 -0.009730687 0.022262858 0.1796765 0.63935345
0.19308235 -0.037904873 0.1817 0.0045344583 0.0026512295 -0.18939511 -0.05148249 -0.22005573
-0.2469614 0.31926394 -0.29370424 0.273 -0.01014384 -0.052033186 0.19901614 0.5055411
0.19430575 0.053498548 0.21093653 -0.0027349198 0.032894522 -0.14119083 -0.017682709 -0.21561551
-0.21629778 0.3666998 -0.32774845 0.25594884 -0.004086618 -0.0623587 0.22170983 0.3829989
0.20894134 0.12619816 0.17931683 0.0036596935 0.1262729 -0.03714638 -0.09084067 -0.21909246
-0.2407329 0.4542578 -0.22686978 0.27375752 0.008921368 -0.008079283 0.28464496 0.322319
0.18852764 -0.122988015 0.20689648 -0.024854083 0.23975845 -0.09277036 0.012154147 -0.1927225
-0.239518 0.8112539 -0.2936835 0.29426628 0.007197073 0.088123 0.3019672 0.55877745
00000000: 9808 5c3e 655a babd f604 3d3e 4d42 dc3c
00000010: 6fd0 babd 46de 1cbe 9bf0 21be 274b cfbe
00000020: 67a5 d2be b2e1 a93e e854 52be 48cc b23e
00000030: 3f82 0d3c 00e7 5c3d d736 183c bd7b c03e
00000040: 2a0f 4c3e 5a8d 42bd ca23 4c3e b218 0f3c
00000050: eb7f bbbd e90c b5bd e779 13bd 96bd 9cbe
00000060: dc2f a2be 39c9 973e a647 a1be cb60 9c3e
00000070: c5e8 aa3a f005 833d 9adb ba3d 45e1 dc3e
00000080: cc75 513e 8616 353c e4b7 383e e031 ac3b
00000090: 5a3d 40bd 936f 7dbd a2a5 12be 0da4 87be
000000a0: 00c6 9dbe 4967 cb3e b28a 59be e488 983e
000000b0: 1f85 2dbc c356 5a3d 92cd 353e 5ec9 2d3f
000000c0: 0786 653e fd28 223e de4d 2f3e 0344 fa3b
000000d0: 303f 2b3b c039 c9bb 5e78 80bd 23cf 93be
000000e0: 7143 93be e2bd c13e de69 85be 5688 983e
000000f0: 766d 1fbc 9960 b63c 1efd 373e abac 233f
00000100: 61b7 453e 2442 1bbd 910f 3a3e cb95 943b
00000110: 40c0 2d3b cbf0 41be 4edf 52bd 4a56 61be
00000120: 73e3 7cbe 9076 a33e 6760 96be a8c6 8b3e
00000130: 5932 26bc c020 55bd e3ca 4b3e 246b 013f
00000140: 16f8 463e 4b21 5b3d bfff 573e 573c 33bb
00000150: 68bc 063d 5494 10be 54db 90bc 50ca 5cbe
00000160: 2a7d 5dbe 14c0 bb3e a5ce a7be ba0b 833e
00000170: 09e9 85bb d66b 7fbd e707 633e 6f18 c43e
00000180: b8f4 553e 173a 013e d59e 373e 78d7 6f3b
00000190: af4d 013e cd26 18bd ac0a babd c659 60be
000001a0: af82 76be 7a94 e83e 8d50 68be f229 8c3e
000001b0: ee2a 123c f85e 04bc fcbc 913e ff06 a53e
000001c0: 640d 413e 24e1 fbbd acdc 533e ca9a cbbc
000001d0: 3d83 753e 63fe bdbd 3022 473c 0c59 45be
000001e0: 3544 75be 56ae 4f3f af5d 96be 12aa 963e
000001f0: 6dd5 eb3b d579 b43d 729b 9a3e 0a0c 0f3f

fc4.bias f4 [8]
-0.089405544 -0.12812322 -0.1438805 -0.20238975 -0.029939052 -0.060769457 -0.13494048 -0.036548857
00000000: 411a b7bd bc32 03be 6955 13be 423f 4fbe
00000010: be42 f5bc 65e9 78bd d62d 0abe 41b4 15bd
