COIL/vae/c2_v3_vae.pt (torch, 3527 bytes, 10 tensors)

fc1.weight f4 [6, 3]
-0.29349145 -0.32730594 -0.97502846 -0.20440006 -0.32572496 -0.4000896 0.5772652 0.09142826
0.024751496 -0.11426115 -0.49505675 0.57314944 0.6338601 0.59043753 0.18551034 0.067552134
-0.8526818 -0.2015867
00000000: 8344 96be a594 a7be 779b 79bf 404e 51be
00000010: 6cc5 a6be 8bd8 ccbe a7c7 133f bd3e bb3d
00000020: a6c3 ca3c c001 eabd 1478 fdbe ecb9 123f
00000030: a844 223f ea26 173f 6cf6 3d3e c658 8a3d
00000040: 5b49 5abf be6c 4ebe

fc1.bias f4 [6]
-0.8540551 0.30352357 1.143078 -0.07335317 -0.53967154 0.9607985
00000000: 5ba3 5abf 7167 9b3e 6150 923f 303a 96bd
00000010: ea27 0abf e4f6 753f

fc21.weight f4 [3, 6]
-0.021234002 0.12040772 0.09258501 0.34682631 -0.092271246 -0.037434068 0.76488763 0.579084
-0.7226519 -0.049174786 -0.88679165 0.43000403 -0.017931461 0.2124667 -0.01774601 -0.08867058
-0.15816061 -0.2086376
00000000: eef2 adbc 5398 f63d 369d bd3d 3893 b13e
00000010: b5f8 bcbd 7754 19bd adcf 433f d93e 143f
00000020: b7ff 38bf 806b 49bd c704 63bf 7d29 dc3e
00000030: 00e5 92bc df90 593e 1560 91bc ec98 b5bd
00000040: dbf4 21be 18a5 55be

fc21.bias f4 [3]
-0.105499394 0.25332966 0.15104061
00000000: 1110 d8bd 6db4 813e 64aa 1a3e

fc22.weight f4 [3, 6]
-0.0048261983 0.12576792 0.051353376 0.09990865 -0.08023706 -0.0746732 2.478988 0.5888612
-1.8717003 -0.06842953 1.9579991 -1.5278248 -0.032006856 0.034439452 0.02566942 -0.18123412
-0.010624919 -0.0025779651
00000000: 1625 9ebb 4ec9 003e eb57 523d e89c cc3d
00000010: 5453 a4bd 43ee 98bd bda7 1e40 9cbf 163f
00000020: e093 efbf c824 8cbd b79f fa3f c38f c3bf
00000030: 9f19 03bd 6210 0d3d ad48 d23c 7095 39be
00000040: 2414 2ebc 14f3 28bb

fc22.bias f4 [3]
-0.033601042 -1.7058465 -0.043846715
00000000: 3fa1 09bd 2e59 dabf 9d98 33bd

fc3.weight f4 [6, 3]
-0.047057647 -0.2643267 -0.1456335 -0.08159469 0.94819397 -0.28127822 0.06606078 -0.75117683
0.22758579 0.0035362814 0.5640094 0.019641725 -0.014512223 -0.9410651 -0.016904835 -0.012007751
0.54223704 0.014625405
00000000: 85bf 40bd d455 87be f320 15be 1e1b a7bd
00000010: d7bc 723f b303 90be e04a 873d 204d 40bf
00000020: 400c 693e f5c0 673b ec62 103f afe7 a03c
00000030: adc4 6dbc a4e9 70bf 027c 8abc 28bc 44bc
00000040: 0cd0 0a3f 659f 6f3c

fc3.bias f4 [6]
0.69360346 0.11160038 -0.10202998 0.58813274 -1.0243416 -0.717879
00000000: ff8f 313f bd8e e43d 18f5 d0bd de8f 163f
00000010: a01d 83bf ebc6 37bf

fc4.weight f4 [3, 6]
0.46255878 -0.29946783 0.3457543 -0.58060783 0.7036938 -0.84372115 0.4944527 -0.30648658
0.37501433 -0.5419585 0.786674 -0.5643318 0.41846672 -0.26455006 0.34652004 -0.6362994
0.9821941 -0.32890087
00000000: 81d4 ec3e d953 99be b506 b13e b7a2 14bf
00000010: 4725 343f 1cfe 57bf e728 fd3e cfeb 9cbe
00000020: e101 c03e cbbd 0abf 7863 493f 0d78 10bf
00000030: 4541 d63e 1b73 87be 136b b13e 84e4 22bf
00000040: 1371 7b3f b265 a8be

fc4.bias f4 [3]
0.046124645 0.023608893 0.14902061
00000000: 32ed 3c3d 7067 c13c dc98 183e
